system/system/saiv/textrecognition/stride/mSTRScriptDetection.tflite (tflite, 657984 bytes, 12 tensors)

model_2/conv2d/Conv2D i1 [32, 3, 3, 3]
00000000: e0a0 298a 93ca 81bc 01f8 3244 4529 5bfc
00000010: 516c 3e31 852f 31e9 72fb 9dd0 cae6 0409
00000020: 192a 30fd b79f 8156 e729 fd76 59ea e39f
00000030: 59f1 30b5 2b30 c826 1caf ec3b ac15 2dca
00000040: 1943 2353 190d 1e05 6dcb c413 97a2 7fc7
00000050: c22b 6b70 fa1e f8dc cad7 267f 48ee c2f1
00000060: 0dba cafc 2118 cba0 a616 effc 1558 2a0e
00000070: 5d46 1d1d 0925 f512 e1b1 c8ee 81b2 f805
00000080: f1ed d900 eb18 1252 49ec f8fe eca3 edff
00000090: 9e96 b481 e2be 1440 0301 3254 7614 6962
000000a0: c8f6 b9a0 0109 90c5 0ff8 f571 4531 046f
000000b0: 1cee 7f29 e70a f9bc b2c1 2fed 0e33 5411
000000c0: 4de8 cd19 eaad 6bdf c90f b5c1 9bf5 3cdc
000000d0: c9fa 872a 38f4 597f e6e4 fe24 14fc 3c7f
000000e0: 4cd9 e6db d4bd fd02 3306 21d2 efc7 c0cb
000000f0: 2621 283a 302d 4f7f 2119 19de e30c 021a
-32 -96 41 -118 -109 -54 -127 -68
1 -8 50 68 69 41 91 -4
81 108 62 49 -123 47 49 -23
114 -5 -99 -48 -54 -26 4 9
25 42 48 -3 -73 -97 -127 86
-25 41 -3 118 89 -22 -29 -97
89 -15 48 -75 43 48 -56 38
28 -81 -20 59 -84 21 45 -54
25 67 35 83 25 13 30 5
109 -53 -60 19 -105 -94 127 -57
-62 43 107 112 -6 30 -8 -36
-54 -41 38 127 72 -18 -62 -15
13 -70 -54 -4 33 24 -53 -96
-90 22 -17 -4 21 88 42 14
93 70 29 29 9 37 -11 18
-31 -79 -56 -18 -127 -78 -8 5
-15 -19 -39 0 -21 24 18 82
73 -20 -8 -2 -20 -93 -19 -1
-98 -106 -76 -127 -30 -66 20 64
3 1 50 84 118 20 105 98
-56 -10 -71 -96 1 9 -112 -59
15 -8 -11 113 69 49 4 111
28 -18 127 41 -25 10 -7 -68
-78 -63 47 -19 14 51 84 17
77 -24 -51 25 -22 -83 107 -33
-55 15 -75 -63 -101 -11 60 -36
-55 -6 -121 42 56 -12 89 127
-26 -28 -2 36 20 -4 60 127
76 -39 -26 -37 -44 -67 -3 2
51 6 33 -46 -17 -57 -64 -53
38 33 40 58 48 45 79 127
33 25 25 -34 -29 12 2 26

model_2/extra/Conv2D i1 [64, 3, 3, 32]
00000000: f5d8 12ec e3e4 f8e3 2010 e3d3 ed23 060c
00000010: cfca 08e9 f80d edf4 10f7 f1d1 a42c fb26
00000020: 0d8c 09f5 edf5 13e6 2ff3 e0f6 f0ee 1a1e
00000030: 24ee 24d1 fb4c 1ee1 2016 f9bb a416 001c
00000040: 1809 1b0c 0814 210d 17fa 0a0e 14ed 1503
00000050: fc11 10f3 fe44 1af7 2121 31e3 00f6 302b
00000060: fdd9 12da 1e12 dd05 0310 10dc e217 0005
00000070: d7d5 0008 212f fa1a 1af9 f1e1 a515 e01c
00000080: 0cb2 f39c f4dc e0ce 0d04 f6c8 bafd 11ff
00000090: dcaf 25c1 0706 ec05 09f9 c4ae 8120 9320
000000a0: 1cd5 fe09 f9ff f7fb fdfc fd00 1efe 1429
000000b0: fffd 1cce fe1c 07f7 fe16 12ec cf07 1118
000000c0: f51e f413 2603 fb15 07ee 0bf2 210f f009
000000d0: 2f15 081e ff21 030b 0707 1f1d 02f7 1b03
000000e0: f00d fab9 fcff f7e9 2f08 ebfa 0612 03f8
000000f0: 06e0 fe1a 0223 f012 0a0b 03fa ee17 0408
-11 -40 18 -20 -29 -28 -8 -29
32 16 -29 -45 -19 35 6 12
-49 -54 8 -23 -8 13 -19 -12
16 -9 -15 -47 -92 44 -5 38
13 -116 9 -11 -19 -11 19 -26
47 -13 -32 -10 -16 -18 26 30
36 -18 36 -47 -5 76 30 -31
32 22 -7 -69 -92 22 0 28
24 9 27 12 8 20 33 13
23 -6 10 14 20 -19 21 3
-4 17 16 -13 -2 68 26 -9
33 33 49 -29 0 -10 48 43
-3 -39 18 -38 30 18 -35 5
3 16 16 -36 -30 23 0 5
-41 -43 0 8 33 47 -6 26
26 -7 -15 -31 -91 21 -32 28
12 -78 -13 -100 -12 -36 -32 -50
13 4 -10 -56 -70 -3 17 -1
-36 -81 37 -63 7 6 -20 5
9 -7 -60 -82 -127 32 -109 32
28 -43 -2 9 -7 -1 -9 -5
-3 -4 -3 0 30 -2 20 41
-1 -3 28 -50 -2 28 7 -9
-2 22 18 -20 -49 7 17 24
-11 30 -12 19 38 3 -5 21
7 -18 11 -14 33 15 -16 9
47 21 8 30 -1 33 3 11
7 7 31 29 2 -9 27 3
-16 13 -6 -71 -4 -1 -9 -23
47 8 -21 -6 6 18 3 -8
6 -32 -2 26 2 35 -16 18
10 11 3 -6 -18 23 4 8

model_2/conv2d_1/Conv2D i1 [96, 3, 3, 64]
00000000: 28de 0921 e303 12e9 08fb f0f5 3909 d110
00000010: f1ff 021a 120a 0513 e6e7 f40c f3e8 27c6
00000020: 3cff e81f 4408 f9ee f503 e2fd 07d6 f110
00000030: db01 f848 dae4 db14 04ec f600 e2f7 150f
00000040: e6fd d827 e0e8 0fd9 e0e3 fac4 1202 eefd
00000050: eaf9 0521 08d1 da42 04e2 f1e7 ecf0 f106
00000060: 1be2 350d 1ae4 d429 e40b edff dc04 0310
00000070: fff3 fc07 d20e e528 f9d6 ee00 f809 ec12
00000080: ff13 ddee 0ad3 16fe 0f04 18be 1732 1de6
00000090: 0214 36e5 fbfc 0963 3007 ff2b 1b15 fa1c
000000a0: 09eb 2c19 020e ed0b e6e0 10e2 eb3e f71d
000000b0: fc2f 0af3 fa0e 09f6 ead3 1e13 1df8 2310
000000c0: 07f6 214a feee 25f0 fec0 ffe9 f1df d21f
000000d0: cf1a f82f 04dd d75b 4def cfef f7d9 e4e9
000000e0: fddb 3ac6 25d8 dc2a e729 15dc d500 221f
000000f0: 04e5 290f d621 1901 04e8 0717 101e bd21
40 -34 9 33 -29 3 18 -23
8 -5 -16 -11 57 9 -47 16
-15 -1 2 26 18 10 5 19
-26 -25 -12 12 -13 -24 39 -58
60 -1 -24 31 68 8 -7 -18
-11 3 -30 -3 7 -42 -15 16
-37 1 -8 72 -38 -28 -37 20
4 -20 -10 0 -30 -9 21 15
-26 -3 -40 39 -32 -24 15 -39
-32 -29 -6 -60 18 2 -18 -3
-22 -7 5 33 8 -47 -38 66
4 -30 -15 -25 -20 -16 -15 6
27 -30 53 13 26 -28 -44 41
-28 11 -19 -1 -36 4 3 16
-1 -13 -4 7 -46 14 -27 40
-7 -42 -18 0 -8 9 -20 18
-1 19 -35 -18 10 -45 22 -2
15 4 24 -66 23 50 29 -26
2 20 54 -27 -5 -4 9 99
48 7 -1 43 27 21 -6 28
9 -21 44 25 2 14 -19 11
-26 -32 16 -30 -21 62 -9 29
-4 47 10 -13 -6 14 9 -10
-22 -45 30 19 29 -8 35 16
7 -10 33 74 -2 -18 37 -16
-2 -64 -1 -23 -15 -33 -46 31
-49 26 -8 47 4 -35 -41 91
77 -17 -49 -17 -9 -39 -28 -23
-3 -37 58 -58 37 -40 -36 42
-25 41 21 -36 -43 0 34 31
4 -27 41 15 -42 33 25 1
4 -24 7 23 16 30 -67 33

model_2/GSE_A_1_fully_connected1/MatMul i1 [6, 96] scale=0.007474476 zero_point=0
00000000: 05ff e720 08f9 1615 101f fbed e6f5 f1f0
00000010: eb20 da11 e004 0133 0ae9 fdea df14 49fe
00000020: d8df ef11 22f2 341d 3343 231a cf26 eb37
00000030: fb22 0aea f042 2705 e030 4621 2c22 4447
00000040: fe07 e91b 2d1b 051c 2915 09ed 0c19 e41d
00000050: 322d 0e16 eb03 e3d6 0bf8 29ce 12fa 27df
00000060: 100f 2936 4111 f833 1ef2 dbf6 4813 2125
00000070: 2352 052d cf04 0000 02fa 28f7 01d0 13fc
00000080: 0d4b 1d1c 1c14 04eb c818 21fd f7e7 10f8
00000090: e60f 2002 ffd6 0cea 1ce8 ef34 3f18 1de6
000000a0: 3608 0b24 29e1 4cff 361a fd33 3825 27ed
000000b0: 17fd cffd f440 161e 2806 d842 023c 1f12
000000c0: f5f1 17d7 e622 e1d1 dd0b 2015 0b1c 30f3
000000d0: f706 00eb 33fe 1fea ebfb e8ef 2a42 cb36
000000e0: 051c 21de ecd1 cde8 17bd e721 f81f 0af8
000000f0: f3d0 0e05 f7e2 fa1b 3ed8 fbe2 000b e3f2
0.03737238 -0.007474476 -0.1868619 0.23918323 0.059795808 -0.052321333 0.16443847 0.15696399
0.119591616 0.23170875 -0.03737238 -0.14201504 -0.19433637 -0.082219236 -0.11211714 -0.119591616
-0.15696399 0.23918323 -0.28403008 0.12706609 -0.23918323 0.029897904 0.007474476 0.3811983
0.07474476 -0.17191295 -0.022423428 -0.16443847 -0.24665771 0.14948952 0.5456368 -0.014948952
-0.29897904 -0.24665771 -0.12706609 0.12706609 0.25413218 -0.10464267 0.38867274 0.2167598
0.3811983 0.5007899 0.26160666 0.19433637 -0.36624932 0.28403008 -0.15696399 0.4110962
-0.03737238 0.25413218 0.07474476 -0.16443847 -0.119591616 0.49331543 0.29150456 0.03737238
-0.23918323 0.35877484 0.5232133 0.24665771 0.32887694 0.25413218 0.50826436 0.5306878
-0.014948952 0.052321333 -0.17191295 0.20181085 0.33635142 0.20181085 0.03737238 0.20928533
0.30645353 0.15696399 0.06727029 -0.14201504 0.08969371 0.1868619 -0.20928533 0.2167598
0.3737238 0.33635142 0.10464267 0.16443847 -0.15696399 0.022423428 -0.2167598 -0.31392798
0.082219236 -0.059795808 0.30645353 -0.3737238 0.13454057 -0.044846855 0.29150456 -0.24665771
0.119591616 0.11211714 0.30645353 0.4036217 0.48584095 0.12706609 -0.059795808 0.3811983
0.22423428 -0.10464267 -0.2765556 -0.07474476 0.5381623 0.14201504 0.24665771 0.2765556
0.26160666 0.61290705 0.03737238 0.33635142 -0.36624932 0.029897904 0.0 0.0
0.014948952 -0.044846855 0.29897904 -0.06727029 0.007474476 -0.35877484 0.14201504 -0.029897904
0.097168185 0.5605857 0.2167598 0.20928533 0.20928533 0.14948952 0.029897904 -0.15696399
-0.41857067 0.17938742 0.24665771 -0.022423428 -0.06727029 -0.1868619 0.119591616 -0.059795808
-0.19433637 0.11211714 0.23918323 0.014948952 -0.007474476 -0.31392798 0.08969371 -0.16443847
0.20928533 -0.17938742 -0.12706609 0.38867274 0.47089198 0.17938742 0.2167598 -0.19433637
0.4036217 0.059795808 0.082219236 0.26908115 0.30645353 -0.23170875 0.56806016 -0.007474476
0.4036217 0.19433637 -0.022423428 0.3811983 0.41857067 0.2765556 0.29150456 -0.14201504
0.17191295 -0.022423428 -0.36624932 -0.022423428 -0.08969371 0.47836646 0.16443847 0.22423428
0.29897904 0.044846855 -0.29897904 0.49331543 0.014948952 0.44846857 0.23170875 0.13454057
-0.082219236 -0.11211714 0.17191295 -0.30645353 -0.19433637 0.25413218 -0.23170875 -0.35130036
-0.26160666 0.082219236 0.23918323 0.15696399 0.082219236 0.20928533 0.35877484 -0.097168185
-0.06727029 0.044846855 0.0 -0.15696399 0.3811983 -0.014948952 0.23170875 -0.16443847
-0.15696399 -0.03737238 -0.17938742 -0.12706609 0.31392798 0.49331543 -0.39614722 0.4036217
0.03737238 0.20928533 0.24665771 -0.25413218 -0.14948952 -0.35130036 -0.3811983 -0.17938742
0.17191295 -0.5007899 -0.1868619 0.24665771 -0.059795808 0.23170875 0.07474476 -0.059795808
-0.097168185 -0.35877484 0.10464267 0.03737238 -0.06727029 -0.22423428 -0.044846855 0.20181085
0.4634175 -0.29897904 -0.03737238 -0.22423428 0.0 0.082219236 -0.2167598 -0.10464267

model_2/GSE_A_1_fully_connected2/MatMul i1 [96, 6] scale=0.010167805 zero_point=0
00000000: f9ee f01d fde7 365e 363f 5b4f 462b 453e
00000010: 5441 0af1 2afe 2414 fbfd 0bfc 220b 0aeb
00000020: f400 e115 14ec 24f3 0ef7 ed1b 18ed feef
00000030: 555b 425c 5f5c fb10 14fb 1d0c 040f 423f
00000040: 4724 4a54 3f2e 4d3a 1feb fb0d 1bf5 0dee
00000050: 1d05 07fc 3347 3423 1a2f 4d7f 6667 7b7a
00000060: 6258 3746 5836 e508 0bee 250c 5441 1c58
00000070: 3754 23f3 05fc 12ff 131d 081e 2a32 5d72
00000080: 455e 7a68 5256 2544 5f5f ecff 23e9 f510
00000090: 12f0 f5e9 2308 595f 5447 425e 515d 4f54
000000a0: 4854 4843 4269 594f 4c5c 0736 4725 1b25
000000b0: 0009 0105 e6fc 110c 0bff 143a 172b 1820
000000c0: 7663 2c4e 5364 fbe7 09f0 fd0b 5e63 5d76
000000d0: 6e5b 1c50 4541 4331 0d1c 1321 2737 4b38
000000e0: 4660 3d56 e70f 1ffe f8f5 f0e9 24ea 28fc
000000f0: fe20 1bfd 00ee ed05 1501 1dfc 4572 3855
-0.07117463 -0.18302049 -0.16268487 0.29486632 -0.030503415 -0.25419512 0.5490614 0.95577365
0.5490614 0.6405717 0.9252702 0.8032566 0.71174634 0.4372156 0.7015785 0.6304039
0.8540956 0.66090727 0.10167804 -0.15251707 0.4270478 -0.02033561 0.36604097 0.20335609
-0.05083902 -0.030503415 0.11184585 -0.04067122 0.34570536 0.11184585 0.10167804 -0.2135239
-0.12201366 0.0 -0.31520194 0.2135239 0.20335609 -0.20335609 0.36604097 -0.13218147
0.14234926 -0.09151024 -0.19318828 0.2745307 0.24402732 -0.19318828 -0.02033561 -0.17285268
0.8642634 0.9252702 0.6710751 0.93543804 0.9659414 0.93543804 -0.05083902 0.16268487
0.20335609 -0.05083902 0.29486632 0.12201366 0.04067122 0.15251707 0.6710751 0.6405717
0.7219141 0.36604097 0.75241756 0.8540956 0.6405717 0.46771902 0.78292096 0.58973265
0.31520194 -0.2135239 -0.05083902 0.13218147 0.2745307 -0.11184585 0.13218147 -0.18302049
0.29486632 0.05083902 0.07117463 -0.04067122 0.518558 0.7219141 0.52872586 0.35587317
0.26436293 0.47788683 0.78292096 1.2913111 1.037116 1.0472839 1.2506399 1.2404722
0.9964448 0.8947668 0.55922925 0.71174634 0.8947668 0.5490614 -0.2745307 0.08134244
0.11184585 -0.18302049 0.37620878 0.12201366 0.8540956 0.66090727 0.28469852 0.8947668
0.55922925 0.8540956 0.35587317 -0.13218147 0.05083902 -0.04067122 0.18302049 -0.010167805
0.19318828 0.29486632 0.08134244 0.30503413 0.4270478 0.50839025 0.9456058 1.1591297
0.7015785 0.95577365 1.2404722 1.0574517 0.83375996 0.8744312 0.37620878 0.6914107
0.9659414 0.9659414 -0.20335609 -0.010167805 0.35587317 -0.23385951 -0.11184585 0.16268487
0.18302049 -0.16268487 -0.11184585 -0.23385951 0.35587317 0.08134244 0.9049346 0.9659414
0.8540956 0.7219141 0.6710751 0.95577365 0.8235922 0.9456058 0.8032566 0.8540956
0.73208195 0.8540956 0.73208195 0.6812429 0.6710751 1.0676194 0.9049346 0.8032566
0.7727531 0.93543804 0.07117463 0.5490614 0.7219141 0.37620878 0.2745307 0.37620878
0.0 0.09151024 0.010167805 0.05083902 -0.26436293 -0.04067122 0.17285268 0.12201366
0.11184585 -0.010167805 0.20335609 0.58973265 0.23385951 0.4372156 0.24402732 0.32536975
1.199801 1.0066127 0.4473834 0.79308873 0.8439278 1.0167805 -0.05083902 -0.25419512
0.09151024 -0.16268487 -0.030503415 0.11184585 0.95577365 1.0066127 0.9456058 1.199801
1.1184585 0.9252702 0.28469852 0.81342435 0.7015785 0.66090727 0.6812429 0.4982224
0.13218147 0.28469852 0.19318828 0.33553755 0.39654437 0.55922925 0.76258534 0.56939703
0.71174634 0.97610927 0.6202361 0.8744312 -0.25419512 0.15251707 0.31520194 -0.02033561
-0.08134244 -0.11184585 -0.16268487 -0.23385951 0.36604097 -0.2236917 0.40671217 -0.04067122
-0.02033561 0.32536975 0.2745307 -0.030503415 0.0 -0.18302049 -0.19318828 0.05083902
0.2135239 0.010167805 0.29486632 -0.04067122 0.7015785 1.1591297 0.56939703 0.8642634

model_2/conv2d_2/Conv2D i1 [156, 3, 3, 96]
00000000: ff1a e8d8 e33d defa 1503 09f1 d336 0a24
00000010: 1e1c 0a22 e8ef fa25 0110 ee0e 0d18 f80d
00000020: ff0f e72f 290e b21d 0c1d 1cc9 fce6 12dc
00000030: efe6 00f2 fd33 0e18 16d6 0a08 f818 0dbd
00000040: 06ed f604 1bec 02c5 06cd 242d 1709 05c7
00000050: e00d 00ec d5e3 e414 fd07 1309 e607 f134
00000060: 0509 f9ec db24 ccfb 0c0f 11fc f521 f707
00000070: 0a1d e821 f423 0a00 17e1 d40c 160f 2df0
00000080: e9f4 e01d 2228 e331 f827 14d7 fde1 efb9
00000090: eabb e5f2 10e5 0cfd f4d1 e619 06f7 fbf4
000000a0: 0cf8 da08 09fa 03ef 16cb 2220 0bfa 12f4
000000b0: c32c 0508 ebf2 f61a 1508 1223 c5fb 003c
000000c0: 1e0a fdcb 05e9 b8f0 f708 03fe ed0b 05e4
000000d0: fc07 c612 150e 10f5 10c6 a91e 280e 2218
000000e0: ebe1 e80d e1ff cdfb f913 d5d3 f709 f8e1
000000f0: eda4 f2e5 1dcc d511 f6f6 f509 17d6 fdf9
-1 26 -24 -40 -29 61 -34 -6
21 3 9 -15 -45 54 10 36
30 28 10 34 -24 -17 -6 37
1 16 -18 14 13 24 -8 13
-1 15 -25 47 41 14 -78 29
12 29 28 -55 -4 -26 18 -36
-17 -26 0 -14 -3 51 14 24
22 -42 10 8 -8 24 13 -67
6 -19 -10 4 27 -20 2 -59
6 -51 36 45 23 9 5 -57
-32 13 0 -20 -43 -29 -28 20
-3 7 19 9 -26 7 -15 52
5 9 -7 -20 -37 36 -52 -5
12 15 17 -4 -11 33 -9 7
10 29 -24 33 -12 35 10 0
23 -31 -44 12 22 15 45 -16
-23 -12 -32 29 34 40 -29 49
-8 39 20 -41 -3 -31 -17 -71
-22 -69 -27 -14 16 -27 12 -3
-12 -47 -26 25 6 -9 -5 -12
12 -8 -38 8 9 -6 3 -17
22 -53 34 32 11 -6 18 -12
-61 44 5 8 -21 -14 -10 26
21 8 18 35 -59 -5 0 60
30 10 -3 -53 5 -23 -72 -16
-9 8 3 -2 -19 11 5 -28
-4 7 -58 18 21 14 16 -11
16 -58 -87 30 40 14 34 24
-21 -31 -24 13 -31 -1 -51 -5
-7 19 -43 -45 -9 9 -8 -31
-19 -92 -14 -27 29 -52 -43 17
-10 -10 -11 9 23 -42 -3 -7

model_2/GSE_B_2_fully_connected1/MatMul i1 [9, 156] scale=0.009340806 zero_point=0
00000000: 061c 151f 0afb eb6c ef53 02fd 2b46 f44e
00000010: f90f ea0d ec24 fc03 34e9 0800 05e6 e415
00000020: 14fb 1816 fc0d 2ae1 15e3 250a f110 fa0a
00000030: f0f6 03f6 44ea 39ff f3e8 f62b 0dfb f80b
00000040: 6302 eb16 1309 f13c 05ed ee18 e806 074b
00000050: 1202 0b1c f80f ec14 f0e6 ebf7 e91c eb41
00000060: def9 0307 df05 fb2c ebeb 0114 0ad1 fbff
00000070: 53fc fe16 d306 0017 e4e9 2216 def2 0d19
00000080: 1715 0f0e ebe3 f02b 07db ec20 1043 e7f6
00000090: f90f 0614 0ef7 fc08 24e4 e7ea fb16 f138
000000a0: 191c f233 f30c e71d f514 fb40 eff0 f137
000000b0: f403 fcf2 24f6 0af2 13e5 eaee fcf6 f911
000000c0: 0516 1bf8 ebef 280f fa06 1029 e9ec 0bc7
000000d0: 1af0 5104 f70f 0234 0eee 1be9 57fc 0c19
000000e0: 0ef1 e90c 08ff 0520 0021 ef0b e0e0 131c
000000f0: eb10 0200 1416 1bee 1229 e6fe db0b 0a34
0.056044836 0.26154256 0.19615692 0.289565 0.09340806 -0.04670403 -0.19615692 1.0088071
-0.1587937 0.7752869 0.018681612 -0.028022418 0.40165466 0.6538564 -0.11208967 0.72858286
-0.06538564 0.14011209 -0.20549773 0.12143048 -0.18681613 0.33626902 -0.037363224 0.028022418
0.48572192 -0.21483853 0.07472645 0.0 0.04670403 -0.24286096 -0.26154256 0.19615692
0.18681613 -0.04670403 0.22417934 0.20549773 -0.037363224 0.12143048 0.39231384 -0.289565
0.19615692 -0.27088338 0.3456098 0.09340806 -0.14011209 0.1494529 -0.056044836 0.09340806
-0.1494529 -0.09340806 0.028022418 -0.09340806 0.6351748 -0.20549773 0.53242594 -0.009340806
-0.12143048 -0.22417934 -0.09340806 0.40165466 0.12143048 -0.04670403 -0.07472645 0.10274886
0.9247398 0.018681612 -0.19615692 0.20549773 0.17747532 0.084067255 -0.14011209 0.56044835
0.04670403 -0.17747532 -0.16813451 0.22417934 -0.22417934 0.056044836 0.06538564 0.70056045
0.16813451 0.018681612 0.10274886 0.26154256 -0.07472645 0.14011209 -0.18681613 0.18681613
-0.1494529 -0.24286096 -0.19615692 -0.084067255 -0.21483853 0.26154256 -0.19615692 0.6071524
-0.3175874 -0.06538564 0.028022418 0.06538564 -0.30824658 0.04670403 -0.04670403 0.41099545
-0.19615692 -0.19615692 0.009340806 0.18681613 0.09340806 -0.4390179 -0.04670403 -0.009340806
0.7752869 -0.037363224 -0.018681612 0.20549773 -0.42033628 0.056044836 0.0 0.21483853
-0.26154256 -0.21483853 0.3175874 0.20549773 -0.3175874 -0.13077128 0.12143048 0.23352015
0.21483853 0.19615692 0.14011209 0.13077128 -0.19615692 -0.27088338 -0.1494529 0.40165466
0.06538564 -0.3456098 -0.18681613 0.2989058 0.1494529 0.625834 -0.23352015 -0.09340806
-0.06538564 0.14011209 0.056044836 0.18681613 0.13077128 -0.084067255 -0.037363224 0.07472645
0.33626902 -0.26154256 -0.23352015 -0.20549773 -0.04670403 0.20549773 -0.14011209 0.5230851
0.23352015 0.26154256 -0.13077128 0.4763811 -0.12143048 0.11208967 -0.23352015 0.27088338
-0.10274886 0.18681613 -0.04670403 0.5978116 -0.1587937 -0.1494529 -0.14011209 0.51374435
-0.11208967 0.028022418 -0.037363224 -0.13077128 0.33626902 -0.09340806 0.09340806 -0.13077128
0.17747532 -0.25220177 -0.20549773 -0.16813451 -0.037363224 -0.09340806 -0.06538564 0.1587937
0.04670403 0.20549773 0.25220177 -0.07472645 -0.19615692 -0.1587937 0.37363225 0.14011209
-0.056044836 0.056044836 0.1494529 0.38297305 -0.21483853 -0.18681613 0.10274886 -0.53242594
0.24286096 -0.1494529 0.75660527 0.037363224 -0.084067255 0.14011209 0.018681612 0.48572192
0.13077128 -0.16813451 0.25220177 -0.21483853 0.81265014 -0.037363224 0.11208967 0.23352015
0.13077128 -0.14011209 -0.21483853 0.11208967 0.07472645 -0.009340806 0.04670403 0.2989058
0.0 0.30824658 -0.1587937 0.10274886 -0.2989058 -0.2989058 0.17747532 0.26154256
-0.19615692 0.1494529 0.018681612 0.0 0.18681613 0.20549773 0.25220177 -0.16813451
0.16813451 0.38297305 -0.24286096 -0.018681612 -0.3456098 0.10274886 0.09340806 0.48572192

model_2/GSE_B_2_fully_connected2/MatMul i1 [156, 9] scale=0.008074713 zero_point=0
00000000: fafa 2641 2df0 3618 2d56 3457 6d5e 3726
00000010: 2b67 3508 553d 3a21 702c 4a0d 2935 3c36
00000020: 1c3f 305b e600 141f 0fe2 2f01 2616 e316
00000030: fbea fbb9 d11d 0b0a 0302 173b d3f1 f2d5
00000040: d921 fdfa fe01 3a02 5247 3353 4d61 3f37
00000050: 34ec fd18 100e d516 2f10 4f50 424a 344b
00000060: 3434 2ed8 cef1 17e5 d51a fcfc 343d 4025
00000070: 1f24 160f 2dfc e300 15fa ee32 290a 3834
00000080: 5258 3031 2f16 33f3 e91e 0507 e0fe 0a26
00000090: 463d 2d3f 3a2f 2f09 4d5b 3b75 6c65 413d
000000a0: 405a 081c 13eb ed17 97c9 1003 f739 5410
000000b0: 1c42 2b4b 0ff9 f4fc 14fb 0dea 252e 3244
000000c0: 391a 300d 2f49 3016 5958 4825 3d14 6164
000000d0: 3a69 5a64 3d31 4251 0dff 281f 2b04 2d34
000000e0: 3a0d ef0d 1e17 e0fe 0430 4c21 6777 691b
000000f0: 4d50 6432 382b 2425 301f 271c 611d 5c7c
-0.04844828 -0.04844828 0.30683908 0.5248563 0.36336207 -0.1291954 0.4360345 0.19379312
0.36336207 0.6944253 0.41988507 0.70250005 0.8801437 0.759023 0.4441092 0.30683908
0.34721264 0.83169544 0.4279598 0.0645977 0.6863506 0.4925575 0.46833336 0.2664655
0.90436786 0.35528737 0.59752876 0.10497127 0.33106324 0.4279598 0.48448277 0.4360345
0.22609197 0.5087069 0.38758624 0.73479885 -0.20994253 0.0 0.16149426 0.2503161
0.12112069 -0.24224138 0.3795115 0.008074713 0.30683908 0.17764369 -0.23416668 0.17764369
-0.040373564 -0.17764369 -0.040373564 -0.5733046 -0.3795115 0.23416668 0.08882184 0.08074713
0.02422414 0.016149426 0.1857184 0.47640806 -0.36336207 -0.12112069 -0.11304598 -0.34721264
-0.3149138 0.2664655 -0.02422414 -0.04844828 -0.016149426 0.008074713 0.46833336 0.016149426
0.6621265 0.5733046 0.41181037 0.6702012 0.6217529 0.7832472 0.5087069 0.4441092
0.41988507 -0.16149426 -0.02422414 0.19379312 0.1291954 0.11304598 -0.34721264 0.17764369
0.3795115 0.1291954 0.6379023 0.645977 0.532931 0.59752876 0.41988507 0.60560346
0.41988507 0.41988507 0.3714368 -0.3229885 -0.40373564 -0.12112069 0.1857184 -0.21801725
-0.34721264 0.20994253 -0.03229885 -0.03229885 0.41988507 0.4925575 0.5167816 0.29876438
0.2503161 0.29068968 0.17764369 0.12112069 0.36336207 -0.03229885 -0.23416668 0.0
0.16956897 -0.04844828 -0.14534484 0.40373564 0.33106324 0.08074713 0.45218393 0.41988507
0.6621265 0.71057475 0.38758624 0.39566094 0.3795115 0.17764369 0.41181037 -0.10497127
-0.1857184 0.24224138 0.040373564 0.05652299 -0.2583908 -0.016149426 0.08074713 0.30683908
0.5652299 0.4925575 0.36336207 0.5087069 0.46833336 0.3795115 0.3795115 0.07267242
0.6217529 0.73479885 0.47640806 0.9447414 0.872069 0.81554604 0.5248563 0.4925575
0.5167816 0.72672415 0.0645977 0.22609197 0.15341954 -0.16956897 -0.15341954 0.1857184
-0.84784484 -0.4441092 0.1291954 0.02422414 -0.07267242 0.46025863 0.6782759 0.1291954
0.22609197 0.532931 0.34721264 0.60560346 0.12112069 -0.05652299 -0.09689656 -0.03229885
0.16149426 -0.040373564 0.10497127 -0.17764369 0.29876438 0.3714368 0.40373564 0.5490805
0.46025863 0.20994253 0.38758624 0.10497127 0.3795115 0.58945405 0.38758624 0.17764369
0.71864945 0.71057475 0.58137935 0.29876438 0.4925575 0.16149426 0.7832472 0.8074713
0.46833336 0.84784484 0.72672415 0.8074713 0.4925575 0.39566094 0.532931 0.6540517
0.10497127 -0.008074713 0.3229885 0.2503161 0.34721264 0.03229885 0.36336207 0.41988507
0.46833336 0.10497127 -0.13727012 0.10497127 0.24224138 0.1857184 -0.2583908 -0.016149426
0.03229885 0.38758624 0.61367816 0.2664655 0.83169544 0.9608908 0.84784484 0.21801725
0.6217529 0.645977 0.8074713 0.40373564 0.45218393 0.34721264 0.29068968 0.29876438
0.38758624 0.2503161 0.3149138 0.22609197 0.7832472 0.23416668 0.7428736 1.0012645

model_2/conv2d_3/Conv2D i1 [224, 3, 3, 156]
00000000: eb21 efe2 e0ea dec0 16fe 0d01 1f08 f615
00000010: f415 060a a9dc 4bd3 cdee 10d6 1732 e00b
00000020: df1d 05d7 eedc bfd0 13e8 04e2 d1ff e1fa
00000030: e6e0 1b20 e415 13eb 31f4 24df fcee 0d2a
00000040: 27da ec21 fa24 e5db ec3f d5f9 01e5 ed03
00000050: 1b1b f914 f4cc fcd6 28ec e007 f00d e904
00000060: 3407 1521 0308 0625 ee06 1dea e82d f1e8
00000070: efeb 90dd f4aa da17 fe08 0ecc 0fb5 e4ed
00000080: 05be 3625 f1fb e5d8 09e9 c7e4 05f9 09dd
00000090: d413 e4f6 df0d cee2 0ad8 fce2 f904 24f6
000000a0: 0df3 17c5 f304 1b31 eb10 2eeb fee9 2c26
000000b0: d1de 7ff1 0702 22a6 25ee dd09 f125 19fa
000000c0: 10e0 e1be 15fe 22e0 fe0d f8d8 0e3d 0c15
000000d0: 3637 e9e4 3929 33ee 0b0e e509 eeec f135
000000e0: c011 f8ff 005b f4f3 2207 18f1 10f0 1005
000000f0: 0bf3 fee8 fdf4 e02f e20d 1d10 1cfb 1c13
-21 33 -17 -30 -32 -22 -34 -64
22 -2 13 1 31 8 -10 21
-12 21 6 10 -87 -36 75 -45
-51 -18 16 -42 23 50 -32 11
-33 29 5 -41 -18 -36 -65 -48
19 -24 4 -30 -47 -1 -31 -6
-26 -32 27 32 -28 21 19 -21
49 -12 36 -33 -4 -18 13 42
39 -38 -20 33 -6 36 -27 -37
-20 63 -43 -7 1 -27 -19 3
27 27 -7 20 -12 -52 -4 -42
40 -20 -32 7 -16 13 -23 4
52 7 21 33 3 8 6 37
-18 6 29 -22 -24 45 -15 -24
-17 -21 -112 -35 -12 -86 -38 23
-2 8 14 -52 15 -75 -28 -19
5 -66 54 37 -15 -5 -27 -40
9 -23 -57 -28 5 -7 9 -35
-44 19 -28 -10 -33 13 -50 -30
10 -40 -4 -30 -7 4 36 -10
13 -13 23 -59 -13 4 27 49
-21 16 46 -21 -2 -23 44 38
-47 -34 127 -15 7 2 34 -90
37 -18 -35 9 -15 37 25 -6
16 -32 -31 -66 21 -2 34 -32
-2 13 -8 -40 14 61 12 21
54 55 -23 -28 57 41 51 -18
11 14 -27 9 -18 -20 -15 53
-64 17 -8 -1 0 91 -12 -13
34 7 24 -15 16 -16 16 5
11 -13 -2 -24 -3 -12 -32 47
-30 13 29 16 28 -5 28 19

model_2/conv2d_4/Conv2D i1 [164, 1, 1, 320]
00000000: 2ec4 f6d2 f118 f914 f5e8 e0e1 0c15 dce8
00000010: e323 c4f0 10e0 17db fae6 03e7 052b fe33
00000020: 19cf d9e0 f0f0 ef15 0f01 07f1 152e 0d10
00000030: f1f6 f804 1efb 2bf2 08fd f9e5 00e7 f741
00000040: e525 220f 1cdd f4e7 2b19 bcd0 1dc3 ef4f
00000050: ec1f bdf3 fcf2 1d16 18fd 09d8 11d9 1de3
00000060: c9f3 16fc 05ea f4df 0302 fddf e4f7 e2ce
00000070: c610 2517 ede3 f6e2 c903 20eb 1b0a 2a03
00000080: 0905 e0d7 cd2f b615 1707 2216 14ee 05c4
00000090: eace e601 dc34 40df bfc0 190e f7f3 00bf
000000a0: 1020 e1f3 36d6 1a11 ff00 01fc 02d0 4fe7
000000b0: 3409 0719 ebfb ff27 fa01 01fb 04d4 0130
000000c0: e8b6 0402 34db bef1 f4fb 1417 a11b e336
000000d0: 32c2 07d2 f2e1 a1f8 d616 2d4d 0231 2e2e
000000e0: f5e9 ec00 fc00 0e38 0d09 07f2 27f8 150c
000000f0: 02fa f605 06f7 e8e9 05ed f402 fd00 2010
46 -60 -10 -46 -15 24 -7 20
-11 -24 -32 -31 12 21 -36 -24
-29 35 -60 -16 16 -32 23 -37
-6 -26 3 -25 5 43 -2 51
25 -49 -39 -32 -16 -16 -17 21
15 1 7 -15 21 46 13 16
-15 -10 -8 4 30 -5 43 -14
8 -3 -7 -27 0 -25 -9 65
-27 37 34 15 28 -35 -12 -25
43 25 -68 -48 29 -61 -17 79
-20 31 -67 -13 -4 -14 29 22
24 -3 9 -40 17 -39 29 -29
-55 -13 22 -4 5 -22 -12 -33
3 2 -3 -33 -28 -9 -30 -50
-58 16 37 23 -19 -29 -10 -30
-55 3 32 -21 27 10 42 3
9 5 -32 -41 -51 47 -74 21
23 7 34 22 20 -18 5 -60
-22 -50 -26 1 -36 52 64 -33
-65 -64 25 14 -9 -13 0 -65
16 32 -31 -13 54 -42 26 17
-1 0 1 -4 2 -48 79 -25
52 9 7 25 -21 -5 -1 39
-6 1 1 -5 4 -44 1 48
-24 -74 4 2 52 -37 -66 -15
-12 -5 20 23 -95 27 -29 54
50 -62 7 -46 -14 -31 -95 -8
-42 22 45 77 2 49 46 46
-11 -23 -20 0 -4 0 14 56
13 9 7 -14 39 -8 21 12
2 -6 -10 5 6 -9 -24 -23
5 -19 -12 2 -3 0 32 16

model_2/dense_2/MatMul i1 [256, 164] scale=0.011177807 zero_point=0
00000000: f700 fdfd fcfd e60e 1a09 f3f0 fdf5 fc01
00000010: 0d05 f1fb f512 f904 cef5 0e11 f400 d3f5
00000020: fd07 fc08 19e7 fb07 ea01 0517 cd02 f100
00000030: f9f8 05f8 07ef 01ef 07fb fd04 09fa 00e9
00000040: f5fc 13f7 0ed9 1708 1204 0bfc 0506 f9fa
00000050: f5f1 e408 02fd fc0c 0110 f20b fdec 0506
00000060: f610 ff11 ee01 fb13 0ee5 e1ff 1005 f902
00000070: f9ff ff07 0bfc fcdd 09f1 0dfc 02d6 03ef
00000080: 0f06 080d fd04 07e5 f5e5 0102 daff 02fa
00000090: 0b01 ffff ffe8 fefd eaf8 f4f2 0c00 f904
000000a0: 010b 060a 021d f40d 00f8 0d04 13f2 050d
000000b0: fdfd 13f4 00eb fc02 1209 f0fd f4f1 0df5
000000c0: 0604 110e 0e09 fcfe 030b 05fb 0d06 fc0b
000000d0: 160f 09fd 1400 12fb f406 f801 0916 0efc
000000e0: 05fa fd01 f508 0a0d f210 1904 0410 050b
000000f0: 0404 0e15 0800 04fb 0bfc f900 17e7 0d02
-0.100600265 0.0 -0.03353342 -0.03353342 -0.04471123 -0.03353342 -0.29062298 0.1564893
0.29062298 0.100600265 -0.14531149 -0.17884491 -0.03353342 -0.12295588 -0.04471123 0.011177807
0.14531149 0.055889037 -0.1676671 -0.055889037 -0.12295588 0.20120053 -0.07824465 0.04471123
-0.55889034 -0.12295588 0.1564893 0.19002272 -0.13413368 0.0 -0.50300133 -0.12295588
-0.03353342 0.07824465 -0.04471123 0.08942246 0.27944517 -0.27944517 -0.055889037 0.07824465
-0.24591176 0.011177807 0.055889037 0.25708956 -0.5700682 0.022355614 -0.1676671 0.0
-0.07824465 -0.08942246 0.055889037 -0.08942246 0.07824465 -0.19002272 0.011177807 -0.19002272
0.07824465 -0.055889037 -0.03353342 0.04471123 0.100600265 -0.06706684 0.0 -0.25708956
-0.12295588 -0.04471123 0.21237834 -0.100600265 0.1564893 -0.43593448 0.25708956 0.08942246
0.20120053 0.04471123 0.12295588 -0.04471123 0.055889037 0.06706684 -0.07824465 -0.06706684
-0.12295588 -0.1676671 -0.3129786 0.08942246 0.022355614 -0.03353342 -0.04471123 0.13413368
0.011177807 0.17884491 -0.1564893 0.12295588 -0.03353342 -0.22355615 0.055889037 0.06706684
-0.11177807 0.17884491 -0.011177807 0.19002272 -0.20120053 0.011177807 -0.055889037 0.21237834
0.1564893 -0.3018008 -0.34651202 -0.011177807 0.17884491 0.055889037 -0.07824465 0.022355614
-0.07824465 -0.011177807 -0.011177807 0.07824465 0.12295588 -0.04471123 -0.04471123 -0.39122325
0.100600265 -0.1676671 0.14531149 -0.04471123 0.022355614 -0.4694679 0.03353342 -0.19002272
0.1676671 0.06706684 0.08942246 0.14531149 -0.03353342 0.04471123 0.07824465 -0.3018008
-0.12295588 -0.3018008 0.011177807 0.022355614 -0.42475668 -0.011177807 0.022355614 -0.06706684
0.12295588 0.011177807 -0.011177807 -0.011177807 -0.011177807 -0.26826736 -0.022355614 -0.03353342
-0.24591176 -0.08942246 -0.13413368 -0.1564893 0.13413368 0.0 -0.07824465 0.04471123
0.011177807 0.12295588 0.06706684 0.11177807 0.022355614 0.3241564 -0.13413368 0.14531149
0.0 -0.08942246 0.14531149 0.04471123 0.21237834 -0.1564893 0.055889037 0.14531149
-0.03353342 -0.03353342 0.21237834 -0.13413368 0.0 -0.23473395 -0.04471123 0.022355614
0.20120053 0.100600265 -0.17884491 -0.03353342 -0.13413368 -0.1676671 0.14531149 -0.12295588
0.06706684 0.04471123 0.19002272 0.1564893 0.1564893 0.100600265 -0.04471123 -0.022355614
0.03353342 0.12295588 0.055889037 -0.055889037 0.14531149 0.06706684 -0.04471123 0.12295588
0.24591176 0.1676671 0.100600265 -0.03353342 0.22355615 0.0 0.20120053 -0.055889037
-0.13413368 0.06706684 -0.08942246 0.011177807 0.100600265 0.24591176 0.1564893 -0.04471123
0.055889037 -0.06706684 -0.03353342 0.011177807 -0.12295588 0.08942246 0.11177807 0.14531149
-0.1564893 0.17884491 0.27944517 0.04471123 0.04471123 0.17884491 0.055889037 0.12295588
0.04471123 0.04471123 0.1564893 0.23473395 0.08942246 0.0 0.04471123 -0.055889037
0.12295588 -0.04471123 -0.07824465 0.0 0.25708956 -0.27944517 0.14531149 0.022355614

model_2/dense_3/MatMul i1 [10, 256] scale=0.010493966 zero_point=0
00000000: 1705 10f6 ef2c 0d1f f9e1 f2ff f8f1 ee04
00000010: ebe6 0303 0bff fbe1 fdfa 0b07 09ec f810
00000020: e6eb f6ff f007 1dcd 0d0b f20d f21a fae1
00000030: 44fa 080a d111 0b10 d9e0 1805 2008 0303
00000040: da05 0100 250d 121d dee2 0706 004a 090d
00000050: 0719 1cf6 d1e4 dde5 e7dd cf03 db08 d80d
00000060: f2d1 cf01 0810 ffee 16c9 2411 000a e0ee
00000070: f8ec f8ef 150d 200f fde4 290e 02e7 0008
00000080: fbe0 151a fdf9 000f 2019 ebe5 dce9 2b12
00000090: 1404 0adf 03ff 08d1 0df6 28f0 0910 fc07
000000a0: 200d f4e0 03ed f8eb caf9 de48 ea06 ea00
000000b0: 1afd daf9 1902 0af3 f9f0 e7df 1a0c 06b5
000000c0: da19 dd25 f013 de0e f7da fd08 ddf8 bf3c
000000d0: fe06 d3ec d905 d717 e312 2104 f725 01e4
000000e0: 1b10 1106 1d05 12fb 0cf9 03e6 fee1 130b
000000f0: caeb e7f6 d1f9 0eb5 dce2 2918 fcdb 0709
0.24136122 0.052469827 0.16790345 -0.104939654 -0.17839742 0.4617345 0.13642156 0.32531294
-0.07345776 -0.32531294 -0.14691553 -0.010493966 -0.08395173 -0.15740949 -0.18889138 0.041975863
-0.22037329 -0.27284312 0.0314819 0.0314819 0.115433626 -0.010493966 -0.052469827 -0.32531294
-0.0314819 -0.0629638 0.115433626 0.07345776 0.09444569 -0.20987931 -0.08395173 0.16790345
-0.27284312 -0.22037329 -0.104939654 -0.010493966 -0.16790345 0.07345776 0.304325 -0.53519225
0.13642156 0.115433626 -0.14691553 0.13642156 -0.14691553 0.27284312 -0.0629638 -0.32531294
0.71358967 -0.0629638 0.08395173 0.104939654 -0.4932164 0.17839742 0.115433626 0.16790345
-0.40926465 -0.3358069 0.2518552 0.052469827 0.3358069 0.08395173 0.0314819 0.0314819
-0.3987707 0.052469827 0.010493966 0.0 0.38827673 0.13642156 0.18889138 0.304325
-0.35679483 -0.31481898 0.07345776 0.0629638 0.0 0.77655345 0.09444569 0.13642156
0.07345776 0.26234916 0.29383105 -0.104939654 -0.4932164 -0.29383105 -0.3672888 -0.2833371
-0.26234916 -0.3672888 -0.5142043 0.0314819 -0.38827673 0.08395173 -0.41975862 0.13642156
-0.14691553 -0.4932164 -0.5142043 0.010493966 0.08395173 0.16790345 -0.010493966 -0.18889138
0.23086725 -0.5771681 0.37778276 0.17839742 0.0 0.104939654 -0.3358069 -0.18889138
-0.08395173 -0.20987931 -0.08395173 -0.17839742 0.22037329 0.13642156 0.3358069 0.15740949
-0.0314819 -0.29383105 0.4302526 0.14691553 0.020987932 -0.26234916 0.0 0.08395173
-0.052469827 -0.3358069 0.22037329 0.27284312 -0.0314819 -0.07345776 0.0 0.15740949
0.3358069 0.26234916 -0.22037329 -0.2833371 -0.37778276 -0.24136122 0.45124054 0.18889138
0.20987931 0.041975863 0.104939654 -0.34630087 0.0314819 -0.010493966 0.08395173 -0.4932164
0.13642156 -0.104939654 0.41975862 -0.16790345 0.09444569 0.16790345 -0.041975863 0.07345776
0.3358069 0.13642156 -0.1259276 -0.3358069 0.0314819 -0.19938534 -0.08395173 -0.22037329
-0.5666742 -0.07345776 -0.35679483 0.7555655 -0.23086725 0.0629638 -0.23086725 0.0
0.27284312 -0.0314819 -0.3987707 -0.07345776 0.26234916 0.020987932 0.104939654 -0.13642156
-0.07345776 -0.16790345 -0.26234916 -0.34630087 0.27284312 0.1259276 0.0629638 -0.78704745
-0.3987707 0.26234916 -0.3672888 0.38827673 -0.16790345 0.19938534 -0.35679483 0.14691553
-0.09444569 -0.3987707 -0.0314819 0.08395173 -0.3672888 -0.08395173 -0.6821078 0.62963796
-0.020987932 0.0629638 -0.47222847 -0.20987931 -0.40926465 0.052469827 -0.4302526 0.24136122
-0.304325 0.18889138 0.34630087 0.041975863 -0.09444569 0.38827673 0.010493966 -0.29383105
0.2833371 0.16790345 0.17839742 0.0629638 0.304325 0.052469827 0.18889138 -0.052469827
0.1259276 -0.07345776 0.0314819 -0.27284312 -0.020987932 -0.32531294 0.19938534 0.115433626
-0.5666742 -0.22037329 -0.26234916 -0.104939654 -0.4932164 -0.07345776 0.14691553 -0.78704745
-0.37778276 -0.31481898 0.4302526 0.2518552 -0.041975863 -0.38827673 0.07345776 0.09444569
