system/system/saiv/textrecognition/stride/mSTR_Cyrillic_LSTM.tflite (tflite, 531632 bytes, 26 tensors)

dense/bias f4 [254]
-0.2540438 -0.13201468 -0.095769376 -0.29795536 -0.32974344 -0.27043444 -0.4010635 -0.44767174
-0.19805425 -0.27564424 -0.09273002 -0.30074167 -0.35651907 -0.21873824 -0.023134649 -0.26211536
-0.30271247 -0.26996294 -0.06359399 -0.33596373 -0.34104118 -0.27138257 -0.2737158 -0.17283939
-0.13785832 -0.27509758 -0.41928142 -0.21790312 -0.03937141 0.089259885 -0.25501934 -0.46020016
-0.30217454 -0.41413176 -0.23568544 -0.5893771 -0.16161637 -0.24503551 -0.16461998 -0.2502763
-0.025123844 -0.24818288 -0.28845316 -0.2263594 -0.18464068 -0.3951748 -0.29169875 -0.18134798
-0.24272296 -0.21322933 -0.29321626 -0.18181284 -0.22806992 -0.091445744 -0.1008184 -0.17154779
-0.30878958 -0.30204862 -0.33217514 -0.11055989 -0.30325535 -0.37745094 -0.28041336 -0.5853599
-0.38907543 -0.32174394 -0.41491503 -0.31338134 -0.35477906 -0.31554067 -0.605533 -0.47740537
-0.49581456 -0.34092182 -0.25495195 -0.3324775 -0.37798238 -0.27462015 -0.06827725 -0.094677135
-0.36484 -0.26092857 -0.51661026 -0.40197587 -0.26423535 -0.3795974 -0.5799451 -0.38340583
-0.37244642 -0.36272848 -0.18426114 -0.3694759 -0.20622195 -0.6207116 -0.29242322 -0.3252611
-0.58618146 -0.57448137 -0.8074449 -0.046485703 -0.33795726 -0.34650943 -0.19423853 -0.5795932
-0.6810158 -0.1253793 -0.023866985 -0.07200955 -0.37121803 -0.34561726 -0.43191192 -0.30507997
-0.33918083 -0.30442485 -0.36436397 -0.33494437 -0.35948962 -0.18391651 -0.27927938 -0.42117503
-0.4996795 -0.27625477 -0.07862301 -0.39446628 -0.34046936 -0.4390753 -0.40071458 -0.3878479
-0.45767233 -0.43564215 -0.32676062 -0.10372109 -0.40259138 -0.3828915 -0.14032507 -0.5216017
-0.22903283 -0.35050136 -0.37306762 -0.2934266 -0.030631166 -0.3343717 -0.09759953 -0.6788693
-0.37232953 -0.18697508 -0.19957694 -0.23843096 -0.34038433 -0.3603934 -0.24801166 -0.6388768
-0.28698146 -0.11404613 -0.2325187 -0.16591504 -0.11782236 -0.14397849 -0.5290404 -0.49828243
-0.3499687 -0.1562871 -0.45905387 -0.3605833 -0.1144189 -0.32123584 -0.36333218 -0.23840502
-0.25888947 -0.2919589 0.012423727 -0.33945808 -0.2300743 -0.34569845 -0.25744346 -0.4048214
-0.14348204 -0.45941615 -0.36606827 0.059865538 -0.48788688 -0.28519577 -0.1039341 -0.36150685
-0.16408178 -0.5108194 -0.3138165 -0.3208373 -0.26938874 -0.4648868 -0.333204 -0.5292241
-0.40459502 -0.3596332 -0.10305101 -0.17517532 -0.5607069 0.047205158 -0.37942624 -0.38133344
-0.32582015 -0.23469153 -0.2666283 -0.33301178 -0.3131588 -0.32651702 -0.25792947 -0.28810894
-0.27066505 -0.23422469 -0.3149837 -0.31635967 -0.31545177 -0.31701395 -0.2915765 -0.24865513
-0.27278185 -0.26316747 -0.28284982 -0.2286523 -0.3132991 -0.22825055 -0.29698545 -1.9367326
-0.23864432 -0.25783283 -0.3052747 -0.3137421 -0.28913504 -0.2686411 -0.27389142 -0.2477942
-0.21174963 -0.27026853 -0.42595568 -0.30003676 -0.33340275 -0.3365093 -0.2543979 -0.25580975
-0.25256553 -0.25665367 -0.32376355 -0.43452534 -0.20874912 -0.24586765 -2.0824394 -0.2622912
-0.32000875 -0.29648313 -0.28675458 -0.29838207 -0.11486041 0.22911642
00000000: 0712 82be db2e 07be bc22 c4bd 9b8d 98be
00000010: 22d4 a8be 6276 8abe 3258 cdbe 3b35 e5be
00000020: bcce 4abe 3e21 8dbe 3de9 bdbd d0fa 99be
00000030: ab89 b6be ebfc 5fbe e084 bdbc fc33 86be
00000040: 21fd 9abe 9538 8abe 913d 82bd 7003 acbe
00000050: f39c aebe a8f2 8abe 7a24 8cbe cffc 30be
00000060: bb2a 0dbe 97d9 8cbe 0eac d6be ff21 5fbe
00000070: ea43 21bd e3cd b63d e591 82be 5b9f ebbe
00000080: 9fb6 9abe 1409 d4be 8657 71be 6be1 16bf
00000090: c37e 25be 97ea 7abe 2492 28be 3724 80be
000000a0: 85d0 cdbc a723 7ebe 22b0 93be c2ca 67be
000000b0: 7212 3dbe 5a54 cabe 8a59 95be 49b3 39be
000000c0: 5e8c 78be ca58 5abe 7120 96be 252d 3abe
000000d0: 298b 69be e847 bbbd e179 cebd 39aa 2fbe
000000e0: ab19 9ebe 1ea6 9abe dc12 aabe 396d e2bd
000000f0: 4944 9bbe 4041 c1be 5792 8fbe 25da 15bf
00000100: e534 c7be 9fbb a4be be6f d4be 8573 a0be
00000110: 9aa5 b5be 8c8e a1be 3604 1bbf 7a6e f4be
00000120: 68db fdbe 4e8d aebe 1089 82be 7e3a aabe
00000130: e886 c1be 039b 8cbe f1d4 8bbd 16e6 c1bd
00000140: 4fcc babe 6e98 85be 9240 04bf c8cf cdbe
00000150: db49 87be 975a c2be 4877 14bf c54d c4be
00000160: 4cb1 bebe 8cb7 b9be f4ae 3cbe f22b bdbe
00000170: d92b 53be f5e6 1ebf 7fb8 95be 9f88 a6be
00000180: fd0f 16bf 3611 13bf b5b4 4ebf cb67 3ebd
00000190: bc08 adbe af69 b1be 77e6 46be 3860 14bf
000001a0: 0d57 2ebf 6e63 00be b284 c3bc be79 93bd
000001b0: 4a10 bebe bff4 b0be 8f23 ddbe 7133 9cbe
000001c0: 1ca9 adbe 93dd 9bbe ea8d babe d47d abbe
000001d0: 060f b8be 9c54 3cbe b5fd 8ebe 41a4 d7be
000001e0: fed5 ffbe 4471 8dbe 1a05 a1bd 7cf7 c9be
000001f0: 0052 aebe 7ace e0be 762a cdbe 0094 c6be
00000200: 0754 eabe 7d0c dfbe 2b4d a7be b96b d4bd
00000210: 7520 cebe 5b0a c4be 60b1 0fbe b087 05bf
00000220: 9587 6abe ea74 b3be b802 bfbe 033c 96be
00000230: 36ee fabc c432 abbe 43e2 c7bd 61ca 2dbf
00000240: faa1 bebe 6576 3fbe e65d 4cbe 3f27 74be
00000250: db46 aebe 7c85 b8be c5f6 7dbe 6e8d 23bf
00000260: 3cef 92be 0491 e9bd 6219 6ebe a2e5 29be
00000270: d94c f1bd 196f 13be 316f 07bf e01e ffbe
00000280: 192f b3be ba09 20be 1c09 ebbe 609e b8be
00000290: 7554 eabd 0679 a4be ad06 babe 7220 74be
000002a0: 298d 84be a37b 95be e38c 4b3c 73cd adbe
000002b0: 9998 6bbe 63ff b0be a1cf 83be c044 cfbe
000002c0: f5ec 12be 9838 ebbe 4d6d bbbe 9135 753d
000002d0: 4fcc f9be 2e05 92be 67db d4bd 6d17 b9be
000002e0: 0e05 28be 0fc5 02bf 8eac a0be c944 a4be
000002f0: 52ed 89be a505 eebe b799 aabe 3b7b 07bf
00000300: 1427 cfbe d821 b8be 680c d3bd 2961 33be
00000310: 7d8a 0fbf 325a 413d 2844 c2be 233e c3be
00000320: e6d1 a6be fa52 70be 8183 88be 8580 aabe
00000330: 5a56 a0be 3d2d a7be 550f 84be 0483 93be
00000340: 9c94 8abe 99d8 6fbe 8b45 a1be e5f9 a1be
00000350: e582 a1be a74f a2be 8449 95be 739f 7ebe
00000360: 10aa 8bbe e3bd 86be b1d1 90be d423 6abe
00000370: bd68 a0be 83ba 69be 7a0e 98be dbe6 f7bf
00000380: 2d5f 74be aa02 84be f74c 9cbe cea2 a0be
00000390: 8209 94be 548b 89be 7f3b 8cbe c3bd 7dbe
000003a0: e5d4 58be a360 8abe dd16 dabe 6b9e 99be
000003b0: c4b3 aabe f24a acbe 7140 82be 7ff9 82be
000003c0: 4550 81be 1c68 83be 56c4 a5be 1b7a debe
000003d0: 54c2 55be bbc4 7bbe b046 05c0 084b 86be
000003e0: 30d8 a3be a3cc 97be 7fd1 92be 89c5 98be
000003f0: ef3b ebbd 7f9d 6a3e

recog/birnn/bidirectional_rnn/bw/rnn3/cell_bias f4 [164]
-0.06321685 0.053412538 -0.026677378 -0.08067268 -0.023399577 0.0683952 -0.012780734 -0.02931847
-0.0631836 -0.019588556 -0.020936826 -0.0035449453 -0.08210231 0.023098854 0.17411321 -0.005145431
-0.04631792 -0.052422814 0.027109314 0.061781835 -0.03231466 0.08509815 0.0046402407 -0.011444879
-0.019160938 0.05400838 -0.043242976 -0.009488502 -0.061570358 -0.026274849 -0.0003226641 -0.033418186
-0.00815513 0.028757947 -0.06129305 0.0036873587 0.06520922 0.055306233 0.05076557 -0.08230002
0.020357402 -0.017835652 0.0048603592 0.10429243 -0.013349304 0.056567885 0.041198038 -0.04384659
0.00064723287 0.0039227456 -0.012120615 0.048128173 -0.0365124 0.019862868 -0.0129560465 0.0031911745
-0.07674761 0.024500256 -0.028628798 -0.10257642 -0.017733617 0.0018970835 0.00077554747 -0.020052481
0.024035132 -0.023647696 -0.0058494573 0.0295336 -0.006705094 -0.13216907 0.075703554 0.058693625
-0.1793861 0.04978949 -0.012410684 0.05255946 -0.04360829 0.029082526 -0.03442385 0.025049236
-0.01706056 -0.13050023 -0.043356262 -0.09311555 0.059223924 -0.011745316 -0.0035027198 0.164085
0.09357512 0.028917188 0.21380268 0.16516328 -0.054659862 0.10435518 -0.01169524 -0.012397746
0.019990167 0.020968314 -0.024668071 -0.07055631 0.023399122 0.036549084 -0.07469317 0.010164717
0.05103482 0.006227409 -0.14876945 -0.04645183 -0.046480108 -0.12763588 -0.11219372 -0.021833433
-0.08738653 -0.005517755 0.07359346 0.06797193 0.019333476 -0.032397628 -0.053139504 0.01784612
-0.047762614 0.027049165 -0.015431824 0.051987465 0.07275551 -0.07204868 0.08720401 0.10000662
-0.0016002129 -0.07328829 -0.024601607 -0.0072782887 0.00877293 0.10572455 -0.02662589 0.019800253
-0.10983733 -0.049019966 0.04792709 0.062254995 -0.0033974948 0.05436333 0.086798176 0.023393564
-0.00033591918 -0.005171428 0.057634495 -0.0092547815 0.01751538 0.086988226 0.0044315527 0.011689438
0.02963548 -0.104482636 0.09507401 -0.016492952 0.20189875 0.026293287 0.09072683 0.043475106
-0.015361467 0.0886384 -0.03186835 -0.06432208
00000000: d677 81bd 1bc7 5a3d 848a dabc b837 a5bd
00000010: 78b0 bfbc c812 8c3d 4966 51bc 4a2d f0bc
00000020: 6766 81bd 2e78 a0bc b583 abbc 5052 68bb
00000030: 4225 a8bd cf39 bd3c bc4a 323e 019b a8bb
00000040: dcb7 3dbd 4eb9 56bd 5a14 de3c f30e 7d3d
00000050: 605c 04bd f047 ae3d 290d 983b 4d83 3bbc
00000060: 66f7 9cbc e437 5d3d 8c1f 31bd a975 1bbc
00000070: 3331 7cbd 5a3e d7bc 3e2b a9b9 82e1 08bd
00000080: 189d 05bc c995 eb3c 6c0e 7bbd 9da7 713b
00000090: 698c 853d ca88 623d 8fef 4f3d ea8c a8bd
000000a0: 91c4 a63c 131c 92bc a643 9f3b 4597 d53d
000000b0: 0ab7 5abc bab3 673d 46bf 283d 7b98 33bd
000000c0: 10ab 293a 608a 803b 8b95 46bc 0c22 453d
000000d0: 078e 15bd 74b7 a23c 9945 54bc 0623 513b
000000e0: da2d 9dbd c3b4 c83c f186 eabc 9613 d2bd
000000f0: 1746 91bc 8fa7 f83a 1c4e 4b3a 1a45 a4bc
00000100: 53e5 c43c d0b8 c1bc ceac bfbb 73f0 f13c
00000110: 68b6 dbbb 5457 07be 770a 9b3d ba68 703d
00000120: fdb0 37be 10f0 4b3d 2e56 4bbc 9748 573d
00000130: 9b9e 32bd 7a3e ee3c 0600 0dbd 0e34 cd3c
00000140: 96c2 8bbc daa1 05be 5696 31bd 5eb3 bebd
00000150: c994 723d 6d6f 40bc e38d 65bb e605 283e
00000160: 50a4 bf3d bde3 ec3c 17ef 5a3e 9020 293e
00000170: 05e3 5fbd 2bb8 d53d 649d 3fbc ea1f 4bbc
00000180: 6bc2 a33c bec5 ab3c b214 cabc d47f 90bd
00000190: 84af bf3c 7eb4 153d bcf8 98bd ea89 263c
000001a0: e309 513d 4b0f cc3b 0557 18be 4644 3ebd
000001b0: ed61 3ebd fbb2 02be d2c5 e5bd 07dc b2bc
000001c0: b6f7 b2bd 49ce b4bb 2bb8 963d de34 8b3d
000001d0: 3d61 9e3c 60b3 04bd cfa8 59bd 0732 923c
000001e0: bba2 43bd 3696 dd3c c3d5 7cbc cff0 543d
000001f0: d700 953d 428e 93bd 0498 b23d 45d0 cc3d
00000200: 3cbe d1ba 2c18 96bd 4f89 c9bc b67e eebb
00000210: 56bc 0f3c 1d86 d83d 8a1e dabc 2434 a23c
00000220: 65f2 e0bd 29c9 48bd 324f 443d 18ff 7e3d
00000230: 81a8 5ebb 15ac 5e3d 3ec3 b13d dca3 bf3c
00000240: 4f1e b0b9 1575 a9bb 2612 6c3d 5ea1 17bc
00000250: 6a7c 8f3c e226 b23d 8f36 913b 0e85 3f3c
00000260: 1bc6 f23c fefa d5bd 2ab6 c23d 3a1c 87bc
00000270: 8cbe 4e3e 0565 d73c fdce b93d f412 323d
00000280: aaae 7bbc 0d88 b53d 6388 02bd 4bbb 83bd

recog/birnn/bidirectional_rnn/bw/rnn3/cell_to_cell_w i1 [164, 164] scale=0.0076391227 zero_point=0
-0.015278245 -0.05347386 0.08403035 -0.0076391227 0.015278245 0.03055649 -0.0687521 -0.038195614
0.20625632 0.19097807 0.1680607 -0.022917368 -0.12222596 -0.17569982 -0.0687521 0.10694772
-0.24445193 0.10694772 -0.11458684 -0.12222596 0.03055649 0.16042158 0.07639123 0.03055649
0.099308595 -0.11458684 0.21389544 0.038195614 0.11458684 -0.0687521 -0.05347386 0.022917368
0.17569982 0.22153455 0.03055649 -0.1680607 -0.2750084 -0.12222596 0.03055649 -0.12986508
-0.17569982 0.015278245 -0.17569982 -0.015278245 -0.17569982 -0.06111298 -0.3055649 0.10694772
0.1375042 0.06111298 -0.11458684 -0.25973016 -0.11458684 -0.06111298 0.17569982 0.0076391227
0.05347386 0.038195614 0.14514333 -0.07639123 0.099308595 0.12986508 0.10694772 0.038195614
-0.0076391227 -0.19097807 -0.099308595 -0.0687521 -0.08403035 0.022917368 0.22917368 -0.06111298
-0.19861719 0.0 -0.022917368 0.015278245 -0.06111298 -0.0076391227 0.09166947 0.08403035
-0.22917368 0.03055649 0.045834735 0.25209105 0.08403035 -0.038195614 -0.038195614 0.16042158
-0.1375042 -0.15278246 -0.09166947 0.099308595 0.0 0.24445193 0.21389544 0.0076391227
0.1375042 0.0687521 -0.022917368 0.19861719 0.18333894 0.19097807 0.03055649 0.05347386
0.038195614 -0.4048735 -0.0687521 -0.099308595 -0.1680607 0.1680607 0.09166947 0.12986508
-0.12222596 -0.038195614 -0.07639123 0.0076391227 0.10694772 -0.10694772 0.015278245 0.05347386
-0.18333894 0.10694772 0.0687521 -0.06111298 -0.07639123 -0.18333894 -0.07639123 -0.2750084
0.16042158 0.20625632 -0.1680607 0.038195614 0.34376052 -0.0687521 0.06111298 0.19097807
0.10694772 0.0076391227 -0.20625632 -0.099308595 0.08403035 0.022917368 -0.045834735 -0.03055649
-0.045834735 -0.16042158 -0.07639123 0.15278246 0.18333894 -0.35903877 0.11458684 0.08403035
-0.11458684 0.11458684 0.05347386 0.03055649 0.0687521 -0.19861719 -0.0687521 0.022917368
-0.05347386 -0.045834735 -0.08403035 0.05347386 -0.18333894 -0.0076391227 0.0076391227 -0.022917368
-0.1375042 0.15278246 -0.07639123 0.17569982 0.12222596 -0.015278245 -0.18333894 0.099308595
-0.07639123 -0.1680607 0.1375042 -0.022917368 -0.1375042 0.038195614 0.11458684 0.20625632
0.099308595 -0.099308595 -0.03055649 -0.0076391227 -0.28264755 0.12222596 -0.12222596 -0.0687521
0.18333894 -0.0687521 -0.038195614 -0.015278245 0.10694772 -0.0687521 0.099308595 -0.21389544
0.24445193 -0.32084316 -0.08403035 0.12986508 -0.05347386 0.0076391227 -0.05347386 0.099308595
0.18333894 0.09166947 -0.099308595 0.12986508 -0.15278246 -0.099308595 -0.022917368 0.0076391227
-0.038195614 -0.07639123 -0.0076391227 0.045834735 0.0687521 -0.022917368 -0.12222596 0.09166947
0.08403035 0.34376052 -0.20625632 -0.038195614 -0.015278245 0.038195614 0.08403035 0.15278246
-0.25973016 -0.14514333 -0.0687521 0.10694772 0.0687521 0.08403035 -0.0076391227 -0.12986508
0.038195614 0.045834735 0.099308595 0.0076391227 -0.0687521 0.20625632 0.03055649 -0.10694772
-0.12986508 0.0687521 -0.0076391227 0.12986508 -0.09166947 -0.0076391227 -0.12986508 -0.015278245
00000000: fef9 0bff 0204 f7fb 1b19 16fd f0e9 f70e
00000010: e00e f1f0 0415 0a04 0df1 1c05 0ff7 f903
00000020: 171d 04ea dcf0 04ef e902 e9fe e9f8 d80e
00000030: 1208 f1de f1f8 1701 0705 13f6 0d11 0e05
00000040: ffe7 f3f7 f503 1ef8 e600 fd02 f8ff 0c0b
00000050: e204 0621 0bfb fb15 eeec f40d 0020 1c01
00000060: 1209 fd1a 1819 0407 05cb f7f3 ea16 0c11
00000070: f0fb f601 0ef2 0207 e80e 09f8 f6e8 f6dc
00000080: 151b ea05 2df7 0819 0e01 e5f3 0b03 fafc
00000090: faeb f614 18d1 0f0b f10f 0704 09e6 f703
000000a0: f9fa f507 e8ff 01fd ee14 f617 10fe e80d
000000b0: f6ea 12fd ee05 0f1b 0df3 fcff db10 f0f7
000000c0: 18f7 fbfe 0ef7 0de4 20d6 f511 f901 f90d
000000d0: 180c f311 ecf3 fd01 fbf6 ff06 09fd f00c
000000e0: 0b2d e5fb fe05 0b14 deed f70e 090b ffef
000000f0: 0506 0d01 f71b 04f2 ef09 ff11 f4ff effe

recog/birnn/bidirectional_rnn/bw/rnn3/cell_to_forget_w i1 [164, 164] scale=0.009435338 zero_point=0
0.44346088 -0.18870676 0.028306015 -0.05661203 0.037741352 -0.06604736 -0.09435338 -0.26418945
-0.09435338 0.018870676 -0.075482704 -0.12265939 -0.09435338 -0.20757744 -0.16040075 0.05661203
0.084918045 -0.028306015 -0.35854283 0.30193081 -0.028306015 -0.084918045 0.12265939 -0.037741352
0.018870676 0.05661203 -0.18870676 0.33023682 0.20757744 0.15096541 -0.16040075 -0.075482704
-0.53781426 -0.24531879 0.16983609 -0.48120224 0.1981421 -0.3208015 -0.075482704 0.16983609
0.13209473 -0.10378872 0.05661203 0.075482704 0.12265939 -0.16040075 -0.13209473 0.35854283
-0.16983609 -0.06604736 0.16040075 0.028306015 -0.05661203 0.0 0.16040075 0.037741352
-0.028306015 0.018870676 0.15096541 -0.11322406 0.06604736 -0.028306015 0.018870676 0.35854283
-0.028306015 -0.037741352 0.018870676 0.037741352 0.11322406 -0.13209473 0.11322406 0.13209473
-0.23588344 0.009435338 0.16983609 0.018870676 -0.075482704 0.09435338 0.084918045 0.06604736
-0.31136614 0.12265939 0.21701278 0.15096541 -0.06604736 -0.30193081 0.028306015 0.037741352
-0.09435338 -0.05661203 0.12265939 -0.2924955 0.10378872 -0.1981421 -0.04717669 0.12265939
-0.09435338 -0.20757744 -0.17927141 -0.09435338 0.05661203 -0.018870676 -0.037741352 0.16983609
-0.018870676 0.14153007 0.037741352 0.12265939 -0.16040075 -0.12265939 0.16040075 -0.018870676
0.06604736 0.11322406 -0.075482704 0.1981421 0.028306015 0.018870676 -0.14153007 0.20757744
0.43402556 0.18870676 -0.14153007 0.11322406 -0.018870676 0.05661203 0.15096541 -0.018870676
0.04717669 0.21701278 0.17927141 -0.06604736 0.009435338 0.009435338 0.15096541 -0.075482704
0.009435338 0.075482704 -0.05661203 -0.037741352 0.037741352 -0.05661203 -0.084918045 0.028306015
0.30193081 0.15096541 0.04717669 -0.15096541 0.35854283 0.009435338 0.028306015 0.3774135
0.13209473 -0.10378872 0.009435338 -0.06604736 -0.09435338 -0.14153007 -0.009435338 0.09435338
-0.09435338 -0.028306015 -0.13209473 0.1981421 0.23588344 0.04717669 -0.21701278 -0.04717669
-0.05661203 0.09435338 0.028306015 -0.14153007 0.23588344 -0.12265939 0.48120224 -0.018870676
-0.1981421 -0.25475413 -0.04717669 0.06604736 -0.009435338 0.06604736 -0.1981421 -0.33967218
-0.10378872 0.037741352 -0.28306013 -0.13209473 0.018870676 -0.33023682 0.13209473 -0.04717669
0.075482704 0.15096541 -0.028306015 0.12265939 -0.075482704 -0.037741352 -0.16040075 0.18870676
-0.075482704 0.17927141 0.009435338 -0.04717669 0.30193081 -0.084918045 0.1981421 -0.06604736
-0.33967218 0.09435338 -0.028306015 -0.17927141 -0.24531879 -0.3491075 -0.23588344 -0.075482704
0.075482704 -0.009435338 0.33967218 0.04717669 -0.037741352 -0.14153007 -0.075482704 0.06604736
-0.10378872 -0.28306013 -0.16040075 0.11322406 -0.11322406 0.3208015 0.13209473 0.009435338
0.44346088 -0.1981421 0.0 -0.18870676 0.1981421 0.06604736 -0.22644812 0.13209473
-0.037741352 0.10378872 -0.037741352 -0.028306015 0.13209473 -0.10378872 -0.14153007 -0.16983609
0.15096541 -0.009435338 -0.037741352 -0.23588344 0.084918045 0.31136614 -0.04717669 0.06604736
00000000: 2fec 03fa 04f9 f6e4 f602 f8f3 f6ea ef06
00000010: 09fd da20 fdf7 0dfc 0206 ec23 1610 eff8
00000020: c7e6 12cd 15de f812 0ef5 0608 0def f226
00000030: eef9 1103 fa00 1104 fd02 10f4 07fd 0226
00000040: fdfc 0204 0cf2 0c0e e701 1202 f80a 0907
00000050: df0d 1710 f9e0 0304 f6fa 0de1 0beb fb0d
00000060: f6ea edf6 06fe fc12 fe0f 040d eff3 11fe
00000070: 070c f815 0302 f116 2e14 f10c fe06 10fe
00000080: 0517 13f9 0101 10f8 0108 fafc 04fa f703
00000090: 2010 05f0 2601 0328 0ef5 01f9 f6f1 ff0a
000000a0: f6fd f215 1905 e9fb fa0a 03f1 19f3 33fe
000000b0: ebe5 fb07 ff07 ebdc f504 e2f2 02dd 0efb
000000c0: 0810 fd0d f8fc ef14 f813 01fb 20f7 15f9
000000d0: dc0a fded e6db e7f8 08ff 2405 fcf1 f807
000000e0: f5e2 ef0c f422 0e01 2feb 00ec 1507 e80e
000000f0: fc0b fcfd 0ef5 f1ee 10ff fce7 0921 fb07

recog/birnn/bidirectional_rnn/bw/rnn3/cell_to_input_w i1 [164, 164] scale=0.011735979 zero_point=0
-0.42249522 0.14083174 -0.14083174 -0.035207935 0.035207935 -0.29339945 -0.058679894 -0.07041587
-0.15256771 0.23471957 -0.09388783 0.105623804 0.25819153 0.023471957 0.11735979 -0.30513543
0.11735979 0.058679894 0.058679894 -0.28166348 0.046943914 -0.058679894 -0.28166348 -0.046943914
0.14083174 0.09388783 0.6572148 -0.035207935 -0.29339945 0.07041587 -0.09388783 0.08215185
0.011735979 0.25819153 -0.12909576 -0.023471957 -0.3403434 0.023471957 -0.3755513 -0.046943914
-0.011735979 0.3872873 0.07041587 0.058679894 -0.035207935 0.17603968 0.0 -0.23471957
-0.3872873 -0.07041587 -0.12909576 0.18777566 -0.35207936 -0.17603968 -0.058679894 0.28166348
0.09388783 0.058679894 0.035207935 0.19951163 0.12909576 0.11735979 0.15256771 -0.1643037
-0.35207936 -0.07041587 -0.45770317 0.29339945 -0.35207936 -0.035207935 -0.12909576 -0.17603968
0.011735979 -0.08215185 -0.45770317 -0.023471957 0.21124761 0.07041587 -0.07041587 -0.1643037
-0.48117512 0.105623804 -0.035207935 -0.07041587 0.046943914 -0.046943914 0.035207935 -0.023471957
-0.07041587 0.1643037 -0.3403434 -0.1643037 0.105623804 -0.046943914 -0.105623804 0.09388783
0.51638305 -0.07041587 0.3755513 -0.08215185 -0.11735979 0.07041587 0.035207935 -0.08215185
0.3872873 -0.28166348 0.12909576 -0.23471957 0.14083174 0.24645555 -0.07041587 -0.1643037
-0.21124761 -0.3872873 -0.08215185 0.14083174 -0.023471957 0.17603968 -0.09388783 0.105623804
-0.023471957 -0.023471957 0.21124761 -0.2229836 0.21124761 -0.105623804 -0.14083174 -0.18777566
-0.011735979 -0.15256771 -0.30513543 0.058679894 0.15256771 -0.011735979 0.035207935 0.07041587
0.2699275 0.18777566 0.011735979 0.0 -0.011735979 0.2229836 0.18777566 0.11735979
-0.14083174 -0.25819153 0.23471957 0.19951163 -0.09388783 -0.15256771 0.18777566 -0.4459672
-0.1643037 -0.28166348 -0.058679894 0.07041587 -0.11735979 -0.2229836 0.41075924 -0.1643037
-0.19951163 0.07041587 -0.3286074 -0.09388783 0.21124761 0.19951163 -0.058679894 -0.011735979
0.023471957 -0.19951163 0.08215185 0.24645555 0.0 0.09388783 -0.035207935 -0.12909576
-0.12909576 0.6689508 -0.105623804 -0.058679894 0.5867989 0.25819153 -0.23471957 0.0
0.30513543 -0.035207935 -0.25819153 0.035207935 -0.046943914 0.21124761 0.0 -0.15256771
0.36381534 0.48117512 -0.21124761 0.035207935 0.18777566 -0.18777566 0.07041587 0.24645555
0.2229836 0.29339945 -0.058679894 -0.011735979 0.7041587 0.105623804 0.07041587 0.1643037
0.0 -0.29339945 0.046943914 -0.07041587 0.023471957 -0.07041587 -0.19951163 -0.105623804
-0.023471957 -0.14083174 -0.046943914 0.07041587 -0.4342312 0.0 0.09388783 -0.31687143
-0.1643037 0.21124761 -0.30513543 -0.24645555 -0.28166348 -0.1643037 0.105623804 -0.3403434
-0.105623804 0.30513543 0.046943914 0.30513543 -0.29339945 -0.3403434 0.36381534 -0.023471957
0.12909576 -0.528119 0.023471957 -0.36381534 -0.2229836 0.1643037 0.2699275 0.15256771
-0.09388783 0.105623804 0.21124761 0.07041587 0.30513543 0.14083174 0.42249522 -0.035207935
00000000: dc0c f4fd 03e7 fbfa f314 f809 1602 0ae6
00000010: 0a05 05e8 04fb e8fc 0c08 38fd e706 f807
00000020: 0116 f5fe e302 e0fc ff21 0605 fd0f 00ec
00000030: dffa f510 e2f1 fb18 0805 0311 0b0a 0df2
00000040: e2fa d919 e2fd f5f1 01f9 d9fe 1206 faf2
00000050: d709 fdfa 04fc 03fe fa0e e3f2 09fc f708
00000060: 2cfa 20f9 f606 03f9 21e8 0bec 0c15 faf2
00000070: eedf f90c fe0f f809 fefe 12ed 12f7 f4f0
00000080: fff3 e605 0dff 0306 1710 0100 ff13 100a
00000090: f4ea 1411 f8f3 10da f2e8 fb06 f6ed 23f2
000000a0: ef06 e4f8 1211 fbff 02ef 0715 0008 fdf5
000000b0: f539 f7fb 3216 ec00 1afd ea03 fc12 00f3
000000c0: 1f29 ee03 10f0 0615 1319 fbff 3c09 060e
000000d0: 00e7 04fa 02fa eff7 fef4 fc06 db00 08e5
000000e0: f212 e6eb e8f2 09e3 f71a 041a e7e3 1ffe
000000f0: 0bd3 02e1 ed0e 170d f809 1206 1a0c 24fd

recog/birnn/bidirectional_rnn/bw/rnn3/cell_to_output_w i1 [164, 164] scale=0.014263365 zero_point=0
0.09984356 -0.31379405 0.02852673 0.02852673 -0.05705346 -0.19968712 -0.02852673 -0.14263365
-0.042790096 0.19968712 -0.08558019 -0.042790096 0.09984356 0.07131682 -0.05705346 -0.042790096
-0.2852673 0.02852673 -0.54200786 0.2852673 -0.042790096 0.08558019 0.02852673 -0.05705346
0.21395048 0.11410692 0.02852673 -0.35658413 0.02852673 -0.27100393 -0.02852673 -0.07131682
-0.042790096 -0.18542375 -0.08558019 -0.38511086 0.07131682 -0.15689702 -0.25674057 0.08558019
0.05705346 0.2852673 -0.25674057 0.05705346 0.09984356 0.19968712 0.0 0.11410692
0.014263365 -0.11410692 0.08558019 0.014263365 0.042790096 -0.09984356 0.27100393 -0.19968712
0.014263365 -0.02852673 -0.08558019 -0.042790096 -0.17116039 0.08558019 -0.18542375 0.17116039
-0.014263365 0.042790096 -0.3708475 0.21395048 0.29953068 -0.11410692 0.014263365 0.05705346
-0.27100393 0.042790096 -0.05705346 -0.02852673 0.08558019 0.12837029 0.17116039 0.08558019
-0.18542375 0.07131682 -0.18542375 0.14263365 0.014263365 -0.48495442 0.042790096 0.042790096
-0.25674057 0.25674057 0.3708475 -0.042790096 0.11410692 -0.42790097 -0.05705346 0.17116039
0.09984356 0.11410692 -0.02852673 -0.15689702 0.014263365 0.07131682 -0.08558019 0.31379405
-0.17116039 0.07131682 0.31379405 0.3280574 0.11410692 -0.02852673 0.09984356 0.042790096
0.15689702 0.14263365 0.17116039 -0.05705346 -0.24247721 0.11410692 -0.08558019 0.19968712
0.4564277 0.09984356 -0.014263365 -0.02852673 -0.11410692 -0.042790096 -0.17116039 -0.12837029
-0.17116039 0.42790097 0.3708475 0.08558019 0.17116039 -0.24247721 0.35658413 0.02852673
0.09984356 0.22821385 -0.17116039 -0.27100393 -0.14263365 -0.042790096 -0.09984356 -0.11410692
-0.19968712 -0.12837029 -0.042790096 -0.14263365 0.08558019 0.21395048 0.19968712 -0.12837029
0.08558019 0.11410692 -0.25674057 0.21395048 0.15689702 0.14263365 -0.042790096 -0.12837029
0.02852673 0.014263365 -0.17116039 -0.042790096 -0.042790096 -0.19968712 -0.3280574 0.42790097
-0.15689702 -0.8130118 0.3280574 0.014263365 0.02852673 0.47069106 0.59906137 -0.08558019
-0.25674057 -0.014263365 -0.12837029 0.25674057 0.34232077 0.21395048 -0.5705346 0.0
-0.29953068 -0.17116039 0.02852673 0.12837029 -0.15689702 0.51348114 -0.2852673 -0.07131682
0.17116039 -0.27100393 0.15689702 -0.05705346 -0.3708475 -0.09984356 -0.02852673 0.19968712
-0.042790096 -0.02852673 -0.34232077 0.09984356 0.7702217 0.22821385 -0.014263365 -0.21395048
-0.17116039 -0.35658413 0.07131682 0.22821385 -0.17116039 -0.44216433 0.02852673 -0.02852673
0.042790096 -0.11410692 0.27100393 0.14263365 -0.18542375 -0.24247721 0.35658413 -0.18542375
-0.39937425 -0.24247721 -0.31379405 0.02852673 -0.05705346 -0.17116039 -0.31379405 -0.4136376
-0.14263365 -0.02852673 -0.05705346 0.014263365 -0.11410692 -0.014263365 -0.17116039 0.27100393
-0.02852673 -0.15689702 0.05705346 0.11410692 -0.02852673 0.09984356 0.19968712 -0.11410692
0.24247721 0.09984356 0.72743165 -0.014263365 -0.11410692 -0.07131682 -0.08558019 -0.07131682
00000000: 07ea 0202 fcf2 fef6 fd0e fafd 0705 fcfd
00000010: ec02 da14 fd06 02fc 0f08 02e7 02ed fefb
00000020: fdf3 fae5 05f5 ee06 0414 ee04 070e 0008
00000030: 01f8 0601 03f9 13f2 01fe fafd f406 f30c
00000040: ff03 e60f 15f8 0104 ed03 fcfe 0609 0c06
00000050: f305 f30a 01de 0303 ee12 1afd 08e2 fc0c
00000060: 0708 fef5 0105 fa16 f405 1617 08fe 0703
00000070: 0b0a 0cfc ef08 fa0e 2007 fffe f8fd f4f7
00000080: f41e 1a06 0cef 1902 0710 f4ed f6fd f9f8
00000090: f2f7 fdf6 060f 0ef7 0608 ee0f 0b0a fdf7
000000a0: 0201 f4fd fdf2 e91e f5c7 1701 0221 2afa
000000b0: eeff f712 180f d800 ebf4 0209 f524 ecfb
000000c0: 0ced 0bfc e6f9 fe0e fdfe e807 3610 fff1
000000d0: f4e7 0510 f4e1 02fe 03f8 130a f3ef 19f3
000000e0: e4ef ea02 fcf4 eae3 f6fe fc01 f8ff f413
000000f0: fef5 0408 fe07 0ef8 1107 33ff f8fb fafb

recog/birnn/bidirectional_rnn/bw/rnn3/forget_bias f4 [164]
1.037983 0.87808794 0.89316607 0.92270106 0.92547697 0.92567724 1.0183642 0.9839081
0.96525085 0.9570632 1.0502393 0.9289264 1.0507208 0.8281637 1.0709515 0.8702558
1.0339488 0.980035 0.9276483 0.98502165 0.86338174 0.8885034 1.0566912 1.0157354
0.88824785 0.9938969 1.0521225 0.99348813 0.97762513 0.9080555 0.97065836 0.7929548
0.9837562 1.0501211 1.0593442 1.0122287 0.9225564 1.08016 0.94055146 1.1223303
0.9589281 0.9643948 0.9294425 0.9679471 1.0273665 0.9223367 0.8933236 0.88681316
0.917458 1.0620849 0.8405156 0.9549788 0.8701161 0.8496583 0.89102393 1.0063688
0.9308978 0.950365 0.900879 0.97364956 0.91695374 0.9229966 0.98211396 1.1033081
0.8995735 1.0151249 0.93546546 0.93927807 0.89887834 1.1138226 1.0282359 0.9550286
0.88456213 0.84069306 0.9268995 0.9173061 0.9918315 0.88552225 0.9999713 1.0668976
0.94034505 0.90835637 0.9502585 1.0531307 0.9577809 0.9624327 1.0144238 0.86381716
0.91488504 0.8623689 1.1622965 1.2856241 0.9002059 1.0586578 0.9462047 1.0257254
0.91611797 1.0249164 0.99595976 1.0250202 0.85888517 0.8084917 0.9139669 1.0585744
0.81858206 0.81420845 0.83174133 0.97304016 1.06641 1.0550127 0.99155766 0.87177354
1.0061693 0.8405046 0.89760506 1.0769999 0.8580531 1.0349555 0.87241447 0.9892547
1.0887656 1.0686237 0.9287171 1.0173295 0.7277416 0.9246646 0.77546704 1.0417159
0.863742 1.0673453 0.8825228 1.0053685 0.9872206 0.88684815 0.91866 0.9512144
0.95033085 0.9693777 0.8682406 0.9304684 0.9605853 0.9328581 0.83430934 0.9363748
0.93247503 0.8373104 0.8667912 0.85607594 1.0141127 1.0125536 0.9157814 0.9067626
0.97203755 1.0067124 0.8497331 1.0290282 1.0375121 0.92747414 0.9249281 0.99422115
0.8460882 0.92747235 1.085776 0.90769684
00000000: a0dc 843f 5fca 603f 88a6 643f 2336 6c3f
00000010: 0fec 6c3f 2ff9 6c3f c259 823f 67e1 7b3f
00000020: ae1a 773f 1802 753f 3e6e 863f 1fce 6d3f
00000030: 057e 863f 8902 543f f014 893f 16c9 5e3f
00000040: 6f58 843f 93e3 7a3f 5c7a 6d3f 612a 7c3f
00000050: 9606 5d3f f574 633f a841 873f 9e03 823f
00000060: 3664 633f 0770 7e3f f3ab 863f 3d55 7e3f
00000070: a445 7a3f 5376 683f 117d 783f 16ff 4a3f
00000080: 72d7 7b3f 5e6a 863f 9798 873f b690 813f
00000090: a82c 6c3f af42 8a3f fbc7 703f 85a8 8f3f
000000a0: 507c 753f 94e2 763f f2ef 6d3f 62cb 773f
000000b0: bf80 833f 421e 6c3f dbb0 643f 3006 633f
000000c0: 87de 6a3f 66f2 873f 082c 573f 7e79 743f
000000d0: eebf 5e3f 3583 593f 251a 643f b1d0 803f
000000e0: 514f 6e3f 1f4b 733f 02a0 663f 1941 793f
000000f0: 7bbd 6a3f 8149 6c3f d26b 7b3f 3339 8d3f
00000100: 734a 663f 9def 813f aa7a 6f3f 8774 703f
00000110: e41c 663f bd91 8e3f 3c9d 833f c17c 743f
00000120: aa72 623f a937 573f 4949 6d3f 93d4 6a3f
00000130: abe8 7d3f 96b1 623f 1efe 7f3f 1a90 883f
00000140: 74ba 703f 0b8a 683f 2444 733f fdcc 863f
00000150: 2131 753f fd61 763f a4d8 813f 1f23 5d3f
00000160: e835 6a3f 35c4 5c3f 22c6 943f 558f a43f
00000170: e573 663f 1982 873f 793a 723f f84a 833f
00000180: b586 6a3f 7630 833f 38f7 7e3f dd33 833f
00000190: e6df 5b3f 50f9 4e3f bcf9 693f 5e7f 873f
000001a0: 988e 513f f76f 503f 00ed 543f 2919 793f
000001b0: 1f80 883f a80a 873f b9d6 7d3f 8d2c 5f3f
000001c0: 28ca 803f 4f2b 573f 72c9 653f 22db 893f
000001d0: 5ea9 5b3f 6c79 843f 8e56 5f3f cc3f 7d3f
000001e0: ac5c 8b3f a9c8 883f 67c0 6d3f da37 823f
000001f0: 464d 3a3f d2b6 6c3f 0285 463f f256 853f
00000200: 321e 5d3f c59e 883f 04ed 613f eaaf 803f
00000210: 7dba 7c3f 7b08 633f 4d2d 6b3f c982 733f
00000220: e248 733f 2329 783f 0445 5e3f 2d33 6e3f
00000230: ebe8 753f cacf 6e3f 4c95 553f 42b6 6f3f
00000240: afb6 6e3f f959 563f 07e6 5d3f cb27 5b3f
00000250: 72ce 813f 5b9b 813f a670 6a3f 9821 683f
00000260: 74d7 783f f4db 803f 1c88 593f 32b7 833f
00000270: 32cd 843f f26e 6d3f 17c8 6c3f 4785 7e3f
00000280: 3c99 583f d46e 6d3f b5fa 8a3f d25e 683f

recog/birnn/bidirectional_rnn/bw/rnn3/input_bias f4 [164]
-0.13694453 -0.07672704 -0.096256554 -0.012516519 0.037337564 -0.117261656 -0.052472398 -0.11595583
0.00792431 -0.02335946 -0.22430497 -0.15301748 -0.005302697 0.008223869 0.12243014 -0.07698577
-0.13139924 -0.03127249 -0.0692062 -0.044678573 -0.09726204 -0.14296006 -0.016335668 -0.08097922
-0.051722817 0.013916447 -0.15718131 -0.1645448 -0.071738936 0.060942058 -0.025193073 -0.023186022
-0.26691616 -0.06966273 -0.17928892 -0.24135195 -0.13515359 -0.15924278 -0.045559175 -0.27555838
-0.23191446 -0.20483524 -0.07424412 -0.09888074 -0.10329914 -0.13467085 0.0021799705 -0.057493296
-0.041608743 -0.11764917 -0.051577292 -0.099703364 -0.115883894 -0.053003937 0.101743326 -0.17444281
-0.086217806 0.011399482 -0.089111775 0.0322391 0.0014548192 0.04636628 -0.11574568 -0.1916605
0.10187978 -0.10490865 -0.19518642 0.041754447 -0.143754 0.13962254 -0.07564289 0.02628003
-0.12945943 0.007579527 0.047779765 -0.061548956 0.022842007 -0.0567929 -0.06265427 -0.12673974
-0.16204076 0.033269227 -0.037525088 0.035820074 -0.18221132 -0.20618981 -0.20769358 0.0018754278
-0.039043583 -0.024298742 0.31262374 -0.24002959 0.007887762 -0.24584348 -0.08457018 -0.13140438
-0.15117012 0.11834043 -0.038093407 -0.14017628 -0.14142916 -0.020934902 -0.1140133 -0.13831742
-0.10212438 -0.022490712 0.12657823 -0.19273986 -0.21197233 0.24331677 -0.09845416 -0.11565085
-0.23383966 -0.049640935 -0.062053315 -0.02177859 -0.027704785 -0.18874548 -0.04074076 -0.12771843
-0.13136026 -0.07885786 -0.07705167 -0.055864647 -0.01917552 -0.03824686 0.07004209 -0.010670997
-0.10226618 -0.26298937 -0.20439155 -0.12514536 -0.041287895 -0.15685855 -0.056645207 0.020858299
0.00088935584 0.026057182 -0.08309083 -0.059267435 -0.15273167 -0.082246155 -0.17239529 -0.079370715
0.041387487 -0.10320555 -0.112123914 -0.0924615 -0.13806143 0.06393682 -0.014138331 0.029944763
-0.049503565 -0.21539854 0.081768125 -0.0808247 0.10983744 0.16386123 -0.1172153 -0.03976164
-0.024341512 0.0017139226 -0.05244539 -0.11553422
00000000: 303b 0cbe 1123 9dbd 2822 c5bd 1612 4dbc
00000010: 46ef 183d e126 f0bd 4ced 56bd 407a edbd
00000020: f7d4 013c 575c bfbc 34b0 65be 9db0 1cbe
00000030: 3fc2 adbb 68bd 063c a7bc fa3d b7aa 9dbd
00000040: 868d 06be 9517 00bd fbbb 8dbd e100 37bd
00000050: 5231 c7bd 1f64 12be 61d2 85bc 6fd8 a5bd
00000060: 4edb 53bd cf01 643c 23f4 20be 6f7e 28be
00000070: ddeb 92bd 619e 793d b461 cebc 9df0 bdbc
00000080: 3ca9 88be 55ab 8ebd 8497 37be f724 77be
00000090: b465 0abe 8a10 23be 429c 3abd fd15 8dbe
000000a0: fc7a 6dbe 54c0 51be 4d0d 98bd fc81 cabd
000000b0: 808e d3bd 28e7 09be d6dd 0e3b 177e 6bbd
000000c0: ee6d 2abd 0cf2 f0bd b642 53bd 4731 ccbd
000000d0: 8954 edbd a81a 59bd ce5e d03d 23a1 32be
000000e0: f692 b0bd e5c4 3a3c 3c80 b6bd 260d 043d
000000f0: a2af be3a 92ea 3d3d 120c edbd a642 44be
00000100: 59a6 d03d 59da d6bd f3de 47be b606 2b3d
00000110: 4034 13be 36f9 0e3e a9ea 9abd 3849 d73c
00000120: 0391 04be ae5d f83b b7b4 433d c21a 7cbd
00000130: 291f bb3c ac9f 68bd e250 80bd 10c8 01be
00000140: 03ee 25be 5045 083d e8b3 19bd 12b8 123d
00000150: 9b95 3abe 6c23 53be a0ad 54be ead0 f53a
00000160: 2aec 1fbd 280e c7bc 3810 a03e 51ca 75be
00000170: ac3b 013c 65be 7bbe 2133 adbd df8e 06be
00000180: 57cc 1abe 785c f23d d507 1cbd 5f8a 0fbe
00000190: ced2 10be ac7f abbc ce7f e9bd 15a3 0dbe
000001a0: 9626 d1bd 713e b8bc b99d 013e 995d 45be
000001b0: 460f 59be 0828 793e 56a2 c9bd 5ada ecbd
000001c0: aa73 6fbe 4b54 4bbd 9e2b 7ebd 0369 b2bc
000001d0: 25f5 e2bc 7f46 41be c8df 26bd 9fc8 02be
000001e0: 4e83 06be 3b80 a1bd 44cd 9dbd 54d2 64bd
000001f0: fb15 9dbc bda8 1cbd 3a72 8f3d 68d5 2ebc
00000200: ee70 d1bd 8ba6 86be 054c 51be 1b26 00be
00000210: 7f1d 29bd 879f 20be ce04 68bd 06df aa3c
00000220: a923 693a df75 d53c 862b aabd 69c2 72bd
00000230: b165 1cbe ac70 a8bd 6488 30be 1d8d a2bd
00000240: ed85 293d 6e5d d3bd 39a1 e5bd 745c bdbd
00000250: fa5f 0dbe 4ff1 823d 75a4 67bc b84e f53c
00000260: 40c4 4abd 6f91 5cbe 0c76 a73d 6c87 a5bd
00000270: 74f2 e03d 3dcb 273e 930e f0bd 1add 22bd
00000280: da67 c7bc b3a5 e03a fad0 56bd 359d ecbd

recog/birnn/bidirectional_rnn/bw/rnn3/input_to_cell_w i1 [164, 164] scale=0.007462604 zero_point=0
-0.14178948 0.1865651 0.014925208 0.052238226 0.014925208 0.09701385 -0.10447645 -0.11940166
0.022387812 0.14925209 -0.044775624 0.052238226 0.16417728 -0.13432688 -0.014925208 -0.11193906
-0.09701385 0.09701385 -0.15671468 0.10447645 0.1865651 -0.06716344 0.014925208 -0.13432688
-0.044775624 0.21641551 -0.1791025 -0.13432688 0.12686427 0.014925208 0.21641551 0.014925208
-0.014925208 -0.14925209 0.15671468 -0.03731302 -0.029850416 -0.14178948 -0.11940166 0.14178948
-0.007462604 -0.007462604 -0.05970083 -0.022387812 0.0 0.0 -0.1865651 -0.20149031
0.05970083 -0.07462604 -0.21641551 0.014925208 -0.007462604 0.11193906 -0.044775624 -0.05970083
-0.06716344 0.14925209 0.20149031 -0.13432688 0.09701385 -0.014925208 -0.29104155 0.029850416
0.09701385 -0.06716344 0.06716344 0.15671468 -0.044775624 0.029850416 0.07462604 -0.16417728
-0.11940166 -0.08955125 -0.09701385 -0.05970083 -0.06716344 0.014925208 0.1940277 -0.044775624
0.05970083 -0.14925209 -0.007462604 0.08955125 -0.08208864 -0.08208864 0.11940166 0.10447645
0.16417728 -0.014925208 0.06716344 0.14178948 -0.24626593 0.0 0.022387812 -0.11940166
-0.10447645 -0.14925209 0.20149031 0.11193906 -0.07462604 0.11193906 0.08208864 -0.08955125
0.1865651 0.25372854 -0.15671468 0.14178948 -0.16417728 0.03731302 0.08208864 -0.052238226
0.08955125 -0.052238226 -0.13432688 -0.13432688 -0.14178948 -0.05970083 0.052238226 0.11193906
0.14178948 -0.12686427 -0.029850416 -0.22387812 0.05970083 0.06716344 -0.10447645 0.0
0.11940166 -0.05970083 -0.08955125 0.17163989 0.0 0.014925208 0.09701385 -0.052238226
-0.1940277 0.014925208 0.17163989 -0.007462604 0.28357896 -0.08955125 0.03731302 0.21641551
-0.11940166 -0.11940166 0.06716344 0.014925208 -0.08955125 0.05970083 0.052238226 0.03731302
0.044775624 0.05970083 0.08955125 -0.03731302 -0.15671468 -0.1865651 0.014925208 -0.1865651
-0.10447645 -0.12686427 -0.052238226 0.03731302 0.11940166 -0.17163989 -0.16417728 -0.11940166
-0.03731302 0.05970083 -0.05970083 0.05970083 -0.13432688 -0.21641551 0.09701385 -0.13432688
-0.08955125 0.03731302 0.029850416 -0.029850416 0.1865651 -0.05970083 -0.10447645 0.17163989
0.11193906 0.07462604 -0.28357896 -0.08208864 -0.08955125 -0.052238226 -0.14925209 0.007462604
0.1865651 -0.08208864 -0.07462604 0.022387812 0.007462604 0.014925208 -0.044775624 0.06716344
0.007462604 -0.1791025 -0.54477006 -0.15671468 -0.07462604 -0.05970083 -0.11940166 -0.09701385
0.03731302 0.05970083 0.022387812 -0.022387812 -0.022387812 -0.21641551 0.1791025 0.052238226
0.03731302 -0.1865651 0.08208864 -0.2089529 -0.15671468 -0.07462604 0.03731302 0.044775624
-0.029850416 0.13432688 -0.09701385 -0.13432688 -0.07462604 0.022387812 0.14925209 -0.08208864
0.2089529 -0.21641551 0.014925208 0.029850416 0.05970083 0.0 0.014925208 0.09701385
0.1865651 -0.022387812 0.07462604 0.014925208 -0.007462604 -0.11940166 0.029850416 0.26119113
-0.1791025 -0.11940166 -0.1940277 0.08208864 -0.07462604 0.08955125 -0.28357896 -0.05970083
00000000: ed19 0207 020d f2f0 0314 fa07 16ee fef1
00000010: f30d eb0e 19f7 02ee fa1d e8ee 1102 1d02
00000020: feec 15fb fced f013 ffff f8fd 0000 e7e5
00000030: 08f6 e302 ff0f faf8 f714 1bee 0dfe d904
00000040: 0df7 0915 fa04 0aea f0f4 f3f8 f702 1afa
00000050: 08ec ff0c f5f5 100e 16fe 0913 df00 03f0
00000060: f2ec 1b0f f60f 0bf4 1922 eb13 ea05 0bf9
00000070: 0cf9 eeee edf8 070f 13ef fce2 0809 f200
00000080: 10f8 f417 0002 0df9 e602 17ff 26f4 051d
00000090: f0f0 0902 f408 0705 0608 0cfb ebe7 02e7
000000a0: f2ef f905 10e9 eaf0 fb08 f808 eee3 0dee
000000b0: f405 04fc 19f8 f217 0f0a daf5 f4f9 ec01
000000c0: 19f5 f603 0102 fa09 01e8 b7eb f6f8 f0f3
000000d0: 0508 03fd fde3 1807 05e7 0be4 ebf6 0506
000000e0: fc12 f3ee f603 14f5 1ce3 0204 0800 020d
000000f0: 19fd 0a02 fff0 0423 e8f0 e60b f60c daf8

recog/birnn/bidirectional_rnn/bw/rnn3/input_to_forget_w i1 [164, 164] scale=0.009656233 zero_point=0
0.1738122 0.13518725 0.1738122 0.15449972 0.03862493 0.12553103 0.29934323 0.096562326
0.019312466 0.0289687 0.13518725 0.048281163 -0.06759363 0.0869061 0.0 -0.009656233
-0.03862493 0.19312465 0.0579374 0.10621856 0.0289687 -0.06759363 0.2317496 -0.12553103
0.0289687 -0.009656233 0.0579374 0.13518725 -0.13518725 0.2317496 0.1738122 0.1158748
0.03862493 0.14484349 0.0869061 0.0579374 -0.009656233 -0.0289687 0.14484349 -0.25106207
-0.06759363 0.2607183 0.07724986 0.06759363 0.048281163 -0.16415596 0.2317496 0.24140581
-0.06759363 0.009656233 0.0579374 -0.0289687 0.009656233 -0.10621856 0.10621856 0.18346842
0.12553103 0.03862493 0.0 -0.048281163 0.10621856 -0.0579374 0.0579374 0.06759363
0.18346842 0.009656233 0.12553103 0.0 -0.21243712 0.22209336 0.009656233 -0.009656233
0.13518725 0.1158748 0.0 -0.0869061 0.048281163 0.0869061 0.03862493 -0.019312466
0.0289687 -0.019312466 0.15449972 -0.12553103 0.15449972 0.15449972 -0.10621856 -0.07724986
0.10621856 0.37659308 0.06759363 -0.019312466 0.096562326 -0.0579374 0.06759363 0.1158748
0.19312465 0.0 0.25106207 0.16415596 0.1738122 -0.28968698 -0.03862493 0.16415596
0.0289687 0.13518725 -0.06759363 -0.33796814 0.16415596 0.13518725 0.29934323 0.2607183
0.009656233 0.10621856 0.21243712 0.2317496 0.18346842 0.28003076 -0.07724986 -0.07724986
-0.2703745 0.12553103 -0.0289687 0.009656233 0.009656233 0.14484349 -0.019312466 -0.019312466
0.0869061 0.43453047 0.048281163 -0.06759363 -0.15449972 0.13518725 -0.19312465 0.07724986
0.16415596 -0.12553103 -0.0289687 0.1158748 0.15449972 0.0869061 0.0289687 0.10621856
0.10621856 0.20278089 0.10621856 0.10621856 -0.019312466 0.19312465 -0.07724986 -0.048281163
-0.009656233 0.096562326 0.10621856 -0.13518725 0.06759363 0.415218 -0.14484349 0.33796814
0.28968698 0.0579374 0.0 -0.009656233 0.15449972 -0.0579374 0.1158748 0.1738122
-0.0289687 -0.048281163 0.0289687 -0.13518725 0.07724986 -0.019312466 -0.14484349 -0.06759363
0.06759363 0.24140581 -0.0289687 0.24140581 -0.0869061 0.16415596 0.0289687 -0.2703745
-0.019312466 -0.14484349 0.048281163 0.29934323 -0.019312466 0.0 0.048281163 0.22209336
-0.48281163 0.048281163 0.0579374 -0.22209336 0.19312465 -0.32831192 -0.28003076 -0.06759363
-0.1738122 -0.03862493 0.5117803 0.0579374 -0.1158748 -0.03862493 0.0869061 -0.1738122
-0.07724986 -0.048281163 -0.12553103 0.0289687 -0.10621856 0.20278089 -0.415218 -0.0579374
-0.03862493 0.15449972 -0.009656233 0.009656233 0.0289687 0.019312466 -0.24140581 0.0289687
-0.03862493 0.13518725 0.2317496 0.15449972 -0.15449972 0.12553103 -0.1738122 -0.10621856
-0.42487425 0.16415596 -0.1158748 -0.15449972 -0.15449972 -0.28968698 -0.22209336 0.048281163
-0.0869061 0.1738122 -0.009656233 -0.06759363 -0.22209336 0.40556177 0.06759363 -0.24140581
0.1158748 0.15449972 -0.096562326 -0.03862493 0.07724986 -0.24140581 0.03862493 0.096562326
00000000: 120e 1210 040d 1f0a 0203 0e05 f909 00ff
00000010: fc14 060b 03f9 18f3 03ff 060e f218 120c
00000020: 040f 0906 fffd 0fe6 f91b 0807 05ef 1819
00000030: f901 06fd 01f5 0b13 0d04 00fb 0bfa 0607
00000040: 1301 0d00 ea17 01ff 0e0c 00f7 0509 04fe
00000050: 03fe 10f3 1010 f5f8 0b27 07fe 0afa 070c
00000060: 1400 1a11 12e2 fc11 030e f9dd 110e 1f1b
00000070: 010b 1618 131d f8f8 e40d fd01 010f fefe
00000080: 092d 05f9 f00e ec08 11f3 fd0c 1009 030b
00000090: 0b15 0b0b fe14 f8fb ff0a 0bf2 072b f123
000000a0: 1e06 00ff 10fa 0c12 fdfb 03f2 08fe f1f9
000000b0: 0719 fd19 f711 03e4 fef1 051f fe00 0517
000000c0: ce05 06e9 14de e3f9 eefc 3506 f4fc 09ee
000000d0: f8fb f303 f515 d5fa fc10 ff01 0302 e703
000000e0: fc0e 1810 f00d eef5 d411 f4f0 f0e2 e905
000000f0: f712 fff9 e92a 07e7 0c10 f6fc 08e7 040a

recog/birnn/bidirectional_rnn/bw/rnn3/input_to_input_w i1 [164, 164] scale=0.0114613725 zero_point=0
-0.11461373 0.0 0.0 -0.2865343 0.0114613725 0.0114613725 -0.11461373 -0.034384117
0.0 -0.0114613725 0.0114613725 -0.057306863 -0.1260751 0.022922745 0.0114613725 0.0
0.022922745 0.11461373 0.22922745 -0.10315235 0.06876823 0.09169098 -0.22922745 -0.09169098
-0.14899784 -0.08022961 -0.40114805 0.19484334 -0.057306863 0.1260751 0.08022961 0.022922745
0.09169098 -0.3782253 -0.16045922 -0.11461373 0.09169098 -0.11461373 0.1260751 0.10315235
0.09169098 0.0 0.10315235 -0.2063047 -0.034384117 0.034384117 -0.09169098 -0.022922745
-0.2063047 -0.09169098 0.2521502 0.2865343 0.11461373 -0.022922745 -0.13753647 -0.10315235
-0.22922745 0.08022961 -0.21776608 0.13753647 0.0114613725 -0.13753647 -0.034384117 -0.11461373
0.057306863 -0.11461373 -0.08022961 -0.057306863 -0.057306863 -0.1260751 0.09169098 -0.0114613725
-0.14899784 -0.0114613725 0.057306863 -0.1260751 -0.09169098 0.034384117 0.14899784 -0.10315235
0.2521502 0.06876823 -0.13753647 -0.057306863 -0.09169098 -0.09169098 0.022922745 0.09169098
0.022922745 0.034384117 -0.35530254 0.16045922 -0.14899784 0.08022961 -0.057306863 -0.17192058
-0.11461373 0.24068882 -0.14899784 -0.38968667 -0.1260751 0.09169098 0.09169098 0.19484334
-0.04584549 -0.32091844 0.17192058 0.18338196 -0.04584549 -0.46991628 0.04584549 0.09169098
0.16045922 0.2063047 -0.2979957 -0.40114805 -0.18338196 -0.13753647 0.18338196 0.1260751
0.06876823 0.0114613725 0.14899784 -0.034384117 0.022922745 -0.034384117 -0.492839 -0.19484334
0.0 -0.4126094 -0.14899784 -0.057306863 0.09169098 -0.19484334 0.2063047 -0.022922745
-0.2979957 -0.06876823 0.14899784 -0.1260751 -0.7449892 -0.26361156 -0.06876823 -0.06876823
-0.11461373 -0.0114613725 -0.36676392 -0.022922745 -0.057306863 -0.08022961 -0.21776608 0.034384117
0.11461373 -0.34384117 -0.11461373 0.022922745 -0.17192058 -0.21776608 0.08022961 -0.11461373
-0.022922745 -0.18338196 -0.10315235 -0.1260751 -0.04584549 0.04584549 0.11461373 -0.08022961
-0.2865343 0.09169098 0.057306863 0.057306863 0.0 -0.0114613725 0.26361156 0.14899784
0.13753647 -0.0114613725 -0.08022961 -0.057306863 0.11461373 -0.26361156 0.13753647 -0.14899784
0.0 -0.10315235 0.0 0.022922745 -0.08022961 0.08022961 0.18338196 0.11461373
0.022922745 -0.08022961 0.16045922 0.057306863 0.022922745 0.08022961 0.0 -0.09169098
0.09169098 0.17192058 0.09169098 0.4126094 0.17192058 0.21776608 0.21776608 0.10315235
-0.06876823 0.057306863 -0.16045922 -0.1260751 0.11461373 0.2521502 0.21776608 0.21776608
-0.09169098 0.0114613725 -0.057306863 0.0114613725 -0.18338196 0.24068882 0.35530254 -0.24068882
-0.034384117 0.022922745 -0.11461373 0.034384117 0.2865343 -0.22922745 -0.1260751 -0.2063047
-0.27507293 0.034384117 -0.08022961 -0.022922745 0.0114613725 -0.04584549 -0.1260751 0.19484334
-0.17192058 0.034384117 -0.09169098 -0.11461373 0.16045922 0.0 0.034384117 -0.2521502
-0.10315235 -0.14899784 0.16045922 0.36676392 -0.04584549 -0.10315235 0.08022961 -0.18338196
00000000: f600 00e7 0101 f6fd 00ff 01fb f502 0100
00000010: 020a 14f7 0608 ecf8 f3f9 dd11 fb0b 0702
00000020: 08df f2f6 08f6 0b09 0800 09ee fd03 f8fe
00000030: eef8 1619 0afe f4f7 ec07 ed0c 01f4 fdf6
00000040: 05f6 f9fb fbf5 08ff f3ff 05f5 f803 0df7
00000050: 1606 f4fb f8f8 0208 0203 e10e f307 fbf1
00000060: f615 f3de f508 0811 fce4 0f10 fcd7 0408
00000070: 0e12 e6dd f0f4 100b 0601 0dfd 02fd d5ef
00000080: 00dc f3fb 08ef 12fe e6fa 0df5 bfe9 fafa
00000090: f6ff e0fe fbf9 ed03 0ae2 f602 f1ed 07f6
000000a0: fef0 f7f5 fc04 0af9 e708 0505 00ff 170d
000000b0: 0cff f9fb 0ae9 0cf3 00f7 0002 f907 100a
000000c0: 02f9 0e05 0207 00f8 080f 0824 0f13 1309
000000d0: fa05 f2f5 0a16 1313 f801 fb01 f015 1feb
000000e0: fd02 f603 19ec f5ee e803 f9fe 01fc f511
000000f0: f103 f8f6 0e00 03ea f7f3 0e20 fcf7 07f0

recog/birnn/bidirectional_rnn/bw/rnn3/input_to_output_w i1 [164, 164] scale=0.015038255 zero_point=0
-0.06015302 0.090229526 0.34587985 0.075191274 0.1353443 0.045114763 0.15038255 -0.075191274
0.090229526 0.15038255 -0.090229526 0.06015302 0.1353443 0.075191274 0.06015302 -0.12030604
-0.03007651 0.015038255 0.12030604 -0.105267785 0.28572685 -0.15038255 0.18045905 0.24061207
-0.1353443 -0.21053557 0.015038255 0.105267785 -0.015038255 -0.090229526 0.015038255 -0.22557382
-0.1654208 -0.18045905 0.105267785 0.045114763 0.2706886 0.1954973 0.3007651 0.0
-0.045114763 0.075191274 0.0 0.045114763 0.18045905 -0.03007651 0.105267785 -0.090229526
-0.03007651 -0.105267785 0.015038255 0.12030604 0.22557382 -0.1654208 0.0 0.0
0.06015302 -0.075191274 0.1353443 0.03007651 0.06015302 0.015038255 0.12030604 0.12030604
-0.12030604 0.075191274 -0.015038255 0.1353443 0.06015302 0.37595636 0.42107114 0.3308416
0.045114763 0.075191274 0.03007651 0.1353443 0.12030604 -0.15038255 -0.03007651 -0.105267785
-0.090229526 0.015038255 -0.075191274 0.3609181 0.24061207 0.24061207 0.075191274 -0.18045905
0.03007651 0.1654208 -0.15038255 0.1353443 -0.1353443 0.105267785 0.1654208 -0.18045905
0.090229526 0.105267785 0.06015302 0.075191274 0.045114763 -0.22557382 0.1654208 -0.045114763
0.0 0.0 0.03007651 -0.18045905 -0.1954973 0.075191274 -0.045114763 0.18045905
0.22557382 -0.075191274 0.105267785 -0.015038255 0.03007651 0.015038255 -0.15038255 -0.1353443
0.075191274 0.0 -0.105267785 0.105267785 -0.045114763 0.105267785 -0.12030604 0.3007651
-0.15038255 0.12030604 -0.06015302 0.18045905 0.2706886 0.075191274 -0.1954973 0.03007651
0.0 -0.075191274 -0.015038255 0.1654208 -0.18045905 0.21053557 0.0 0.1954973
-0.12030604 0.045114763 -0.105267785 0.31580335 0.15038255 0.015038255 0.12030604 -0.090229526
0.21053557 -0.015038255 -0.015038255 -0.15038255 -0.06015302 -0.06015302 -0.015038255 0.090229526
0.24061207 0.105267785 0.090229526 0.12030604 0.090229526 -0.15038255 0.06015302 0.105267785
-0.075191274 0.105267785 0.045114763 -0.18045905 -0.015038255 0.105267785 -0.105267785 0.15038255
0.015038255 -0.4661859 0.79702747 0.1654208 0.18045905 -0.045114763 0.25565034 0.06015302
0.03007651 0.075191274 -0.2706886 0.4060329 0.015038255 0.03007651 0.06015302 -0.1954973
0.0 -0.12030604 0.03007651 0.25565034 0.18045905 0.1353443 -0.015038255 0.12030604
0.03007651 -0.105267785 0.21053557 0.2706886 0.1654208 0.1353443 0.1353443 0.0
0.6015302 0.55641544 0.045114763 -0.15038255 -0.03007651 -0.21053557 0.06015302 0.15038255
0.76695096 0.42107114 0.4661859 0.34587985 0.22557382 0.25565034 0.25565034 0.03007651
0.18045905 -0.1654208 -0.2706886 0.1353443 -0.105267785 -0.2706886 -0.03007651 0.06015302
0.3609181 -0.105267785 -0.3609181 -0.4661859 0.015038255 0.06015302 0.105267785 -0.045114763
0.3909946 -0.15038255 -0.25565034 -0.1353443 -0.015038255 0.075191274 -0.1954973 0.3909946
-0.1353443 -0.015038255 -0.105267785 0.06015302 0.21053557 -0.105267785 0.045114763 -0.24061207
00000000: fc06 1705 0903 0afb 060a fa04 0905 04f8
00000010: fe01 08f9 13f6 0c10 f7f2 0107 fffa 01f1
00000020: f5f4 0703 120d 1400 fd05 0003 0cfe 07fa
00000030: fef9 0108 0ff5 0000 04fb 0902 0401 0808
00000040: f805 ff09 0419 1c16 0305 0209 08f6 fef9
00000050: fa01 fb18 1010 05f4 020b f609 f707 0bf4
00000060: 0607 0405 03f1 0bfd 0000 02f4 f305 fd0c
00000070: 0ffb 07ff 0201 f6f7 0500 f907 fd07 f814
00000080: f608 fc0c 1205 f302 00fb ff0b f40e 000d
00000090: f803 f915 0a01 08fa 0eff fff6 fcfc ff06
000000a0: 1007 0608 06f6 0407 fb07 03f4 ff07 f90a
000000b0: 01e1 350b 0cfd 1104 0205 ee1b 0102 04f3
000000c0: 00f8 0211 0c09 ff08 02f9 0e12 0b09 0900
000000d0: 2825 03f6 fef2 040a 331c 1f17 0f11 1102
000000e0: 0cf5 ee09 f9ee fe04 18f9 e8e1 0104 07fd
000000f0: 1af6 eff7 ff05 f31a f7ff f904 0ef9 03f0
