system/system/saiv/textrecognition/stride/mSTR_Latin_CNN.tflite (tflite, 202768 bytes, 15 tensors)

recog/cnn/GSE_B_2_fully_connected1/bias i1 [9] scale=0.00090364 zero_point=0
000000 09 7f e0 d4 d3 26 5a e3 33
       0.00813276 0.11476228 -0.02891648 -0.03976016 -0.0406638 0.03433832 0.0813276 -0.02620556 0.04608564

recog/cnn/GSE_A_1/GSE_A_1_fully_connected1/GSE_A_1_fully_connected1/Tensordot/MatMul i1 [6, 96] scale=0.008135583 zero_point=0
000000 ed 1d d6 36 06 fd a1 36 de 30 ee 00 0d 0f df fa
       -0.15457608 0.23593192 -0.3416945 0.4393215 0.0488135 -0.02440675 -0.77288043 0.4393215 -0.27660984 0.390508 -0.1464405 0.0 0.105762586 0.122033745 -0.26847425 -0.0488135
000010 d0 2c 19 fb 0b f7 d9 d4 d1 0a d9 2c 2c d5 c6 1c
       -0.390508 0.35796565 0.20338959 -0.040677916 0.08949141 -0.07322025 -0.31728774 -0.35796565 -0.3823724 0.08135583 -0.31728774 0.35796565 0.35796565 -0.3498301 -0.47186384 0.22779633
000020 e2 f5 11 f7 e9 d0 46 34 f7 28 17 e5 fd dd 00 50
       -0.24406749 -0.08949141 0.13830492 -0.07322025 -0.18711841 -0.390508 0.56949085 0.42305034 -0.07322025 0.32542333 0.18711841 -0.21966074 -0.02440675 -0.28474542 0.0 0.65084666
000030 02 f2 d2 a9 de 0d 07 19 b0 ad 6a 9f 07 e8 ec 2a
       0.016271167 -0.113898166 -0.37423682 -0.70779574 -0.27660984 0.105762586 0.056949083 0.20338959 -0.65084666 -0.6752534 0.8623718 -0.78915155 0.056949083 -0.195254 -0.16271167 0.3416945
000040 30 f1 b2 ed 29 f9 f4 e9 e8 26 f9 fc ee 16 fd 14
       0.390508 -0.122033745 -0.6345755 -0.15457608 0.33355892 -0.056949083 -0.097627 -0.18711841 -0.195254 0.30915216 -0.056949083 -0.032542333 -0.1464405 0.17898282 -0.02440675 0.16271167
000050 d9 41 23 3d ee 0e 7f e5 be c1 55 eb 0a 12 39 38
       -0.31728774 0.5288129 0.28474542 0.49627057 -0.1464405 0.113898166 1.0332191 -0.21966074 -0.5369485 -0.5125418 0.69152457 -0.17084725 0.08135583 0.1464405 0.46372825 0.45559266
000060 2f da 11 49 0b ea 38 2a f8 cc e9 16 c9 ea 3d fa
       0.3823724 -0.30915216 0.13830492 0.5938976 0.08949141 -0.17898282 0.45559266 0.3416945 -0.065084666 -0.42305034 -0.18711841 0.17898282 -0.44745708 -0.17898282 0.49627057 -0.0488135
000070 0e f1 fb 1a e0 0c 06 0b 2b ee 4f 2a 37 ac f7 da
       0.113898166 -0.122033745 -0.040677916 0.21152517 -0.26033866 0.097627 0.0488135 0.08949141 0.3498301 -0.1464405 0.6427111 0.3416945 0.44745708 -0.683389 -0.07322025 -0.30915216
000080 e9 fd bc ed 14 04 b8 f0 0d e0 62 02 f8 0a a7 fd
       -0.18711841 -0.02440675 -0.5532197 -0.15457608 0.16271167 0.032542333 -0.585762 -0.13016933 0.105762586 -0.26033866 0.79728717 0.016271167 -0.065084666 0.08135583 -0.7240669 -0.02440675
000090 24 f5 e4 42 35 ed 49 c5 4b 1e 09 20 4b fd cc 1c
       0.292881 -0.08949141 -0.22779633 0.5369485 0.4311859 -0.15457608 0.5938976 -0.47999942 0.61016876 0.24406749 0.07322025 0.26033866 0.61016876 -0.02440675 -0.42305034 0.22779633
0000a0 f5 e9 13 ee c5 08 e6 34 f7 37 fd 1e ff 03 78 0a
       -0.08949141 -0.18711841 0.15457608 -0.1464405 -0.47999942 0.065084666 -0.21152517 0.42305034 -0.07322025 0.44745708 -0.02440675 0.24406749 -0.008135583 0.02440675 0.97626996 0.08135583
0000b0 25 ed 6d 9c 54 06 dd d7 36 eb dc 0e 07 1b ee c0
       0.30101657 -0.15457608 0.8867786 -0.81355834 0.683389 0.0488135 -0.28474542 -0.33355892 0.4393215 -0.17084725 -0.292881 0.113898166 0.056949083 0.21966074 -0.1464405 -0.5206773
0000c0 d4 12 c4 3c 25 fc e1 e3 f7 ed 0f fc 08 08 0d f8
       -0.35796565 0.1464405 -0.48813498 0.48813498 0.30101657 -0.032542333 -0.25220308 -0.23593192 -0.07322025 -0.15457608 0.122033745 -0.032542333 0.065084666 0.065084666 0.105762586 -0.065084666
0000d0 de 12 f9 03 d3 18 ef fd e1 17 29 14 17 fb bb 10
       -0.27660984 0.1464405 -0.056949083 0.02440675 -0.36610124 0.195254 -0.13830492 -0.02440675 -0.25220308 0.18711841 0.33355892 0.16271167 0.18711841 -0.040677916 -0.56135523 0.13016933
0000e0 f9 e6 35 f5 ea 05 1f 13 f9 11 09 05 0f 06 53 39
       -0.056949083 -0.21152517 0.4311859 -0.08949141 -0.17898282 0.040677916 0.25220308 0.15457608 -0.056949083 0.13830492 0.07322025 0.040677916 0.122033745 0.0488135 0.6752534 0.46372825
0000f0 1c 45 2a a8 22 0a f3 3e 08 b5 dc ed ee fe 31 30
       0.22779633 0.56135523 0.3416945 -0.7159313 0.27660984 0.08135583 -0.105762586 0.50440615 0.065084666 -0.61016876 -0.292881 -0.15457608 -0.1464405 -0.016271167 0.39864358 0.390508

recog/cnn/GSE_A_1/GSE_A_1_fully_connected2/GSE_A_1_fully_connected2/Tensordot/MatMul i1 [96, 6] scale=0.01923946 zero_point=0
000000 38 17 3c fb 19 f6 35 4f 3b fb 35 fb f7 14 14 0a
       1.0774097 0.44250757 1.1543676 -0.09619729 0.48098648 -0.19239458 1.0196913 1.5199172 1.1351281 -0.09619729 1.0196913 -0.09619729 -0.17315513 0.38478917 0.38478917 0.19239458
000010 02 fa 10 05 f6 fc 04 0a 5c 48 35 01 60 09 0d 08
       0.03847892 -0.115436755 0.30783135 0.09619729 -0.19239458 -0.07695784 0.07695784 0.19239458 1.7700303 1.385241 1.0196913 0.01923946 1.8469881 0.17315513 0.25011298 0.15391567
000020 10 fe f4 fa fa 10 01 04 05 f6 e0 02 11 0b e8 f3
       0.30783135 -0.03847892 -0.23087351 -0.115436755 -0.115436755 0.30783135 0.01923946 0.07695784 0.09619729 -0.19239458 -0.6156627 0.03847892 0.3270708 0.21163405 -0.46174702 -0.25011298
000030 39 58 4b f5 4d f6 f9 07 22 03 07 f4 31 41 42 fe
       1.0966492 1.6930724 1.4429594 -0.21163405 1.4814384 -0.19239458 -0.13467622 0.13467622 0.6541416 0.057718378 0.13467622 -0.23087351 0.9427335 1.2505648 1.2698044 -0.03847892
000040 3b 02 00 ff f3 f9 f2 05 f6 fd 0a ff 03 fe 0f 0f
       1.1351281 0.03847892 0.0 -0.01923946 -0.25011298 -0.13467622 -0.26935244 0.09619729 -0.19239458 -0.057718378 0.19239458 -0.01923946 0.057718378 -0.03847892 0.2885919 0.2885919
000050 08 fb 02 08 14 ff f4 08 0c f6 02 0c 11 08 ff 00
       0.15391567 -0.09619729 0.03847892 0.15391567 0.38478917 -0.01923946 -0.23087351 0.15391567 0.23087351 -0.19239458 0.03847892 0.23087351 0.3270708 0.15391567 -0.01923946 0.0
000060 42 45 32 ff 3a 02 f2 e9 f5 0c e9 ff 04 01 fa fd
       1.2698044 1.3275226 0.96197295 -0.01923946 1.1158886 0.03847892 -0.26935244 -0.44250757 -0.21163405 0.23087351 -0.44250757 -0.01923946 0.07695784 0.01923946 -0.115436755 -0.057718378
000070 0e fc 1a 33 06 fe 15 08 08 01 2d 04 03 0d db ed
       0.26935244 -0.07695784 0.50022596 0.98121244 0.115436755 -0.03847892 0.40402865 0.15391567 0.15391567 0.01923946 0.86577564 0.07695784 0.057718378 0.25011298 -0.71186 -0.3655497
000080 dd f3 df 02 00 fe fd 0c fb 0c 48 52 44 fe 48 09
       -0.6733811 -0.25011298 -0.6349022 0.03847892 0.0 -0.03847892 -0.057718378 0.23087351 -0.09619729 0.23087351 1.385241 1.5776356 1.3082832 -0.03847892 1.385241 0.17315513
000090 0b 28 27 f6 12 05 07 13 0f 05 06 05 02 13 00 04
       0.21163405 0.76957834 0.7503389 -0.19239458 0.34631026 0.09619729 0.13467622 0.3655497 0.2885919 0.09619729 0.115436755 0.09619729 0.03847892 0.3655497 0.0 0.07695784
0000a0 fe ff ff f0 08 05 f7 02 f9 01 10 04 ef fe 20 31
       -0.03847892 -0.01923946 -0.01923946 -0.30783135 0.15391567 0.09619729 -0.17315513 0.03847892 -0.13467622 0.01923946 0.30783135 0.07695784 -0.3270708 -0.03847892 0.6156627 0.9427335
0000b0 2b 05 3a f9 40 55 57 f4 3d fb 5e 69 5a 08 60 06
       0.82729673 0.09619729 1.1158886 -0.13467622 1.2313254 1.635354 1.6738329 -0.23087351 1.173607 -0.09619729 1.8085091 2.0201433 1.7315513 0.15391567 1.8469881 0.115436755
0000c0 f4 f4 02 f5 05 fa 0e 0b 0a 09 06 0a f1 fb 0d 0b
       -0.23087351 -0.23087351 0.03847892 -0.21163405 0.09619729 -0.115436755 0.26935244 0.21163405 0.19239458 0.17315513 0.115436755 0.19239458 -0.2885919 -0.09619729 0.25011298 0.21163405
0000d0 fb 01 f5 0a 07 fb f8 03 04 f9 05 f5 fc 08 2b 18
       -0.09619729 0.01923946 -0.21163405 0.19239458 0.13467622 -0.09619729 -0.15391567 0.057718378 0.07695784 -0.13467622 0.09619729 -0.21163405 -0.07695784 0.15391567 0.82729673 0.46174702
0000e0 25 02 1e 0c 4b 55 57 09 4d f5 13 08 f3 05 fe f5
       0.71186 0.03847892 0.5771838 0.23087351 1.4429594 1.635354 1.6738329 0.17315513 1.4814384 -0.21163405 0.3655497 0.15391567 -0.25011298 0.09619729 -0.03847892 -0.21163405
0000f0 02 00 ff 06 fe 08 0e f4 06 fd e4 0a 12 2e 15 08
       0.03847892 0.0 -0.01923946 0.115436755 -0.03847892 0.15391567 0.26935244 -0.23087351 0.115436755 -0.057718378 -0.5387049 0.19239458 0.34631026 0.88501513 0.40402865 0.15391567

recog/cnn/GSE_B_2/GSE_B_2_fully_connected1/GSE_B_2_fully_connected1/Tensordot/MatMul i1 [9, 156] scale=0.012222545 zero_point=0
000000 f3 2c ff ec 06 1e f2 f6 d5 f3 d4 13 04 e9 e5 0c
       -0.1588931 0.53779197 -0.012222545 -0.2444509 0.073335275 0.36667636 -0.17111564 -0.12222545 -0.52556944 -0.1588931 -0.53779197 0.23222835 0.04889018 -0.28111854 -0.33000872 0.14667055
000010 10 01 0d ef ef 08 f0 e0 0f f2 10 08 0f 0c e9 01
       0.19556072 0.012222545 0.1588931 -0.20778327 -0.20778327 0.09778036 -0.19556072 -0.39112145 0.18333818 -0.17111564 0.19556072 0.09778036 0.18333818 0.14667055 -0.28111854 0.012222545
000020 0a f7 f5 c8 26 fa 04 f9 f8 1f 02 ff 1f 16 0b 03
       0.12222545 -0.110002905 -0.13444799 -0.68446255 0.4644567 -0.073335275 0.04889018 -0.08555782 -0.09778036 0.3788989 0.02444509 -0.012222545 0.3788989 0.26889598 0.13444799 0.036667638
000030 f1 13 18 fb b5 0f ed 17 dd e6 16 04 10 0f f5 e5
       -0.18333818 0.23222835 0.2933411 -0.061112724 -0.9166909 0.18333818 -0.23222835 0.28111854 -0.4277891 -0.3177862 0.26889598 0.04889018 0.19556072 0.18333818 -0.13444799 -0.33000872
000040 25 02 0d fd fc 18 00 e3 1e 3f 10 f6 27 f4 f3 0d
       0.45223418 0.02444509 0.1588931 -0.036667638 -0.04889018 0.2933411 0.0 -0.3544538 0.36667636 0.77002037 0.19556072 -0.12222545 0.47667927 -0.14667055 -0.1588931 0.1588931
000050 f1 fc f5 14 01 06 3d 0a ed 07 dc 0b 25 da dd ea
       -0.18333818 -0.04889018 -0.13444799 0.2444509 0.012222545 0.073335275 0.74557525 0.12222545 -0.23222835 0.08555782 -0.44001162 0.13444799 0.45223418 -0.4644567 -0.4277891 -0.26889598
000060 1e f5 ea 20 fe 03 1e 21 e4 f6 05 ef fb 1e f9 f6
       0.36667636 -0.13444799 -0.26889598 0.39112145 -0.02444509 0.036667638 0.36667636 0.403344 -0.34223127 -0.12222545 0.061112724 -0.20778327 -0.061112724 0.36667636 -0.08555782 -0.12222545
000070 e7 f7 0a 01 fe e1 02 f8 f2 14 0d 07 17 52 20 fe
       -0.30556363 -0.110002905 0.12222545 0.012222545 -0.02444509 -0.3788989 0.02444509 -0.09778036 -0.17111564 0.2444509 0.1588931 0.08555782 0.28111854 1.0022488 0.39112145 -0.02444509
000080 f7 f4 f4 cc fe 15 1c e9 0e 11 0c 15 01 ea 12 04
       -0.110002905 -0.14667055 -0.14667055 -0.6355724 -0.02444509 0.25667346 0.34223127 -0.28111854 0.17111564 0.20778327 0.14667055 0.25667346 0.012222545 -0.26889598 0.22000581 0.04889018
000090 0f d9 7f 1a f9 df 1e 19 d3 16 e5 11 0c f6 0c 1d
       0.18333818 -0.47667927 1.5522633 0.3177862 -0.08555782 -0.403344 0.36667636 0.30556363 -0.55001456 0.26889598 -0.33000872 0.20778327 0.14667055 -0.12222545 0.14667055 0.3544538
0000a0 f3 fc e9 d5 1a 17 05 03 f1 0e 01 29 fb 0f dc f7
       -0.1588931 -0.04889018 -0.28111854 -0.52556944 0.3177862 0.28111854 0.061112724 0.036667638 -0.18333818 0.17111564 0.012222545 0.5011244 -0.061112724 0.18333818 -0.44001162 -0.110002905
0000b0 17 0e 18 2d e4 0d f3 e7 13 e8 ce d6 01 17 06 e1
       0.28111854 0.17111564 0.2933411 0.55001456 -0.34223127 0.1588931 -0.1588931 -0.30556363 0.23222835 -0.2933411 -0.61112726 -0.5133469 0.012222545 0.28111854 0.073335275 -0.3788989
0000c0 05 25 0a fa 27 e5 0b 03 eb 04 fe 13 0c 0d f6 ee
       0.061112724 0.45223418 0.12222545 -0.073335275 0.47667927 -0.33000872 0.13444799 0.036667638 -0.25667346 0.04889018 -0.02444509 0.23222835 0.14667055 0.1588931 -0.12222545 -0.22000581
0000d0 ee f5 f7 29 e3 09 fa fc 07 f8 1c f0 e5 f1 14 11
       -0.22000581 -0.13444799 -0.110002905 0.5011244 -0.3544538 0.110002905 -0.073335275 -0.04889018 0.08555782 -0.09778036 0.34223127 -0.19556072 -0.33000872 -0.18333818 0.2444509 0.20778327
0000e0 0d f9 21 16 fa ff fd f8 0f 0e 02 09 fb 14 15 db
       0.1588931 -0.08555782 0.403344 0.26889598 -0.073335275 -0.012222545 -0.036667638 -0.09778036 0.18333818 0.17111564 0.02444509 0.110002905 -0.061112724 0.2444509 0.25667346 -0.45223418
0000f0 f9 0b 25 18 18 f5 a4 ff 08 03 f3 02 22 e7 0d f9
       -0.08555782 0.13444799 0.45223418 0.2933411 0.2933411 -0.13444799 -1.1244742 -0.012222545 0.09778036 0.036667638 -0.1588931 0.02444509 0.41556653 -0.30556363 0.1588931 -0.08555782

recog/cnn/GSE_B_2/GSE_B_2_fully_connected2/GSE_B_2_fully_connected2/Tensordot/MatMul i1 [156, 9] scale=0.013922654 zero_point=0
000000 fc da 07 fe 0b 0e f8 05 07 29 e1 07 0b 15 1b 1c
       -0.055690616 -0.52906084 0.09745858 -0.027845308 0.15314919 0.19491716 -0.11138123 0.06961327 0.09745858 0.5708288 -0.43160227 0.09745858 0.15314919 0.29237574 0.37591165 0.3898343
000010 f9 3b 0b fe 0b ff fe 15 17 0c fc 01 f5 08 f6 ff
       -0.09745858 0.8214366 0.15314919 -0.027845308 0.15314919 -0.013922654 -0.027845308 0.29237574 0.32022104 0.16707185 -0.055690616 0.013922654 -0.15314919 0.11138123 -0.13922654 -0.013922654
000020 0e f6 09 0a 00 e7 f8 0c 1a 0b ff 04 00 19 15 f4
       0.19491716 -0.13922654 0.1253039 0.13922654 0.0 -0.34806636 -0.11138123 0.16707185 0.36198902 0.15314919 -0.013922654 0.055690616 0.0 0.34806636 0.29237574 -0.16707185
000030 f3 1b 32 07 08 0d ed ec fa f7 0c 12 f4 f5 17 e1
       -0.18099451 0.37591165 0.6961327 0.09745858 0.11138123 0.18099451 -0.26453042 -0.27845308 -0.083535925 -0.1253039 0.16707185 0.2506078 -0.16707185 -0.15314919 0.32022104 -0.43160227
000040 e6 f6 0b ca 0e f0 09 f6 fe ff ff fa 0f 02 0d fb
       -0.36198902 -0.13922654 0.15314919 -0.7518233 0.19491716 -0.22276247 0.1253039 -0.13922654 -0.027845308 -0.013922654 -0.013922654 -0.083535925 0.2088398 0.027845308 0.18099451 -0.06961327
000050 20 51 1a 03 05 4e 51 30 fe 41 14 03 0a 02 06 06
       0.44552493 1.127735 0.36198902 0.041767962 0.06961327 1.0859671 1.127735 0.6682874 -0.027845308 0.9049725 0.27845308 0.041767962 0.13922654 0.027845308 0.083535925 0.083535925
000060 00 f7 e9 f4 00 08 f3 f9 0b 04 f7 14 fc fe fb fe
       0.0 -0.1253039 -0.32022104 -0.16707185 0.0 0.11138123 -0.18099451 -0.09745858 0.15314919 0.055690616 -0.1253039 0.27845308 -0.055690616 -0.027845308 -0.06961327 -0.027845308
000070 09 fa fa f2 01 01 f5 f7 0b 00 11 0a 0c 04 1e 06
       0.1253039 -0.083535925 -0.083535925 -0.19491716 0.013922654 0.013922654 -0.15314919 -0.1253039 0.15314919 0.0 0.23668513 0.13922654 0.16707185 0.055690616 0.4176796 0.083535925
000080 09 fd 2f 0c 17 0a 3a e2 f4 06 04 e7 df fb f6 13
       0.1253039 -0.041767962 0.65436476 0.16707185 0.32022104 0.13922654 0.80751395 -0.4176796 -0.16707185 0.083535925 0.055690616 -0.34806636 -0.4594476 -0.06961327 -0.13922654 0.26453042
000090 12 0d 06 03 0c 18 fb 00 f9 f1 ef 01 06 21 18 dd
       0.2506078 0.18099451 0.083535925 0.041767962 0.16707185 0.3341437 -0.06961327 0.0 -0.09745858 -0.2088398 -0.23668513 0.013922654 0.083535925 0.4594476 0.3341437 -0.4872929
0000a0 f4 ec 0c 0f 11 f8 05 12 ea 02 01 ee f3 04 06 0e
       -0.16707185 -0.27845308 0.16707185 0.2088398 0.23668513 -0.11138123 0.06961327 0.2506078 -0.30629838 0.027845308 0.013922654 -0.2506078 -0.18099451 0.055690616 0.083535925 0.19491716
0000b0 0c 0a fb 00 fa 00 fd 0b d9 e4 cb ff 0c e3 05 0a
       0.16707185 0.13922654 -0.06961327 0.0 -0.083535925 0.0 -0.041767962 0.15314919 -0.54298353 -0.3898343 -0.7379007 -0.013922654 0.16707185 -0.40375698 0.06961327 0.13922654
0000c0 0d e3 e4 12 09 0d 03 fb f9 03 f0 07 2b f9 f7 12
       0.18099451 -0.40375698 -0.3898343 0.2506078 0.1253039 0.18099451 0.041767962 -0.06961327 -0.09745858 0.041767962 -0.22276247 0.09745858 0.5986741 -0.09745858 -0.1253039 0.2506078
0000d0 0d f7 07 06 15 ee 01 f0 ff 06 02 fe 18 13 d8 06
       0.18099451 -0.1253039 0.09745858 0.083535925 0.29237574 -0.2506078 0.013922654 -0.22276247 -0.013922654 0.083535925 0.027845308 -0.027845308 0.3341437 0.26453042 -0.55690616 0.083535925
0000e0 f9 02 e5 01 0c 08 0c 0b 07 06 f6 ff f0 02 05 0e
       -0.09745858 0.027845308 -0.37591165 0.013922654 0.16707185 0.11138123 0.16707185 0.15314919 0.09745858 0.083535925 -0.13922654 -0.013922654 -0.22276247 0.027845308 0.06961327 0.19491716
0000f0 fc 09 13 03 ed 07 f4 f5 09 11 0a 1e e7 ed 02 08
       -0.055690616 0.1253039 0.26453042 0.041767962 -0.26453042 0.09745858 -0.16707185 -0.15314919 0.1253039 0.23668513 0.13922654 0.4176796 -0.34806636 -0.26453042 0.027845308 0.11138123

recog/cnn/conv2d/Conv2D i1 [32, 3, 3, 3]
000000 ea ed f8 06 1b f8 0e 18 08 01 36 01 30 68 25 27
       -22 -19 -8 6 27 -8 14 24 8 1 54 1 48 104 37 39
000010 2c 11 fd ea 04 f7 ac fa b7 81 d3 df 81 d5 17 47
       44 17 -3 -22 4 -9 -84 -6 -73 -127 -45 -33 -127 -43 23 71
000020 1f 06 23 11 f8 9c e3 2b 62 1d e5 20 0c 06 d4 f6
       31 6 35 17 -8 -100 -29 43 98 29 -27 32 12 6 -44 -10
000030 0e 4c 17 e9 dc e6 3c 5d 18 d7 91 e0 f7 fb 07 af
       14 76 23 -23 -36 -26 60 93 24 -41 -111 -32 -9 -5 7 -81
000040 81 c4 e3 58 07 56 45 2c 07 22 15 42 0b 1e c6 cc
       -127 -60 -29 88 7 86 69 44 7 34 21 66 11 30 -58 -52
000050 d6 09 12 f1 d4 57 d2 ef 1a f6 37 8c 34 f0 49 d3
       -42 9 18 -15 -44 87 -46 -17 26 -10 55 -116 52 -16 73 -45
000060 d1 42 e7 09 c5 35 4e 81 2e e5 20 f6 1e 36 00 9e
       -47 66 -25 9 -59 53 78 -127 46 -27 32 -10 30 54 0 -98
000070 81 1e 07 98 c3 0d 2a e5 06 49 10 19 2f 1b 30 46
       -127 30 7 -104 -61 13 42 -27 6 73 16 25 47 27 48 70
000080 1a 13 d2 ee d0 f9 05 08 10 06 0d 81 0b 09 12 06
       26 19 -46 -18 -48 -7 5 8 16 6 13 -127 11 9 18 6
000090 02 10 02 08 12 06 e2 11 ff fe 06 f8 fd 0c fd 02
       2 16 2 8 18 6 -30 17 -1 -2 6 -8 -3 12 -3 2
0000a0 04 f8 ac 18 40 81 1a 5a a9 15 42 3f fc c6 2c fa
       4 -8 -84 24 64 -127 26 90 -87 21 66 63 -4 -58 44 -6
0000b0 dd 1c f2 f0 45 ec d3 42 ed d7 1c f7 e9 48 55 33
       -35 28 -14 -16 69 -20 -45 66 -19 -41 28 -9 -23 72 85 51
0000c0 1f 28 09 9a 81 c4 dd df f0 07 01 0a 21 26 02 d3
       31 40 9 -102 -127 -60 -35 -33 -16 7 1 10 33 38 2 -45
0000d0 c4 d0 e9 eb fb 40 4e 39 1c 1f f4 ca f0 25 1a d1
       -60 -48 -23 -21 -5 64 78 57 28 31 -12 -54 -16 37 26 -47
0000e0 f0 1e 33 25 fc 81 ec ec 6a 02 15 23 15 b0 9c cd
       -16 30 51 37 -4 -127 -20 -20 106 2 21 35 21 -80 -100 -51
0000f0 36 43 03 87 81 c1 c3 b2 ee f6 f8 fc 08 14 0a 4c
       54 67 3 -121 -127 -63 -61 -78 -18 -10 -8 -4 8 20 10 76

recog/cnn/extra/Conv2D i1 [64, 3, 3, 32]
000000 17 f4 ec e2 e4 e9 f4 07 00 0e 0c 14 e9 11 ed 03
       23 -12 -20 -30 -28 -23 -12 7 0 14 12 20 -23 17 -19 3
000010 e0 e5 e6 ff 12 dd 05 11 e8 e6 07 e9 e7 03 f4 02
       -32 -27 -26 -1 18 -35 5 17 -24 -26 7 -23 -25 3 -12 2
000020 13 f9 f1 ff 04 f2 14 13 07 1e fa 27 0b fe 11 10
       19 -7 -15 -1 4 -14 20 19 7 30 -6 39 11 -2 17 16
000030 f0 04 fd f0 0c f9 19 0d f8 f9 00 0f e6 02 fc fe
       -16 4 -3 -16 12 -7 25 13 -8 -7 0 15 -26 2 -4 -2
000040 fd fb d6 df 01 f4 00 08 ee 03 00 1c f3 02 e0 03
       -3 -5 -42 -33 1 -12 0 8 -18 3 0 28 -13 2 -32 3
000050 e6 0f c6 e3 0d e3 08 de ea f8 02 06 05 07 09 dc
       -26 15 -58 -29 13 -29 8 -34 -22 -8 2 6 5 7 9 -36
000060 06 18 dd 0e ed de 07 ee 0a f1 0f 03 22 12 0c f1
       6 24 -35 14 -19 -34 7 -18 10 -15 15 3 34 18 12 -15
000070 0a ff 05 23 10 24 10 07 18 0c 22 0f f2 1e 15 fb
       10 -1 5 35 16 36 16 7 24 12 34 15 -14 30 21 -5
000080 f0 29 b8 0e f3 e8 01 dd 0a f3 05 fc 26 fd fc fc
       -16 41 -72 14 -13 -24 1 -35 10 -13 5 -4 38 -3 -4 -4
000090 08 02 d6 1b 05 29 ff 0d 37 0e 19 f2 1c 24 24 e9
       8 2 -42 27 5 41 -1 13 55 14 25 -14 28 36 36 -23
0000a0 14 24 b2 bc e8 e8 f8 d2 11 f5 2d 07 0a 25 b0 07
       20 36 -78 -68 -24 -24 -8 -46 17 -11 45 7 10 37 -80 7
0000b0 f3 ec a3 04 05 15 22 0d 0e f2 11 0a f9 24 35 d9
       -13 -20 -93 4 5 21 34 13 14 -14 17 10 -7 36 53 -39
0000c0 07 04 c0 1c ed 14 04 09 f4 dc f7 f2 0e f3 16 f3
       7 4 -64 28 -19 20 4 9 -12 -36 -9 -14 14 -13 22 -13
0000d0 05 17 fd 0e 02 fd 05 ea 17 22 09 1a 14 09 ec f4
       5 23 -3 14 2 -3 5 -22 23 34 9 26 20 9 -20 -12
0000e0 07 f7 b6 04 e4 09 f6 ea fc ee f0 08 fc e9 e4 fe
       7 -9 -74 4 -28 9 -10 -22 -4 -18 -16 8 -4 -23 -28 -2
0000f0 08 f5 c6 0b dd 09 13 e5 fe 08 e2 ee fe e6 ff bf
       8 -11 -58 11 -35 9 19 -27 -2 8 -30 -18 -2 -26 -1 -65

recog/cnn/sepconv-4/separable_conv2d/depthwise1 i1 [1, 3, 3, 64]
000000 e9 e5 2f 03 d8 e4 ef 15 89 3b da d8 10 fd f4 97
       -23 -27 47 3 -40 -28 -17 21 -119 59 -38 -40 16 -3 -12 -105
000010 3b 26 cd ec e8 81 29 4f 4d d6 30 06 34 3f 4f 08
       59 38 -51 -20 -24 -127 41 79 77 -42 48 6 52 63 79 8
000020 fe 7f e2 ec 4d ff f6 12 e7 d0 02 11 01 07 44 2d
       -2 127 -30 -20 77 -1 -10 18 -25 -48 2 17 1 7 68 45
000030 eb e5 05 0b ec db 3c 13 81 ed ab 2a d5 1e 0f e3
       -21 -27 5 11 -20 -37 60 19 -127 -19 -85 42 -43 30 15 -29
000040 ae 22 a8 e4 b9 e3 56 15 a1 7f a0 64 3b 7f b2 81
       -82 34 -88 -28 -71 -29 86 21 -95 127 -96 100 59 127 -78 -127
000050 5e 4d 81 72 22 99 bf 7f 68 bb 7f df 8f fa c1 e8
       94 77 -127 114 34 -103 -65 127 104 -69 127 -33 -113 -6 -63 -24
000060 ef ce 81 02 7f 13 0c 16 7f 10 4e 30 3e 1e 60 3d
       -17 -50 -127 2 127 19 12 22 127 16 78 48 62 30 96 61
000070 ab d3 04 7f d1 81 74 2f ef cd be 68 81 fb 9e 00
       -85 -45 4 127 -47 -127 116 47 -17 -51 -66 104 -127 -5 -98 0
000080 0b 7f 82 30 27 0e 1e e8 3a 11 8b 48 08 65 f4 de
       11 127 -126 48 39 14 30 -24 58 17 -117 72 8 101 -12 -34
000090 e2 00 b4 4f 10 93 d2 30 45 14 35 00 e5 fb 93 f1
       -30 0 -76 79 16 -109 -46 48 69 20 53 0 -27 -5 -109 -15
0000a0 0d a0 ce de 64 dd f4 c8 02 cb d8 13 12 31 7f db
       13 -96 -50 -34 100 -35 -12 -56 2 -53 -40 19 18 49 127 -37
0000b0 29 f2 ed 0b 13 ae f7 e7 50 31 61 f8 c3 34 0c eb
       41 -14 -19 11 19 -82 -9 -25 80 49 97 -8 -61 52 12 -21
0000c0 a4 f1 08 e3 81 e6 56 7f 81 f3 e7 81 6a 17 d9 4b
       -92 -15 8 -29 -127 -26 86 127 -127 -13 -25 -127 106 23 -39 75
0000d0 7f 43 f4 03 ca d1 7f 29 d6 81 0e ca e5 c1 28 cb
       127 67 -12 3 -54 -47 127 41 -42 -127 14 -54 -27 -63 40 -53
0000e0 06 2b f9 1f 66 50 3b 58 cb 08 08 6c 33 e5 0b 40
       6 43 -7 31 102 80 59 88 -53 8 8 108 51 -27 11 64
0000f0 c5 81 02 24 81 ef 7c 52 b0 c6 a9 25 05 fa e3 5d
       -59 -127 2 36 -127 -17 124 82 -80 -58 -87 37 5 -6 -29 93

recog/cnn/sepconv-4/separable_conv2d i1 [96, 1, 1, 64]
000000 35 af 17 42 ec 09 03 dc 8f 20 fd 10 0d c3 06 1f
       53 -81 23 66 -20 9 3 -36 -113 32 -3 16 13 -61 6 31
000010 1e d1 15 ec 16 09 de cf fe 2e 18 1e d2 02 ef f3
       30 -47 21 -20 22 9 -34 -49 -2 46 24 30 -46 2 -17 -13
000020 1c 18 26 c3 df 7f 1e 0c 19 00 24 21 40 2b e5 2b
       28 24 38 -61 -33 127 30 12 25 0 36 33 64 43 -27 43
000030 07 0b e8 f4 fb ed e8 07 b8 fa 0a 21 22 00 fc f0
       7 11 -24 -12 -5 -19 -24 7 -72 -6 10 33 34 0 -4 -16
000040 17 57 e0 27 d8 2b b9 06 14 c3 fc 47 00 04 00 f6
       23 87 -32 39 -40 43 -71 6 20 -61 -4 71 0 4 0 -10
000050 f3 df 1b 21 0c 0d f4 e5 21 cf 11 f7 17 ee 2f 24
       -13 -33 27 33 12 13 -12 -27 33 -49 17 -9 23 -18 47 36
000060 ac 1b ff 0e f7 df d0 15 14 41 40 e4 09 ca 0b d3
       -84 27 -1 14 -9 -33 -48 21 20 65 64 -28 9 -54 11 -45
000070 13 10 0a ef fa e8 19 ed 81 f1 c7 0f ce f3 f7 13
       19 16 10 -17 -6 -24 25 -19 -127 -15 -57 15 -50 -13 -9 19
000080 29 20 19 b7 fc 17 5f 18 e4 60 f5 fc cd de 08 9a
       41 32 25 -73 -4 23 95 24 -28 96 -11 -4 -51 -34 8 -102
000090 30 14 0c cc f4 11 cf cb fe 60 17 18 d8 2d 67 cf
       48 20 12 -52 -12 17 -49 -53 -2 96 23 24 -40 45 103 -49
0000a0 0b ee 4e f9 fd 24 20 49 bf a8 5b e4 c8 3f fd 0f
       11 -18 78 -7 -3 36 32 73 -65 -88 91 -28 -56 63 -3 15
0000b0 af 3b f2 de 11 b4 02 f4 38 1d 81 d3 b3 ee c5 d7
       -81 59 -14 -34 17 -76 2 -12 56 29 -127 -45 -77 -18 -59 -41
0000c0 0a e8 08 bf ea eb f2 e1 1c d2 f1 46 a6 a3 1e 2a
       10 -24 8 -65 -22 -21 -14 -31 28 -46 -15 70 -90 -93 30 42
0000d0 d1 f1 e8 f4 0f 0c 93 fb 1c 35 0b df 10 d6 35 bb
       -47 -15 -24 -12 15 12 -109 -5 28 53 11 -33 16 -42 53 -69
0000e0 42 5b 14 81 97 d1 34 0d 2b d9 d6 dd 0c 48 ff 05
       66 91 20 -127 -105 -47 52 13 43 -39 -42 -35 12 72 -1 5
0000f0 e2 ea de 30 44 b5 13 13 01 36 1f fd e5 20 06 26
       -30 -22 -34 48 68 -75 19 19 1 54 31 -3 -27 32 6 38

recog/cnn/sepconv-3/separable_conv2d/depthwise1 i1 [1, 3, 3, 96]
000000 0a 4f 30 ee 3c 38 09 3d 48 29 e7 85 f6 e8 c7 f5
       10 79 48 -18 60 56 9 61 72 41 -25 -123 -10 -24 -57 -11
000010 5c 27 a5 e7 da 60 da 0c f0 e3 ea d7 26 ec ed ed
       92 39 -91 -25 -38 96 -38 12 -16 -29 -22 -41 38 -20 -19 -19
000020 fc df 17 24 71 08 3f 0c 10 1d f9 81 07 81 0c 22
       -4 -33 23 36 113 8 63 12 16 29 -7 -127 7 -127 12 34
000030 c8 ef e8 24 23 30 7f 08 06 f0 01 2a de 81 25 ee
       -56 -17 -24 36 35 48 127 8 6 -16 1 42 -34 -127 37 -18
000040 bc 12 d6 ea ea 36 1f b3 d0 ee ec 26 fd 04 d1 a5
       -68 18 -42 -22 -22 54 31 -77 -48 -18 -20 38 -3 4 -47 -91
000050 fa 01 ac dc 28 e6 10 22 f2 33 14 e6 c9 18 cf 96
       -6 1 -84 -36 40 -26 16 34 -14 51 20 -26 -55 24 -49 -106
000060 c1 e0 7f f0 13 06 87 77 d9 e7 fa 6b b4 d7 81 f7
       -63 -32 127 -16 19 6 -121 119 -39 -25 -6 107 -76 -41 -127 -9
000070 81 13 a4 e3 3a 55 81 a0 1c 58 f9 81 73 81 7f 1b
       -127 19 -92 -29 58 85 -127 -96 28 88 -7 -127 115 -127 127 27
000080 38 fc 9a 7f 78 5b 7f 81 81 7f 78 8e 0a 56 4b 7f
       56 -4 -102 127 120 91 127 -127 -127 127 120 -114 10 86 75 127
000090 90 fa 7f 2d 17 81 a6 1a 81 7f 5f 81 12 8a 9e 1c
       -112 -6 127 45 23 -127 -90 26 -127 127 95 -127 18 -118 -98 28
0000a0 8d 94 f6 67 5a 51 de 7f 81 fb b9 cb 03 24 df 87
       -115 -108 -10 103 90 81 -34 127 -127 -5 -71 -53 3 36 -33 -121
0000b0 8a de 81 54 7f 1a 81 29 d6 81 50 7f 20 7f 09 81
       -118 -34 -127 84 127 26 -127 41 -42 -127 80 127 32 127 9 -127
0000c0 d4 99 31 1d 84 f1 a6 54 81 06 27 f5 2a a7 ac f9
       -44 -103 49 29 -124 -15 -90 84 -127 6 39 -11 42 -89 -84 -7
0000d0 a5 4c 81 e6 0e 6c 16 02 09 7f 1c 8f 34 14 23 12
       -91 76 -127 -26 14 108 22 2 9 127 28 -113 52 20 35 18
0000e0 e8 d7 0f 67 d1 48 e0 d5 c8 fd 7f dc dc 5d 49 a6
       -24 -41 15 103 -47 72 -32 -43 -56 -3 127 -36 -36 93 73 -90
0000f0 81 14 6e ec e7 a8 a6 f4 df 75 26 b0 12 b3 e3 f2
       -127 20 110 -20 -25 -88 -90 -12 -33 117 38 -80 18 -77 -29 -14

recog/cnn/sepconv-3/separable_conv2d i1 [156, 1, 1, 96]
000000 d9 f8 0b cf 64 05 0e 2e e7 fe 0f 2c 15 13 13 07
       -39 -8 11 -49 100 5 14 46 -25 -2 15 44 21 19 19 7
000010 22 f8 c6 1d 22 df 38 06 f1 f8 ec ab f5 21 e4 18
       34 -8 -58 29 34 -33 56 6 -15 -8 -20 -85 -11 33 -28 24
000020 f1 06 00 0a fc 2c 20 05 eb e1 f9 d3 f1 21 f1 e7
       -15 6 0 10 -4 44 32 5 -21 -31 -7 -45 -15 33 -15 -25
000030 fc 0c e2 03 f2 f4 c7 4c 4d 09 05 20 08 06 42 ee
       -4 12 -30 3 -14 -12 -57 76 77 9 5 32 8 6 66 -18
000040 e5 de e9 c9 25 1c ed 16 a5 11 15 d2 33 11 b1 01
       -27 -34 -23 -55 37 28 -19 22 -91 17 21 -46 51 17 -79 1
000050 17 7f dc 33 92 16 0e e7 d9 e4 45 b9 40 30 c7 e3
       23 127 -36 51 -110 22 14 -25 -39 -28 69 -71 64 48 -57 -29
000060 0c ec 05 dd 7f 05 bf 1d 05 25 de 01 cc de fc 11
       12 -20 5 -35 127 5 -65 29 5 37 -34 1 -52 -34 -4 17
000070 ec bd 04 53 05 10 ef e7 02 e0 17 c6 46 fd 20 b2
       -20 -67 4 83 5 16 -17 -25 2 -32 23 -58 70 -3 32 -78
000080 fa 26 4d e1 0d d3 fc dd 0f 20 f8 0d 04 bb 18 0b
       -6 38 77 -31 13 -45 -4 -35 15 32 -8 13 4 -69 24 11
000090 14 c8 f2 c4 0d 13 3d 09 14 00 07 f4 11 0c 3a 05
       20 -56 -14 -60 13 19 61 9 20 0 7 -12 17 12 58 5
0000a0 f9 02 5f 16 f0 03 20 00 e7 ee 06 36 37 f4 0b 15
       -7 2 95 22 -16 3 32 0 -25 -18 6 54 55 -12 11 21
0000b0 06 16 32 0a 03 aa f8 c5 fd b3 ea 4b 29 cf f4 0f
       6 22 50 10 3 -86 -8 -59 -3 -77 -22 75 41 -49 -12 15
0000c0 e2 0a d4 ef 00 11 14 ef eb d5 d4 e5 ee 20 81 0e
       -30 10 -44 -17 0 17 20 -17 -21 -43 -44 -27 -18 32 -127 14
0000d0 1b 08 01 e8 27 1f da 16 fb ee 24 06 d5 15 d6 09
       27 8 1 -24 39 31 -38 22 -5 -18 36 6 -43 21 -42 9
0000e0 e6 2b 2c 0f 13 ce c4 7f 6d de 04 2a 1e ec df 03
       -26 43 44 15 19 -50 -60 127 109 -34 4 42 30 -20 -33 3
0000f0 01 c4 e0 b0 ef 04 45 69 02 ef d3 d2 de d4 f3 ed
       1 -60 -32 -80 -17 4 69 105 2 -17 -45 -46 -34 -44 -13 -19

recog/cnn/sepconv-2/separable_conv2d/depthwise1 i1 [1, 3, 3, 156]
000000 eb d6 1e fd e0 27 27 2a 2f c6 07 dd 11 06 01 10
       -21 -42 30 -3 -32 39 39 42 47 -58 7 -35 17 6 1 16
000010 c8 d2 fb 09 1f af 07 15 e0 d5 0c 0d bc ef 3c 0d
       -56 -46 -5 9 31 -81 7 21 -32 -43 12 13 -68 -17 60 13
000020 13 ff d6 72 ed e8 a3 fc f3 ab 0a 54 9c d6 51 01
       19 -1 -42 114 -19 -24 -93 -4 -13 -85 10 84 -100 -42 81 1
000030 e0 09 06 f7 f7 1b c3 33 de b6 1c ea 2a da fa e2
       -32 9 6 -9 -9 27 -61 51 -34 -74 28 -22 42 -38 -6 -30
000040 f8 03 0a ee 2f ee ef 27 0d 8a f5 0c e8 1b 2e a9
       -8 3 10 -18 47 -18 -17 39 13 -118 -11 12 -24 27 46 -87
000050 1d 47 e5 ed f1 15 21 7f 02 ef 18 01 7f 15 0d 00
       29 71 -27 -19 -15 21 33 127 2 -17 24 1 127 21 13 0
000060 11 2f fe 57 46 0b 25 22 0d 0b f3 e0 1a fb 1e 3c
       17 47 -2 87 70 11 37 34 13 11 -13 -32 26 -5 30 60
000070 b6 0d b9 ee f1 18 24 8c 1d 81 e1 39 b4 fb f9 f0
       -74 13 -71 -18 -15 24 36 -116 29 -127 -31 57 -76 -5 -7 -16
000080 20 c1 42 81 f8 9e 06 08 2d f7 01 d2 c9 1b bc 0b
       32 -63 66 -127 -8 -98 6 8 45 -9 1 -46 -55 27 -68 11
000090 e0 02 1a 1b da f4 ed fb fa 20 0e fe f3 8c cf 81
       -32 2 26 27 -38 -12 -19 -5 -6 32 14 -2 -13 -116 -49 -127
0000a0 81 90 bb 00 7f 81 7d 05 f3 e2 7f 2e ed 81 66 18
       -127 -112 -69 0 127 -127 125 5 -13 -30 127 46 -19 -127 102 24
0000b0 3d 00 ff 7f 81 81 eb 16 36 1a 7f e8 c0 d1 ce c5
       61 0 -1 127 -127 -127 -21 22 54 26 127 -24 -64 -47 -50 -59
0000c0 3e 74 e2 cb b7 cc f2 e6 a4 b1 7f cb 25 ea 7f 47
       62 116 -30 -53 -73 -52 -14 -26 -92 -79 127 -53 37 -22 127 71
0000d0 ee fe 29 c8 bc 9c 50 88 33 b6 7f 3b 96 55 81 81
       -18 -2 41 -56 -68 -100 80 -120 51 -74 127 59 -106 85 -127 -127
0000e0 41 29 82 8f 7f 81 7f 97 63 d0 1f cb e2 61 58 5d
       65 41 -126 -113 127 -127 127 -105 99 -48 31 -53 -30 97 88 93
0000f0 5a cd 70 1d de d8 81 e2 6a 73 a5 7f 7f eb 2a 42
       90 -51 112 29 -34 -40 -127 -30 106 115 -91 127 127 -21 42 66

recog/cnn/sepconv-2/separable_conv2d i1 [224, 1, 1, 156]
000000 fd 13 1c ac ee ab 74 52 f2 17 fa 39 a5 df d3 35
       -3 19 28 -84 -18 -85 116 82 -14 23 -6 57 -91 -33 -45 53
000010 2b 2c 58 5a 26 35 f6 ea e8 ba f5 51 19 f3 ca 13
       43 44 88 90 38 53 -10 -22 -24 -70 -11 81 25 -13 -54 19
000020 fc 04 b6 1c 02 0d 33 f2 bf f7 e9 ee dc ec f7 c7
       -4 4 -74 28 2 13 51 -14 -65 -9 -23 -18 -36 -20 -9 -57
000030 7f 22 78 d1 02 8e 26 fd 9c 09 30 e6 b2 16 68 ff
       127 34 120 -47 2 -114 38 -3 -100 9 48 -26 -78 22 104 -1
000040 e9 19 e0 1b 1e cd 43 68 59 19 ed c4 f4 dc db 22
       -23 25 -32 27 30 -51 67 104 89 25 -19 -60 -12 -36 -37 34
000050 19 f6 26 10 de f4 06 ed ee 1a 1d d9 f5 24 f0 65
       25 -10 38 16 -34 -12 6 -19 -18 26 29 -39 -11 36 -16 101
000060 0c 08 c9 ec 48 0f 28 29 0e 3f 08 17 18 fa 1b ec
       12 8 -55 -20 72 15 40 41 14 63 8 23 24 -6 27 -20
000070 e8 c4 d1 41 f6 3e f4 f5 f4 c0 2d 23 fa 23 00 1e
       -24 -60 -47 65 -10 62 -12 -11 -12 -64 45 35 -6 35 0 30
000080 28 e9 9f d6 f6 d2 31 21 19 e4 e7 c3 ea d0 47 1c
       40 -23 -97 -42 -10 -46 49 33 25 -28 -25 -61 -22 -48 71 28
000090 c8 b6 26 b1 fc f5 67 0c 02 e9 db fc 2e 46 08 ea
       -56 -74 38 -79 -4 -11 103 12 2 -23 -37 -4 46 70 8 -22
0000a0 70 14 f6 d2 e7 d9 09 20 3b ea 1c 15 ff 06 ea 3b
       112 20 -10 -46 -25 -39 9 32 59 -22 28 21 -1 6 -22 59
0000b0 0a 15 31 ef 42 0f d9 fd 27 37 1e 17 05 03 cf fa
       10 21 49 -17 66 15 -39 -3 39 55 30 23 5 3 -49 -6
0000c0 ec f5 c3 24 33 32 db 12 d8 f0 44 ab 78 15 e5 28
       -20 -11 -61 36 51 50 -37 18 -40 -16 68 -85 120 21 -27 40
0000d0 11 24 25 30 bf 0e 06 ce e9 37 a1 c6 21 cf 37 ba
       17 36 37 48 -65 14 6 -50 -23 55 -95 -58 33 -49 55 -70
0000e0 db 0e 90 e2 b9 f9 ed e4 01 c4 e4 01 33 e0 33 d3
       -37 14 -112 -30 -71 -7 -19 -28 1 -60 -28 1 51 -32 51 -45
0000f0 08 24 c0 26 ff f1 16 20 fb 20 4b 16 09 2a 0c ed
       8 36 -64 38 -1 -15 22 32 -5 32 75 22 9 42 12 -19

recog/cnn/sepconv-1/separable_conv2d/depthwise1 i1 [1, 1, 1, 320]
000000 7f 7f 81 81 7f 81 7f 81 7f 7f 81 7f 7f 81 81 81
       127 127 -127 -127 127 -127 127 -127 127 127 -127 127 127 -127 -127 -127
000010 7f 81 7f 81 7f 7f 7f 81 7f 81 81 81 7f 7f 81 7f
       127 -127 127 -127 127 127 127 -127 127 -127 -127 -127 127 127 -127 127
000020 81 81 7f 7f 81 7f 81 7f 7f 81 7f 81 7f 81 81 7f
       -127 -127 127 127 -127 127 -127 127 127 -127 127 -127 127 -127 -127 127
000030 7f 81 7f 7f 7f 7f 7f 7f 7f 81 81 81 7f 7f 7f 81
       127 -127 127 127 127 127 127 127 127 -127 -127 -127 127 127 127 -127
000040 81 81 81 81 7f 7f 7f 7f 7f 81 7f 7f 7f 7f 7f 81
       -127 -127 -127 -127 127 127 127 127 127 -127 127 127 127 127 127 -127
000050 81 81 81 7f 81 81 81 81 81 81 7f 7f 81 81 81 81
       -127 -127 -127 127 -127 -127 -127 -127 -127 -127 127 127 -127 -127 -127 -127
000060 81 81 81 81 7f 7f 7f 7f 81 7f 7f 7f 81 81 7f 7f
       -127 -127 -127 -127 127 127 127 127 -127 127 127 127 -127 -127 127 127
000070 7f 7f 7f 81 7f 7f 7f 81 81 81 81 7f 7f 7f 81 81
       127 127 127 -127 127 127 127 -127 -127 -127 -127 127 127 127 -127 -127
000080 81 7f 81 7f 81 7f 7f 81 81 81 81 81 81 7f 81 7f
       -127 127 -127 127 -127 127 127 -127 -127 -127 -127 -127 -127 127 -127 127
000090 81 81 7f 7f 81 81 81 81 81 7f 7f 7f 7f 81 7f 81
       -127 -127 127 127 -127 -127 -127 -127 -127 127 127 127 127 -127 127 -127
0000a0 7f 81 81 7f 81 81 81 7f 7f 81 81 7f 81 81 7f 7f
       127 -127 -127 127 -127 -127 -127 127 127 -127 -127 127 -127 -127 127 127
0000b0 81 7f 81 81 81 7f 7f 81 81 7f 81 7f 7f 81 7f 81
       -127 127 -127 -127 -127 127 127 -127 -127 127 -127 127 127 -127 127 -127
0000c0 81 7f 7f 7f 7f 81 7f 81 81 81 81 7f 7f 7f 81 7f
       -127 127 127 127 127 -127 127 -127 -127 -127 -127 127 127 127 -127 127
0000d0 7f 7f 81 81 81 81 7f 7f 81 81 81 7f 7f 81 7f 7f
       127 127 -127 -127 -127 -127 127 127 -127 -127 -127 127 127 -127 127 127
0000e0 7f 7f 7f 81 81 81 7f 7f 7f 7f 7f 7f 7f 81 81 7f
       127 127 127 -127 -127 -127 127 127 127 127 127 127 127 -127 -127 127
0000f0 7f 81 81 7f 81 81 7f 7f 81 7f 7f 81 81 81 81 81
       127 -127 -127 127 -127 -127 127 127 -127 127 127 -127 -127 -127 -127 -127

recog/cnn/sepconv-1/separable_conv2d i1 [164, 1, 1, 320]
000000 1c e7 52 b1 cd e7 63 f9 ec c8 04 04 19 9a e5 09
       28 -25 82 -79 -51 -25 99 -7 -20 -56 4 4 25 -102 -27 9
000010 e8 15 f0 23 0d e1 15 e4 24 05 ec 04 0f f8 f0 f4
       -24 21 -16 35 13 -31 21 -28 36 5 -20 4 15 -8 -16 -12
000020 1e eb 94 29 2c ed 15 1a ee db 04 fb d9 31 3d 31
       30 -21 -108 41 44 -19 21 26 -18 -37 4 -5 -39 49 61 49
000030 df 11 bc 1f 0c ea 81 fe ec f2 0b 47 00 00 2b ba
       -33 17 -68 31 12 -22 -127 -2 -20 -14 11 71 0 0 43 -70
000040 db da f5 16 1e e1 04 e2 ef df 15 35 08 04 0e 22
       -37 -38 -11 22 30 -31 4 -30 -17 -33 21 53 8 4 14 34
000050 9b fd 04 0d 35 14 dc ec 4e 05 2f 0f e7 0b c7 ec
       -101 -3 4 13 53 20 -36 -20 78 5 47 15 -25 11 -57 -20
000060 20 09 be 0d 6a 0b 17 db df f1 e0 0f c4 13 42 41
       32 9 -66 13 106 11 23 -37 -33 -15 -32 15 -60 19 66 65
000070 f3 41 fe 20 00 c9 d5 e8 c6 09 04 20 fa e1 d6 13
       -13 65 -2 32 0 -55 -43 -24 -58 9 4 32 -6 -31 -42 19
000080 ec ee 09 33 2c fe 10 01 4a d9 a3 9b 31 22 03 f3
       -20 -18 9 51 44 -2 16 1 74 -39 -93 -101 49 34 3 -13
000090 da 11 38 e5 1b 07 ce f3 e5 04 dd d0 03 05 dc cb
       -38 17 56 -27 27 7 -50 -13 -27 4 -35 -48 3 5 -36 -53
0000a0 f2 0a 15 1a e8 1f 0a e7 37 e7 e5 b7 6f 27 cd 13
       -14 10 21 26 -24 31 10 -25 55 -25 -27 -73 111 39 -51 19
0000b0 fc a9 20 17 04 38 f8 20 13 0b 1d 2a cd c8 d0 0d
       -4 -87 32 23 4 56 -8 32 19 11 29 42 -51 -56 -48 13
0000c0 b9 19 d5 23 d2 c6 d5 e1 12 0d 20 e1 fb f7 19 12
       -71 25 -43 35 -46 -58 -43 -31 18 13 32 -31 -5 -9 25 18
0000d0 cd 35 23 ee d1 b4 be d0 dd f0 16 fe 0e d7 36 e4
       -51 53 35 -18 -47 -76 -66 -48 -35 -16 22 -2 14 -41 54 -28
0000e0 33 b5 0b fb c9 24 c2 ec d0 20 f0 16 19 14 f6 e7
       51 -75 11 -5 -55 36 -62 -20 -48 32 -16 22 25 20 -10 -25
0000f0 fa c5 fc f4 0c b6 ee cd 14 17 db 09 ec 0d 00 2a
       -6 -59 -4 -12 12 -74 -18 -51 20 23 -37 9 -20 13 0 42
