system/system/saiv/textrecognition/stride/mSTR_Korean_CNN.tflite (tflite, 202544 bytes, 15 tensors)

recog/cnn/GSE_B_2_fully_connected1/bias i1 [9] scale=0.0018950405 zero_point=0
-0.018950405 0.17244868 0.03979585 -0.04169089 0.21224454 -0.0113702435 -0.03221569 0.24067014
-0.049271055
00000000: f65b 15ea 70fa ef7f e6

recog/cnn/GSE_A_1/GSE_A_1_fully_connected1/GSE_A_1_fully_connected1/Tensordot/MatMul i1 [6, 96] scale=0.010672964 zero_point=0
0.10672964 0.09605668 -0.1494215 0.20278633 0.17076743 0.12807557 -0.23480521 0.117402606
-0.117402606 0.117402606 0.17076743 -0.010672964 -0.021345928 -0.24547818 0.064037785 -0.10672964
-0.08538371 -0.09605668 0.13874853 0.117402606 -0.21345928 0.18144038 -0.1494215 -0.064037785
-0.20278633 -0.05336482 -0.032018892 -0.09605668 -0.16009447 -0.21345928 -0.21345928 -0.05336482
0.16009447 -0.042691857 -0.09605668 -0.13874853 0.09605668 -0.13874853 0.17076743 -0.117402606
-0.21345928 -0.10672964 0.064037785 -0.07471075 -0.20278633 -0.13874853 -0.117402606 0.042691857
-0.18144038 -0.10672964 -0.010672964 -0.10672964 0.064037785 0.05336482 0.16009447 0.064037785
-0.10672964 -0.010672964 -0.08538371 -0.07471075 0.08538371 -0.042691857 -0.23480521 -0.1494215
-0.23480521 -0.24547818 -0.18144038 -0.19211335 0.13874853 0.032018892 -0.16009447 -0.17076743
-0.18144038 0.16009447 0.08538371 -0.21345928 -0.21345928 -0.05336482 0.064037785 -0.07471075
-0.07471075 -0.12807557 -0.25615114 0.117402606 -0.21345928 0.10672964 0.07471075 -0.17076743
-0.042691857 -0.20278633 0.09605668 0.010672964 -0.08538371 -0.22413224 -0.13874853 -0.2668241
0.45893747 -0.32018894 0.117402606 0.032018892 -0.40557265 -0.13874853 0.3522078 0.6617238
0.6510508 -0.07471075 -0.2668241 0.21345928 0.28817004 -0.37355375 -0.22413224 -0.032018892
-0.36288077 0.021345928 0.28817004 0.13874853 -0.10672964 -0.21345928 -0.09605668 -0.21345928
0.24547818 0.117402606 -0.09605668 -0.08538371 0.0 -0.25615114 -0.09605668 0.20278633
0.12807557 0.08538371 0.13874853 0.032018892 0.07471075 -0.05336482 -0.064037785 -0.8645101
0.23480521 -0.19211335 0.5016293 0.42691857 0.10672964 -0.52297527 -0.08538371 0.7044156
0.5763401 -0.36288077 0.27749705 0.5549941 -0.117402606 -0.5549941 -0.07471075 0.7471075
-0.298843 -0.021345928 0.0 -0.010672964 -0.25615114 0.09605668 0.13874853 -0.010672964
-0.40557265 -0.16009447 0.064037785 0.1494215 0.12807557 -0.36288077 -0.117402606 0.46961042
-0.85383713 -0.05336482 -0.34153485 -0.39489967 0.16009447 0.39489967 -0.13874853 0.7364345
-0.21345928 0.13874853 0.28817004 0.09605668 0.07471075 0.12807557 -0.7044156 0.1494215
-0.032018892 -0.27749705 0.18144038 0.25615114 0.0 -0.16009447 -0.298843 0.12807557
-0.20278633 -0.12807557 0.17076743 -0.72576153 -0.21345928 0.5016293 -0.298843 0.34153485
0.064037785 -0.010672964 0.05336482 -0.16009447 0.13874853 0.05336482 -0.18144038 0.042691857
-0.22413224 -0.021345928 0.021345928 0.0 0.3522078 -0.89652896 0.2668241 -0.37355375
0.5763401 -0.23480521 -0.12807557 0.021345928 0.21345928 0.5336482 -0.08538371 0.12807557
0.34153485 -0.20278633 -0.05336482 -0.5123023 0.40557265 -0.12807557 -0.21345928 0.010672964
-0.37355375 0.12807557 -0.17076743 -0.34153485 -0.3842267 0.6297049 0.3522078 0.5016293
0.042691857 -0.07471075 1.3554665 0.064037785 0.010672964 -0.6510508 -0.1494215 0.4162456
-0.49095637 0.1494215 0.25615114 -0.18144038 -0.05336482 -0.5016293 0.10672964 0.5336482
00000000: 0a09 f213 100c ea0b f50b 10ff fee9 06f6
00000010: f8f7 0d0b ec11 f2fa edfb fdf7 f1ec ecfb
00000020: 0ffc f7f3 09f3 10f5 ecf6 06f9 edf3 f504
00000030: eff6 fff6 0605 0f06 f6ff f8f9 08fc eaf2
00000040: eae9 efee 0d03 f1f0 ef0f 08ec ecfb 06f9
00000050: f9f4 e80b ec0a 07f0 fced 0901 f8eb f3e7
00000060: 2be2 0b03 daf3 213e 3df9 e714 1bdd ebfd
00000070: de02 1b0d f6ec f7ec 170b f7f8 00e8 f713
00000080: 0c08 0d03 07fb faaf 16ee 2f28 0acf f842
00000090: 36de 1a34 f5cc f946 e4fe 00ff e809 0dff
000000a0: daf1 060e 0cde f52c b0fb e0db 0f25 f345
000000b0: ec0d 1b09 070c be0e fde6 1118 00f1 e40c
000000c0: edf4 10bc ec2f e420 06ff 05f1 0d05 ef04
000000d0: ebfe 0200 21ac 19dd 36ea f402 1432 f80c
000000e0: 20ed fbd0 26f4 ec01 dd0c f0e0 dc3b 212f
000000f0: 04f9 7f06 01c3 f227 d20e 18ef fbd1 0a32

recog/cnn/GSE_A_1/GSE_A_1_fully_connected2/GSE_A_1_fully_connected2/Tensordot/MatMul i1 [96, 6] scale=0.029461088 zero_point=0
0.11784435 -0.11784435 0.0 -0.088383265 -0.058922175 -0.029461088 0.0 2.356887
1.9149708 1.8855096 1.8855096 -0.14730544 0.029461088 -0.38299415 -0.61868286 -0.38299415
0.5008385 -0.029461088 -0.029461088 0.7070661 0.9427548 0.41245523 1.5908988 0.088383265
-0.029461088 0.38299415 0.44191632 0.0 -0.058922175 0.0 0.20622762 3.4764082
2.5336535 3.1817975 2.7693422 0.20622762 0.2651498 -0.088383265 0.35353306 0.11784435
-0.2356887 0.029461088 -0.029461088 3.5647917 3.5353305 3.741558 2.9461088 0.20622762
0.11784435 0.2946109 0.029461088 1.0311381 -0.029461088 0.11784435 0.17676653 1.2962879
1.001677 1.1489824 1.1195214 0.14730544 -0.088383265 1.001677 0.2651498 0.9132937
1.0311381 0.0 -0.029461088 0.2651498 0.2651498 0.088383265 0.17676653 -0.088383265
0.0 1.0311381 1.6203598 1.7971263 1.2668267 0.2356887 -0.058922175 0.2651498
0.20622762 -0.2946109 -0.17676653 -0.20622762 -0.11784435 1.2373657 -0.029461088 0.9132937
0.7365272 -0.088383265 -0.029461088 0.7954494 0.7070661 0.5302996 0.85437155 0.17676653
0.058922175 1.0605992 0.82491046 0.7659883 0.35353306 -0.17676653 0.029461088 3.741558
3.2407196 3.1817975 3.0050309 0.058922175 0.14730544 -0.5302996 0.41245523 -0.7070661
0.11784435 -0.11784435 0.2651498 1.7676653 1.0311381 1.4435933 0.7365272 0.058922175
-0.088383265 0.2651498 0.029461088 -0.029461088 -0.5008385 0.0 0.11784435 0.38299415
0.17676653 -0.11784435 0.20622762 0.2651498 -0.20622762 3.0639532 3.034492 3.0050309
2.8282645 0.11784435 0.0 3.358564 3.5942526 2.1211984 3.1228752 0.0
0.17676653 -0.058922175 -0.20622762 0.0 0.32407197 -0.058922175 -0.17676653 0.11784435
0.41245523 -0.2356887 0.32407197 0.058922175 0.088383265 0.17676653 0.0 -0.17676653
0.2356887 -0.17676653 0.2651498 1.5319766 0.029461088 0.9427548 1.4435933 0.17676653
-0.058922175 -0.5892218 -0.38299415 -0.35353306 0.20622762 -0.2356887 0.058922175 0.11784435
0.44191632 0.20622762 -0.2946109 -0.20622762 -0.029461088 0.38299415 0.14730544 -0.20622762
0.0 0.17676653 -0.029461088 -0.32407197 -0.14730544 -0.85437155 -0.82491046 0.2651498
0.0 0.4713774 0.058922175 1.3552101 0.7954494 0.029461088 -0.029461088 0.14730544
-0.058922175 -0.14730544 -1.1195214 0.2356887 -0.14730544 0.82491046 0.38299415 0.029461088
-0.2356887 0.2356887 -0.088383265 -0.14730544 0.0 -0.088383265 0.17676653 0.20622762
-0.029461088 -0.088383265 -0.058922175 -0.029461088 0.35353306 0.058922175 -0.14730544 0.14730544
0.20622762 0.20622762 -0.14730544 -0.14730544 0.058922175 0.14730544 -0.029461088 -0.058922175
0.058922175 -0.17676653 -0.2356887 0.7070661 -0.14730544 0.0 -0.029461088 0.088383265
0.0 -0.11784435 0.41245523 -0.058922175 -0.029461088 0.17676653 -0.2356887 0.5892218
0.4713774 0.5597607 0.88383263 0.17676653 0.0 0.0 0.058922175 0.0
00000000: 04fc 00fd feff 0050 4140 40fb 01f3 ebf3
00000010: 11ff ff18 200e 3603 ff0d 0f00 fe00 0776
00000020: 566c 5e07 09fd 0c04 f801 ff79 787f 6407
00000030: 040a 0123 ff04 062c 2227 2605 fd22 091f
00000040: 2300 ff09 0903 06fd 0023 373d 2b08 fe09
00000050: 07f6 faf9 fc2a ff1f 19fd ff1b 1812 1d06
00000060: 0224 1c1a 0cfa 017f 6e6c 6602 05ee 0ee8
00000070: 04fc 093c 2331 1902 fd09 01ff ef00 040d
00000080: 06fc 0709 f968 6766 6004 0072 7a48 6a00
00000090: 06fe f900 0bfe fa04 0ef8 0b02 0306 00fa
000000a0: 08fa 0934 0120 3106 feec f3f4 07f8 0204
000000b0: 0f07 f6f9 ff0d 05f9 0006 fff5 fbe3 e409
000000c0: 0010 022e 1b01 ff05 fefb da08 fb1c 0d01
000000d0: f808 fdfb 00fd 0607 fffd feff 0c02 fb05
000000e0: 0707 fbfb 0205 fffe 02fa f818 fb00 ff03
000000f0: 00fc 0efe ff06 f814 1013 1e06 0000 0200

recog/cnn/GSE_B_2/GSE_B_2_fully_connected1/GSE_B_2_fully_connected1/Tensordot/MatMul i1 [9, 156] scale=0.010537672 zero_point=0
0.05268836 0.042150687 0.021075344 0.05268836 -0.11591439 0.010537672 -0.021075344 -0.13698973
-0.20021577 -0.10537672 -0.10537672 -0.010537672 -0.14752741 -0.20021577 -0.11591439 -0.11591439
-0.10537672 -0.031613015 0.14752741 -0.11591439 0.16860275 0.11591439 0.14752741 -0.021075344
-0.10537672 -0.010537672 0.14752741 -0.084301375 -0.11591439 0.042150687 -0.14752741 0.11591439
-0.06322603 -0.16860275 -0.073763706 -0.094839044 0.073763706 0.042150687 0.073763706 -0.11591439
-0.18967809 0.084301375 0.031613015 0.0 -0.073763706 -0.18967809 -0.11591439 0.17914042
0.13698973 -0.16860275 -0.11591439 -0.18967809 0.13698973 -0.11591439 -0.010537672 0.010537672
0.06322603 -0.10537672 0.10537672 0.05268836 0.010537672 -0.17914042 0.010537672 -0.21075344
-0.11591439 -0.10537672 -0.06322603 0.0 -0.031613015 0.13698973 -0.094839044 -0.14752741
0.031613015 -0.12645206 -0.031613015 -0.16860275 0.031613015 0.16860275 -0.12645206 0.05268836
-0.14752741 0.031613015 0.084301375 0.073763706 -0.20021577 -0.18967809 -0.13698973 -0.094839044
-0.05268836 0.17914042 0.010537672 -0.17914042 -0.06322603 -0.18967809 -0.18967809 0.16860275
0.13698973 0.06322603 -0.20021577 -0.084301375 -0.010537672 -0.031613015 0.0 0.10537672
-0.031613015 0.010537672 -0.13698973 0.094839044 -0.05268836 -0.031613015 -0.073763706 -0.042150687
0.073763706 -0.06322603 -0.042150687 -0.13698973 -0.06322603 0.031613015 0.010537672 -0.17914042
-0.20021577 -0.073763706 -0.20021577 0.12645206 -0.11591439 0.12645206 -0.17914042 0.0
-0.084301375 -0.073763706 -0.13698973 0.084301375 0.094839044 -0.05268836 0.12645206 0.13698973
0.15806508 0.13698973 -0.010537672 0.10537672 0.021075344 -0.13698973 -0.21075344 0.0
0.16860275 0.12645206 0.15806508 -0.14752741 -0.21075344 -0.010537672 -0.094839044 0.010537672
-0.10537672 0.06322603 0.10537672 0.06322603 0.0 -0.37935618 0.031613015 -0.14752741
-0.27397946 -0.11591439 -0.3372055 0.28451714 -0.25290412 0.10537672 -0.05268836 0.30559248
-0.021075344 0.47419524 0.8008631 0.12645206 0.27397946 -0.16860275 0.084301375 0.44258222
0.084301375 -0.35828084 -0.6322603 0.06322603 0.0 0.16860275 -0.084301375 0.2634418
0.11591439 -0.094839044 0.31613016 0.042150687 0.15806508 -0.05268836 -0.57957196 0.073763706
0.021075344 -0.30559248 0.010537672 -0.6849487 -0.27397946 0.084301375 0.16860275 -0.34774318
0.29505482 -0.073763706 -0.13698973 0.30559248 0.43204454 0.40043154 -0.14752741 0.5268836
-0.69548637 0.21075344 -0.4847329 -0.021075344 0.20021577 0.14752741 -0.9800035 -0.47419524
-0.031613015 -0.5163459 -0.20021577 -0.084301375 -0.25290412 0.50580823 0.10537672 0.042150687
-0.17914042 0.17914042 -0.14752741 -0.87462676 -0.042150687 -0.021075344 0.38989386 0.06322603
-0.11591439 0.010537672 0.24236645 0.40043154 -0.042150687 0.2634418 -0.46365756 0.14752741
-0.4109692 0.5374213 -0.073763706 -0.27397946 0.3372055 0.12645206 0.24236645 0.2634418
0.06322603 -0.24236645 0.031613015 -0.7481747 0.13698973 0.16860275 0.20021577 -0.21075344
00000000: 0504 0205 f501 fef3 edf6 f6ff f2ed f5f5
00000010: f6fd 0ef5 100b 0efe f6ff 0ef8 f504 f20b
00000020: faf0 f9f7 0704 07f5 ee08 0300 f9ee f511
00000030: 0df0 f5ee 0df5 ff01 06f6 0a05 01ef 01ec
00000040: f5f6 fa00 fd0d f7f2 03f4 fdf0 0310 f405
00000050: f203 0807 edee f3f7 fb11 01ef faee ee10
00000060: 0d06 edf8 fffd 000a fd01 f309 fbfd f9fc
00000070: 07fa fcf3 fa03 01ef edf9 ed0c f50c ef00
00000080: f8f9 f308 09fb 0c0d 0f0d ff0a 02f3 ec00
00000090: 100c 0ff2 ecff f701 f606 0a06 00dc 03f2
000000a0: e6f5 e01b e80a fb1d fe2d 4c0c 1af0 082a
000000b0: 08de c406 0010 f819 0bf7 1e04 0ffb c907
000000c0: 02e3 01bf e608 10df 1cf9 f31d 2926 f232
000000d0: be14 d2fe 130e a3d3 fdcf edf8 e830 0a04
000000e0: ef11 f2ad fcfe 2506 f501 1726 fc19 d40e
000000f0: d933 f9e6 200c 1719 06e9 03b9 0d10 13ec

recog/cnn/GSE_B_2/GSE_B_2_fully_connected2/GSE_B_2_fully_connected2/Tensordot/MatMul i1 [156, 9] scale=0.010634117 zero_point=0
0.021268234 0.72312 0.23395057 -0.35092586 0.4359988 -0.085072935 0.0 0.77629054
0.09570705 -0.1276094 0.37219408 0.021268234 -0.0638047 0.14887764 0.085072935 0.085072935
0.26585293 0.021268234 0.0638047 -0.18078 -0.042536467 -0.71248585 0.54234 -0.042536467
0.042536467 0.085072935 -0.085072935 -0.1276094 -0.09570705 -0.010634117 0.042536467 0.48916936
0.0 0.010634117 -0.085072935 -0.1276094 -0.21268234 0.52107173 0.15951174 0.72312
-0.116975285 0.0 -0.15951174 -0.13824353 -0.021268234 -0.085072935 0.48916936 0.28712115
-0.37219408 -0.22331646 0.49980348 0.17014587 0.39346233 0.09570705 -0.1276094 0.021268234
-0.07443882 0.26585293 0.5848764 0.010634117 0.010634117 0.21268234 0.07443882 0.09570705
0.45726702 -0.021268234 0.0 0.021268234 0.021268234 0.116975285 0.03190235 -0.010634117
0.085072935 0.36156 0.07443882 -0.18078 0.085072935 0.0 -0.07443882 -0.09570705
0.14887764 -0.07443882 0.45726702 0.29775527 -0.3083894 0.03190235 0.22331646 0.053170584
0.1914141 -0.18078 0.1914141 0.34029174 -0.2552188 -0.28712115 0.07443882 -0.053170584
0.0638047 0.053170584 0.03190235 0.09570705 0.24458468 0.07443882 0.26585293 0.17014587
0.14887764 -0.18078 -0.20204821 0.042536467 0.0 0.36156 0.39346233 -0.116975285
-0.116975285 0.28712115 -0.116975285 0.010634117 0.13824353 0.116975285 0.34029174 -1.3505329
0.09570705 0.17014587 -0.40409642 -0.042536467 -0.46790114 0.1276094 0.18078 0.053170584
-0.28712115 -0.10634117 -0.116975285 -0.09570705 0.010634117 -0.7975588 0.0638047 0.053170584
1.1697528 0.7656564 0.47853526 0.5529741 0.8400952 -0.053170584 0.6805835 0.0
0.07443882 -0.3828282 -0.29775527 0.07443882 0.23395057 -0.17014587 -0.021268234 -0.021268234
-0.21268234 -0.1914141 0.3296576 -0.3083894 0.60614467 -0.3296576 -0.085072935 0.021268234
0.34029174 0.1276094 -0.10634117 -0.085072935 0.042536467 0.14887764 -0.22331646 -0.35092586
0.053170584 0.5848764 -0.042536467 0.13824353 -0.021268234 -0.03190235 -0.46790114 0.54234
-0.22331646 -0.03190235 -0.3828282 -0.10634117 -0.09570705 0.0 0.07443882 -0.29775527
-0.010634117 -0.042536467 0.053170584 0.23395057 0.116975285 -0.15951174 0.4359988 0.021268234
0.085072935 -0.17014587 0.010634117 0.053170584 0.14887764 0.053170584 -0.085072935 0.3083894
0.15951174 0.0638047 0.042536467 0.09570705 0.13824353 -0.23395057 0.15951174 -0.07443882
0.3828282 0.39346233 0.042536467 0.0 -0.17014587 -0.085072935 0.10634117 -0.03190235
0.17014587 0.3828282 -0.20204821 -0.10634117 0.23395057 0.03190235 0.053170584 0.0
-0.18078 -0.085072935 0.24458468 0.3083894 -0.042536467 -0.34029174 0.13824353 -0.03190235
0.21268234 0.021268234 0.116975285 0.56360817 0.0 -0.053170584 -0.18078 0.3083894
0.18078 -0.03190235 0.09570705 0.085072935 0.1914141 -0.1276094 0.13824353 -0.3296576
-0.021268234 0.18078 -0.77629054 0.13824353 0.1276094 0.47853526 0.45726702 -0.34029174
00000000: 0244 16df 29f8 0049 09f4 2302 fa0e 0808
00000010: 1902 06ef fcbd 33fc 0408 f8f4 f7ff 042e
00000020: 0001 f8f4 ec31 0f44 f500 f1f3 fef8 2e1b
00000030: ddeb 2f10 2509 f402 f919 3701 0114 0709
00000040: 2bfe 0002 020b 03ff 0822 07ef 0800 f9f7
00000050: 0ef9 2b1c e303 1505 12ef 1220 e8e5 07fb
00000060: 0605 0309 1707 1910 0eef ed04 0022 25f5
00000070: f51b f501 0d0b 2081 0910 dafc d40c 1105
00000080: e5f6 f5f7 01b5 0605 6e48 2d34 4ffb 4000
00000090: 07dc e407 16f0 fefe ecee 1fe3 39e1 f802
000000a0: 200c f6f8 040e ebdf 0537 fc0d fefd d433
000000b0: ebfd dcf6 f700 07e4 fffc 0516 0bf1 2902
000000c0: 08f0 0105 0e05 f81d 0f06 0409 0dea 0ff9
000000d0: 2425 0400 f0f8 0afd 1024 edf6 1603 0500
000000e0: eff8 171d fce0 0dfd 1402 0b35 00fb ef1d
000000f0: 11fd 0908 12f4 0de1 fe11 b70d 0c2d 2be0

recog/cnn/conv2d/Conv2D i1 [32, 3, 3, 3]
104 -59 -76 92 -28 -32 -67 14
48 108 -58 -82 11 30 31 -127
53 59 53 -37 -53 -91 51 78
-81 31 29 67 117 -30 -35 -53
-7 -44 -82 51 97 127 -18 -25
-24 -19 -82 -104 30 61 57 -19
34 14 -8 -70 -51 17 46 127
20 84 115 24 -31 -34 -29 64
101 11 1 -58 -31 -54 -93 -8
-15 -20 -7 -82 -103 -8 -16 -37
26 -2 -7 -13 -14 -15 14 16
26 -4 -4 -49 3 -55 -100 -40
-69 -99 0 -2 60 16 88 127
35 42 58 -8 -86 18 61 -97
-28 127 37 -18 -21 -97 5 93
54 -71 21 76 45 -116 -25 -5
24 111 4 -114 25 48 -73 60
102 41 71 127 50 10 40 -1
-55 -93 -35 -70 -117 -42 -20 -56
-11 -7 -10 -6 4 -9 -3 9
16 8 12 -17 -19 -87 -19 -1
87 89 64 42 -17 -21 -116 -127
-77 23 123 80 72 30 5 -34
-108 -76 1 49 48 -15 -71 -22
78 75 27 61 127 53 -4 50
14 -76 80 42 -96 -34 -34 19
27 18 23 -123 -45 28 -109 -29
-56 -17 78 -98 -32 126 -57 -41
98 23 0 -27 8 -1 -9 -7
-8 15 76 17 -92 86 41 -127
24 38 -60 17 -24 69 -72 -125
-28 -3 12 9 -51 -109 -76 -4
00000000: 68c5 b45c e4e0 bd0e 306c c6ae 0b1e 1f81
00000010: 353b 35db cba5 334e af1f 1d43 75e2 ddcb
00000020: f9d4 ae33 617f eee7 e8ed ae98 1e3d 39ed
00000030: 220e f8ba cd11 2e7f 1454 7318 e1de e340
00000040: 650b 01c6 e1ca a3f8 f1ec f9ae 99f8 f0db
00000050: 1afe f9f3 f2f1 0e10 1afc fccf 03c9 9cd8
00000060: bb9d 00fe 3c10 587f 232a 3af8 aa12 3d9f
00000070: e47f 25ee eb9f 055d 36b9 154c 2d8c e7fb
00000080: 186f 048e 1930 b73c 6629 477f 320a 28ff
00000090: c9a3 ddba 8bd6 ecc8 f5f9 f6fa 04f7 fd09
000000a0: 1008 0cef eda9 edff 5759 402a efeb 8c81
000000b0: b317 7b50 481e 05de 94b4 0131 30f1 b9ea
000000c0: 4e4b 1b3d 7f35 fc32 0eb4 502a a0de de13
000000d0: 1b12 1785 d31c 93e3 c8ef 4e9e e07e c7d7
000000e0: 6217 00e5 08ff f7f9 f80f 4c11 a456 2981
000000f0: 1826 c411 e845 b883 e4fd 0c09 cd93 b4fc

recog/cnn/extra/Conv2D i1 [64, 3, 3, 32]
-1 7 -16 12 7 9 -21 -9
-16 -19 -11 8 -17 17 1 21
1 -10 -12 15 -38 -5 -12 11
-12 31 -11 0 27 1 -18 7
69 -29 71 -54 103 10 -96 39
-15 81 -87 -48 87 -99 39 79
14 66 -16 -127 33 69 -58 -20
-2 -43 -11 -95 -106 64 72 2
55 -2 67 -22 107 3 -46 21
-41 56 -7 -50 71 -59 -7 47
18 69 -9 -71 15 41 -50 -24
-12 -35 -18 -48 -66 -3 77 25
6 -6 -13 -14 -12 1 -1 -15
3 -7 9 11 -28 12 -11 21
10 6 -17 -9 -19 6 1 14
-16 1 -10 -2 -10 -14 9 3
25 12 24 1 4 1 -26 39
0 57 -12 -8 31 11 23 -15
-2 24 -29 -6 61 -25 -4 18
31 -14 -1 26 -20 -18 30 11
-45 -6 -55 46 -64 -15 24 -10
24 -24 27 -17 -40 36 -6 -60
-27 -43 -24 79 68 -55 23 12
-5 4 13 39 63 -48 -2 -49
-16 -4 2 1 -10 -11 13 18
15 -8 7 15 6 7 6 -6
-9 6 8 8 -17 -9 7 -7
19 -9 7 6 -9 5 -5 9
-66 -6 -64 39 -94 -20 58 -16
35 -41 30 30 -49 40 14 -88
-15 -95 -30 66 42 -26 34 16
-13 12 1 67 43 -55 -40 -31
00000000: ff07 f00c 0709 ebf7 f0ed f508 ef11 0115
00000010: 01f6 f40f dafb f40b f41f f500 1b01 ee07
00000020: 45e3 47ca 670a a027 f151 a9d0 579d 274f
00000030: 0e42 f081 2145 c6ec fed5 f5a1 9640 4802
00000040: 37fe 43ea 6b03 d215 d738 f9ce 47c5 f92f
00000050: 1245 f7b9 0f29 cee8 f4dd eed0 befd 4d19
00000060: 06fa f3f2 f401 fff1 03f9 090b e40c f515
00000070: 0a06 eff7 ed06 010e f001 f6fe f6f2 0903
00000080: 190c 1801 0401 e627 0039 f4f8 1f0b 17f1
00000090: fe18 e3fa 3de7 fc12 1ff2 ff1a ecee 1e0b
000000a0: d3fa c92e c0f1 18f6 18e8 1bef d824 fac4
000000b0: e5d5 e84f 44c9 170c fb04 0d27 3fd0 fecf
000000c0: f0fc 0201 f6f5 0d12 0ff8 070f 0607 06fa
000000d0: f706 0808 eff7 07f9 13f7 0706 f705 fb09
000000e0: befa c027 a2ec 3af0 23d7 1e1e cf28 0ea8
000000f0: f1a1 e242 2ae6 2210 f30c 0143 2bc9 d8e1

recog/cnn/sepconv3/separable_conv2d/depthwise1 i1 [1, 3, 3, 64]
3 28 -34 -12 -19 17 75 0
39 -21 13 -2 -9 15 -78 -4
-44 -26 -44 58 36 12 3 24
3 -15 -9 -36 14 7 86 -27
32 -5 11 44 -2 3 1 -17
-80 -39 69 -19 21 26 -28 26
-58 -4 25 18 50 -35 -27 57
-1 13 2 -16 -1 -26 20 48
-56 -28 -127 -83 10 -122 118 -46
28 13 -49 27 -14 -43 -66 59
68 46 -57 -14 -81 12 47 -14
-32 11 -5 -38 27 -62 -127 -59
-85 -42 -72 -68 62 -66 -54 -39
-40 -29 -105 57 -72 -73 -17 -46
122 24 127 -92 -99 12 -4 49
-47 71 -8 67 36 72 31 22
-5 2 2 -127 -43 -76 -13 -127
-20 -99 -16 108 -10 -21 70 -98
-22 -9 -31 -34 -61 28 44 -10
-31 9 -59 -60 -14 -127 -28 14
-87 -26 -24 -127 -77 8 -44 -33
-38 61 -127 -12 -47 -127 -44 -63
3 -127 -24 -62 -115 64 -127 39
-127 -42 63 -67 4 14 7 -127
-9 -89 1 -15 -16 22 42 69
-8 -57 19 -17 -29 46 -48 76
-18 -5 92 -15 25 -13 22 5
62 6 24 -127 -10 -7 19 -50
-42 -49 1 37 -47 24 -21 -13
18 1 8 6 30 15 -43 8
-21 -27 42 0 65 89 -34 -50
-98 -51 -106 -31 -55 -75 1 55
00000000: 031c def4 ed11 4b00 27eb 0dfe f70f b2fc
00000010: d4e6 d43a 240c 0318 03f1 f7dc 0e07 56e5
00000020: 20fb 0b2c fe03 01ef b0d9 45ed 151a e41a
00000030: c6fc 1912 32dd e539 ff0d 02f0 ffe6 1430
00000040: c8e4 81ad 0a86 76d2 1c0d cf1b f2d5 be3b
00000050: 442e c7f2 af0c 2ff2 e00b fbda 1bc2 81c5
00000060: abd6 b8bc 3ebe cad9 d8e3 9739 b8b7 efd2
00000070: 7a18 7fa4 9d0c fc31 d147 f843 2448 1f16
00000080: fb02 0281 d5b4 f381 ec9d f06c f6eb 469e
00000090: eaf7 e1de c31c 2cf6 e109 c5c4 f281 e40e
000000a0: a9e6 e881 b308 d4df da3d 81f4 d181 d4c1
000000b0: 0381 e8c2 8d40 8127 81d6 3fbd 040e 0781
000000c0: f7a7 01f1 f016 2a45 f8c7 13ef e32e d04c
000000d0: eefb 5cf1 19f3 1605 3e06 1881 f6f9 13ce
000000e0: d6cf 0125 d118 ebf3 1201 0806 1e0f d508
000000f0: ebe5 2a00 4159 dece 9ecd 96e1 c9b5 0137

recog/cnn/sepconv3/separable_conv2d i1 [96, 1, 1, 64]
-4 71 -22 42 -7 -36 118 23
-38 -40 -26 57 -53 68 5 -29
102 96 -11 -34 47 -9 17 53
42 -34 55 38 6 -77 -48 89
127 -6 4 58 59 60 -37 -52
-26 -36 -4 36 49 5 -111 26
-63 24 -38 -83 46 32 -39 19
-64 -30 -46 35 -45 40 65 13
-4 23 34 -7 -11 -75 72 -66
-38 -13 -31 3 -83 11 32 -85
-1 18 -63 -80 -75 -25 -34 -35
22 -104 -10 79 -27 104 4 -17
-29 11 -36 5 36 127 -101 -27
-26 34 -7 -48 95 98 -51 0
40 53 10 -60 -7 -59 -29 114
-17 -88 -7 -69 -20 -12 -6 28
29 63 11 59 -10 -22 51 -4
76 74 -79 32 49 -30 -89 -6
14 26 -27 -61 3 71 32 57
-65 8 16 -36 -48 23 2 -7
127 28 -51 76 -33 -70 27 -102
-48 -65 38 29 22 -26 3 -4
-7 12 50 -56 8 -26 46 35
34 53 -33 8 -27 -25 26 48
7 2 16 -34 -5 11 36 18
-5 16 29 -5 8 -40 127 33
-19 -13 45 63 0 -17 52 12
44 29 12 119 79 83 15 -9
-2 54 21 -11 13 -53 20 30
-17 44 -2 52 28 -24 -46 46
6 -7 0 -14 20 88 35 118
-66 -2 13 24 -51 6 36 -58
00000000: fc47 ea2a f9dc 7617 dad8 e639 cb44 05e3
00000010: 6660 f5de 2ff7 1135 2ade 3726 06b3 d059
00000020: 7ffa 043a 3b3c dbcc e6dc fc24 3105 911a
00000030: c118 daad 2e20 d913 c0e2 d223 d328 410d
00000040: fc17 22f9 f5b5 48be daf3 e103 ad0b 20ab
00000050: ff12 c1b0 b5e7 dedd 1698 f64f e568 04ef
00000060: e30b dc05 247f 9be5 e622 f9d0 5f62 cd00
00000070: 2835 0ac4 f9c5 e372 efa8 f9bb ecf4 fa1c
00000080: 1d3f 0b3b f6ea 33fc 4c4a b120 31e2 a7fa
00000090: 0e1a e5c3 0347 2039 bf08 10dc d017 02f9
000000a0: 7f1c cd4c dfba 1b9a d0bf 261d 16e6 03fc
000000b0: f90c 32c8 08e6 2e23 2235 df08 e5e7 1a30
000000c0: 0702 10de fb0b 2412 fb10 1dfb 08d8 7f21
000000d0: edf3 2d3f 00ef 340c 2c1d 0c77 4f53 0ff7
000000e0: fe36 15f5 0dcb 141e ef2c fe34 1ce8 d22e
000000f0: 06f9 00f2 1458 2376 befe 0d18 cd06 24c6

recog/cnn/sepconv4/separable_conv2d/depthwise1 i1 [1, 3, 3, 96]
-21 -27 -57 -75 -48 -42 -69 -60
-22 -66 -40 -19 -19 43 -95 -20
-12 -70 50 -71 -16 -2 -58 119
-30 -7 -127 -18 58 105 11 120
7 14 -93 88 -47 -82 -49 -89
4 2 55 7 21 -55 -108 5
-50 -35 -23 14 -34 -57 12 17
-127 -95 -24 -108 -33 -96 32 115
1 -26 75 74 -43 -3 -86 -23
-87 -72 56 -17 61 10 -51 37
13 -48 127 33 -114 -32 -82 7
38 104 25 -59 -56 -14 20 -40
110 99 -4 -127 -11 -118 -94 64
40 11 -49 22 59 51 -77 -25
-3 -17 127 -56 -51 -31 -19 108
35 55 -12 -108 105 -9 1 96
7 -2 -7 -72 -57 9 6 -68
17 -98 54 81 18 60 -113 56
-72 -32 12 -13 -55 -61 35 -55
109 -53 53 -54 -67 -101 9 127
-127 -48 127 34 -100 -19 31 24
41 -48 7 -112 -32 -63 18 -20
27 -4 -39 -3 -54 59 -62 -81
10 127 -46 25 -11 59 11 -38
127 72 45 -99 36 127 -56 25
27 6 44 60 15 83 -24 40
17 50 46 10 -23 -1 53 71
-38 25 -48 -16 127 -37 27 87
98 23 -20 19 47 71 30 18
23 -66 81 31 -35 18 -36 -40
15 -30 26 -18 -11 10 41 5
14 -37 105 -2 23 -15 -47 67
00000000: ebe5 c7b5 d0d6 bbc4 eabe d8ed ed2b a1ec
00000010: f4ba 32b9 f0fe c677 e2f9 81ee 3a69 0b78
00000020: 070e a358 d1ae cfa7 0402 3707 15c9 9405
00000030: cedd e90e dec7 0c11 81a1 e894 dfa0 2073
00000040: 01e6 4b4a d5fd aae9 a9b8 38ef 3d0a cd25
00000050: 0dd0 7f21 8ee0 ae07 2668 19c5 c8f2 14d8
00000060: 6e63 fc81 f58a a240 280b cf16 3b33 b3e7
00000070: fdef 7fc8 cde1 ed6c 2337 f494 69f7 0160
00000080: 07fe f9b8 c709 06bc 119e 3651 123c 8f38
00000090: b8e0 0cf3 c9c3 23c9 6dcb 35ca bd9b 097f
000000a0: 81d0 7f22 9ced 1f18 29d0 0790 e0c1 12ec
000000b0: 1bfc d9fd ca3b c2af 0a7f d219 f53b 0bda
000000c0: 7f48 2d9d 247f c819 1b06 2c3c 0f53 e828
000000d0: 1132 2e0a e9ff 3547 da19 d0f0 7fdb 1b57
000000e0: 6217 ec13 2f47 1e12 17be 511f dd12 dcd8
000000f0: 0fe2 1aee f50a 2905 0edb 69fe 17f1 d143

recog/cnn/sepconv4/separable_conv2d i1 [156, 1, 1, 96]
19 48 47 10 -3 3 -42 64
-42 8 48 -14 2 -60 -25 -19
-9 38 64 75 -1 -9 35 -32
-41 -38 -5 46 -70 87 -31 46
8 -17 -30 112 49 -17 -43 -22
-6 -3 14 -49 14 -64 -25 -56
-17 -72 34 -6 -5 -105 -9 -6
11 26 -4 -22 18 -70 -38 30
36 -16 30 -57 -41 -99 -17 8
-27 52 -2 -37 23 -35 -43 -63
-5 -29 50 -11 17 127 49 5
-54 -83 7 62 -22 39 -38 50
24 -25 30 14 86 -21 84 -83
-3 -8 -21 34 -6 -52 -2 -38
2 -61 4 -23 -127 -35 33 27
-52 48 52 49 7 -21 0 23
-4 -20 15 7 -59 -18 -29 -4
-19 57 24 57 -1 -53 59 -39
-52 -101 -5 -9 -31 -15 -24 23
96 76 -36 13 64 -54 -10 -70
-12 49 -80 -127 -109 60 -49 -15
29 76 52 -41 -62 47 -74 6
-64 26 71 1 -57 69 113 56
-25 -17 72 -15 24 -39 30 3
29 -37 32 -6 16 8 -14 62
37 26 -81 -24 -29 23 -5 -13
-34 -36 -24 -30 1 54 41 -4
50 10 -28 -5 73 19 -14 46
-11 -12 73 6 11 12 -43 -11
62 -84 56 49 2 6 -69 -30
-45 -39 12 -44 14 -30 13 -69
15 -3 -34 -33 -35 -22 28 -8
00000000: 1330 2f0a fd03 d640 d608 30f2 02c4 e7ed
00000010: f726 404b fff7 23e0 d7da fb2e ba57 e12e
00000020: 08ef e270 31ef d5ea fafd 0ecf 0ec0 e7c8
00000030: efb8 22fa fb97 f7fa 0b1a fcea 12ba da1e
00000040: 24f0 1ec7 d79d ef08 e534 fedb 17dd d5c1
00000050: fbe3 32f5 117f 3105 caad 073e ea27 da32
00000060: 18e7 1e0e 56eb 54ad fdf8 eb22 facc feda
00000070: 02c3 04e9 81dd 211b cc30 3431 07eb 0017
00000080: fcec 0f07 c5ee e3fc ed39 1839 ffcb 3bd9
00000090: cc9b fbf7 e1f1 e817 604c dc0d 40ca f6ba
000000a0: f431 b081 933c cff1 1d4c 34d7 c22f b606
000000b0: c01a 4701 c745 7138 e7ef 48f1 18d9 1e03
000000c0: 1ddb 20fa 1008 f23e 251a afe8 e317 fbf3
000000d0: dedc e8e2 0136 29fc 320a e4fb 4913 f22e
000000e0: f5f4 4906 0b0c d5f5 3eac 3831 0206 bbe2
000000f0: d3d9 0cd4 0ee2 0dbb 0ffd dedf ddea 1cf8

recog/cnn/sepconv5/separable_conv2d/depthwise1 i1 [1, 3, 3, 156]
3 -45 43 -59 -52 -36 58 56
17 24 -10 125 -19 -3 68 8
-8 -19 12 -36 0 54 86 -42
-71 117 26 -127 -70 -127 -23 26
-55 2 61 12 41 24 -39 17
-12 60 62 56 -39 1 -44 -6
-39 -29 -67 -91 -70 -49 15 -25
16 -31 31 23 -57 -19 16 91
34 -17 -116 -6 127 93 -29 38
55 -84 32 36 42 -100 -127 31
11 -34 11 -88 -63 20 -97 10
67 -25 -17 -1 75 -14 -6 12
2 15 -26 14 5 -6 -16 84
-52 53 21 -70 -76 41 127 39
56 8 -122 -52 8 -25 18 -21
2 3 35 103 -44 43 19 -22
19 -3 -8 -6 -5 15 1 -62
17 8 24 27 -101 -118 36 -28
-16 -8 25 -79 18 -16 -44 19
99 -9 8 -127 -127 -127 69 18
-82 127 -39 -77 -127 8 -51 127
127 -127 -16 -127 -127 127 -127 103
127 -91 93 84 29 90 -58 -22
-127 -69 -127 99 -126 -127 -17 -93
127 127 -127 61 -107 -65 69 -90
-4 -107 83 -47 -127 -69 8 -99
-95 -84 -91 -127 -127 -12 -53 126
102 -29 61 84 40 -27 106 -127
60 83 -102 68 102 -120 -127 99
-61 -90 30 112 -31 -127 -42 -127
18 127 16 -127 127 40 -67 -17
-108 -127 -127 -88 127 127 -127 127
00000000: 03d3 2bc5 ccdc 3a38 1118 f67d edfd 4408
00000010: f8ed 0cdc 0036 56d6 b975 1a81 ba81 e91a
00000020: c902 3d0c 2918 d911 f43c 3e38 d901 d4fa
00000030: d9e3 bda5 bacf 0fe7 10e1 1f17 c7ed 105b
00000040: 22ef 8cfa 7f5d e326 37ac 2024 2a9c 811f
00000050: 0bde 0ba8 c114 9f0a 43e7 efff 4bf2 fa0c
00000060: 020f e60e 05fa f054 cc35 15ba b429 7f27
00000070: 3808 86cc 08e7 12eb 0203 2367 d42b 13ea
00000080: 13fd f8fa fb0f 01c2 1108 181b 9b8a 24e4
00000090: f0f8 19b1 12f0 d413 63f7 0881 8181 4512
000000a0: ae7f d9b3 8108 cd7f 7f81 f081 817f 8167
000000b0: 7fa5 5d54 1d5a c6ea 81bb 8163 8281 efa3
000000c0: 7f7f 813d 95bf 45a6 fc95 53d1 81bb 089d
000000d0: a1ac a581 81f4 cb7e 66e3 3d54 28e5 6a81
000000e0: 3c53 9a44 6688 8163 c3a6 1e70 e181 d681
000000f0: 127f 1081 7f28 bdef 9481 81a8 7f7f 817f

recog/cnn/sepconv5/separable_conv2d i1 [224, 1, 1, 156]
8 -29 23 -79 7 -27 35 -31
18 -16 53 5 -25 57 -57 -6
-30 18 -31 -28 29 -27 41 -35
-46 36 46 41 -17 -39 34 -89
79 18 42 127 -67 21 -25 26
28 31 -30 -11 36 -38 55 -6
-80 56 17 49 -4 -43 55 17
-3 38 61 44 -99 -32 -27 20
43 -34 101 8 38 93 -8 38
41 12 -99 -9 -67 -12 -1 -99
-60 26 -82 19 -4 -18 -14 -19
-10 19 -50 5 2 -19 -67 -13
-15 34 -76 38 -12 -50 -33 -15
69 -96 22 91 32 -17 47 -82
14 -11 32 15 -32 -39 -36 5
-5 25 -48 -22 20 31 -1 -27
-12 64 52 30 -122 54 -22 -22
-64 -30 6 59 5 23 25 51
4 -84 33 -62 -18 -40 55 -25
-30 -55 15 17 -26 22 35 4
3 52 35 -21 -18 78 46 -67
28 -5 -6 81 31 -26 -38 -11
-42 -14 2 2 -7 -38 -26 -66
-12 -37 36 -52 58 -57 10 64
-15 -18 -6 -19 15 80 -20 -18
-51 -36 0 -65 55 -49 -18 80
41 -6 19 -25 -55 -14 -64 -29
8 38 -30 -47 -1 -30 25 -51
64 41 -3 -19 -65 11 -52 34
-8 102 30 -38 127 97 5 -31
34 -5 -10 50 -11 -13 -34 39
-61 26 45 -3 8 -17 -17 -70
00000000: 08e3 17b1 07e5 23e1 12f0 3505 e739 c7fa
00000010: e212 e1e4 1de5 29dd d224 2e29 efd9 22a7
00000020: 4f12 2a7f bd15 e71a 1c1f e2f5 24da 37fa
00000030: b038 1131 fcd5 3711 fd26 3d2c 9de0 e514
00000040: 2bde 6508 265d f826 290c 9df7 bdf4 ff9d
00000050: c41a ae13 fcee f2ed f613 ce05 02ed bdf3
00000060: f122 b426 f4ce dff1 45a0 165b 20ef 2fae
00000070: 0ef5 200f e0d9 dc05 fb19 d0ea 141f ffe5
00000080: f440 341e 8636 eaea c0e2 063b 0517 1933
00000090: 04ac 21c2 eed8 37e7 e2c9 0f11 e616 2304
000000a0: 0334 23eb ee4e 2ebd 1cfb fa51 1fe6 daf5
000000b0: d6f2 0202 f9da e6be f4db 24cc 3ac7 0a40
000000c0: f1ee faed 0f50 ecee cddc 00bf 37cf ee50
000000d0: 29fa 13e7 c9f2 c0e3 0826 e2d1 ffe2 19cd
000000e0: 4029 fded bf0b cc22 f866 1eda 7f61 05e1
000000f0: 22fb f632 f5f3 de27 c31a 2dfd 08ef efba

recog/cnn/sepconv6/separable_conv2d/depthwise1 i1 [1, 1, 1, 320]
127 127 127 127 127 127 127 -127
127 -127 -127 -127 -127 127 127 127
127 127 127 127 -127 127 -127 127
127 127 127 -127 127 127 127 127
127 127 127 127 127 127 127 127
127 -127 127 127 127 -127 127 -127
-127 -127 -127 127 127 -127 127 127
127 -127 -127 -127 127 -127 127 127
-127 127 -127 127 -127 -127 -127 -127
127 -127 127 127 -127 127 -127 127
127 127 127 127 -127 127 127 127
127 -127 127 127 127 -127 -127 127
127 127 127 127 127 -127 127 -127
-127 127 127 127 -127 127 127 127
-127 127 -127 -127 127 127 127 127
127 -127 127 127 127 -127 127 127
127 127 -127 127 127 127 127 127
127 127 127 -127 127 127 127 127
127 127 127 127 127 127 127 127
-127 127 127 127 127 127 127 -127
127 -127 -127 127 -127 127 127 -127
127 127 -127 127 -127 127 127 127
127 127 127 127 -127 -127 -127 -127
-127 -127 127 127 127 127 -127 127
127 -127 127 127 -127 127 127 -127
-127 127 -127 127 127 -127 127 127
127 127 127 127 -127 127 127 -127
127 127 127 -127 127 127 127 -127
127 127 127 127 127 127 127 127
127 127 127 127 127 127 127 127
127 127 127 127 127 127 127 127
127 127 127 127 127 127 127 127
00000000: 7f7f 7f7f 7f7f 7f81 7f81 8181 817f 7f7f
00000010: 7f7f 7f7f 817f 817f 7f7f 7f81 7f7f 7f7f
00000020: 7f7f 7f7f 7f7f 7f7f 7f81 7f7f 7f81 7f81
00000030: 8181 817f 7f81 7f7f 7f81 8181 7f81 7f7f
00000040: 817f 817f 8181 8181 7f81 7f7f 817f 817f
00000050: 7f7f 7f7f 817f 7f7f 7f81 7f7f 7f81 817f
00000060: 7f7f 7f7f 7f81 7f81 817f 7f7f 817f 7f7f
00000070: 817f 8181 7f7f 7f7f 7f81 7f7f 7f81 7f7f
00000080: 7f7f 817f 7f7f 7f7f 7f7f 7f81 7f7f 7f7f
00000090: 7f7f 7f7f 7f7f 7f7f 817f 7f7f 7f7f 7f81
000000a0: 7f81 817f 817f 7f81 7f7f 817f 817f 7f7f
000000b0: 7f7f 7f7f 8181 8181 8181 7f7f 7f7f 817f
000000c0: 7f81 7f7f 817f 7f81 817f 817f 7f81 7f7f
000000d0: 7f7f 7f7f 817f 7f81 7f7f 7f81 7f7f 7f81
000000e0: 7f7f 7f7f 7f7f 7f7f 7f7f 7f7f 7f7f 7f7f
000000f0: 7f7f 7f7f 7f7f 7f7f 7f7f 7f7f 7f7f 7f7f

recog/cnn/sepconv6/separable_conv2d i1 [164, 1, 1, 320]
8 -9 -8 -20 -26 -22 -31 12
-2 76 -5 -35 -86 -24 24 -27
1 -46 69 -111 12 -77 -12 -76
-6 50 -87 18 14 -57 54 11
-75 -25 -55 -2 -23 58 -19 -36
-31 -24 -12 -20 13 -42 -39 31
51 -62 80 -46 -15 6 -12 13
-72 29 126 6 76 35 27 35
58 -84 7 17 116 57 59 -30
1 20 -45 0 124 -15 -1 66
-35 -56 -8 0 69 -35 0 18
-28 -35 21 -16 7 -14 40 11
-64 -17 -51 -37 9 46 -33 -11
-28 -42 -22 -40 24 -11 36 26
-38 -43 16 37 23 -16 76 29
-44 -66 14 -15 19 -1 16 -41
-61 46 35 21 -21 2 22 -40
73 -31 43 47 23 48 47 70
-75 28 -13 -12 71 47 31 -60
55 29 -5 80 -30 -23 26 -36
-22 19 18 17 -5 -61 -8 -9
-3 53 -12 7 -44 -81 109 6
31 12 -19 9 39 -17 -41 -35
13 -39 -14 38 15 35 -18 0
17 -35 -26 39 -66 -10 2 16
-23 -11 26 -93 -25 -10 28 84
4 22 10 -35 -33 -54 -127 -24
-66 -60 -46 47 47 29 68 -20
-10 -8 16 18 17 10 -20 19
-2 53 -28 41 -25 23 -39 -4
16 -44 77 -67 -17 17 -23 3
-22 31 19 -58 75 21 48 18
00000000: 08f7 f8ec e6ea e10c fe4c fbdd aae8 18e5
00000010: 01d2 4591 0cb3 f4b4 fa32 a912 0ec7 360b
00000020: b5e7 c9fe e93a eddc e1e8 f4ec 0dd6 d91f
00000030: 33c2 50d2 f106 f40d b81d 7e06 4c23 1b23
00000040: 3aac 0711 7439 3be2 0114 d300 7cf1 ff42
00000050: ddc8 f800 45dd 0012 e4dd 15f0 07f2 280b
00000060: c0ef cddb 092e dff5 e4d6 ead8 18f5 241a
00000070: dad5 1025 17f0 4c1d d4be 0ef1 13ff 10d7
00000080: c32e 2315 eb02 16d8 49e1 2b2f 1730 2f46
00000090: b51c f3f4 472f 1fc4 371d fb50 e2e9 1adc
000000a0: ea13 1211 fbc3 f8f7 fd35 f407 d4af 6d06
000000b0: 1f0c ed09 27ef d7dd 0dd9 f226 0f23 ee00
000000c0: 11dd e627 bef6 0210 e9f5 1aa3 e7f6 1c54
000000d0: 0416 0add dfca 81e8 bec4 d22f 2f1d 44ec
000000e0: f6f8 1012 110a ec13 fe35 e429 e717 d9fc
000000f0: 10d4 4dbd ef11 e903 ea1f 13c6 4b15 3012
