system/system/saiv/textrecognition/stride/mSTR_Latin_LSTM.tflite (tflite, 562512 bytes, 26 tensors)

dense/bias f4 [347]
00000000: d4bf 2abe 9f18 01be 612c 39be 1b6e 39be
00000010: 95e7 32be c395 1ebe ae8b 70be af8a 74be
00000020: 7bf7 80be 1b44 5ebe b5a2 58bd 6210 50be
00000030: 2548 43be 4a0d 25be be36 b1bd 11b2 3dbe
00000040: 4a11 f4bd 27c2 2abe 27ae fbbd 9b20 98be
00000050: 58a1 2cbe a674 eebd 0940 e5bd 2cff 2abe
00000060: 6eaa e2bd b890 3fbe 720b 61be 548b e7bd
00000070: 13e8 a7bd c246 cbbd 97e3 48be f1ef 72be
00000080: 040c 81be d1e7 87be ab63 65be 3b2a 8cbe
00000090: 691d f9bd 531b 3cbe 6967 e0bd 3263 2bbe
000000a0: 638f 0bbd 6c7f 5abe bcce 33be 8dc0 0abe
000000b0: 1a30 24be 87a7 b9be ca1f 14be 341e 3fbe
000000c0: e422 febd d8b0 33be a53b 3bbe ca1f 21be
000000d0: 8d84 7abe f655 f0bd 04df fbbd 8e03 09be
000000e0: a769 86be b8ba 16be 77e9 67be ba66 80be
000000f0: 9b1e 3ebe 82a9 8bbe 6ecc 0dbe 0089 90be
00000100: ac21 cbbd b4de 6cbe f560 00be 0880 98be
00000110: af4a 6abe 13d3 7fbe 8f44 87be 4cb7 a8be
00000120: b49d 9ebe 19c7 57be 4156 6abe 28c0 94be
00000130: 61ad 96be ab81 ffbd 57fe 2bbe a4a9 17be
00000140: 4a36 80be 2d9d 3fbd 6148 79be 6e81 67be
00000150: 4354 12be 00e6 06be 5c6a a3be 2ffd 5ebe
00000160: b811 91be cbbe 77be 8b70 59be d0a4 41be
00000170: 5301 9ebe 57b8 62be 565a 90bd edbc 3bbe
00000180: 76ae 39bd 3a2a 03be 59d8 85bd 4f59 1fbe
00000190: 7af8 edbd 4403 b9bd 79a2 41be c845 31be
000001a0: 7035 373d b440 ecbd 2a3c 0ebe 6171 e1bd
000001b0: b957 08be 6fea bdbd 8ea3 2ebe 0318 e8bd
000001c0: 0ca9 f1bd b1d1 3fbe 96bf 7cbe bf1f 2abe
000001d0: a95a 59be e8b3 28be f814 cbbd 0cd2 1fbe
000001e0: 7b1e dfbd 9e5e cdbd 8c0c d4bd 2c1d 04be
000001f0: 2283 45be 3ad0 23be 60ea 83bd f86a 8dbd
00000200: 8818 b0bd 2389 a5bd c313 06be 3692 89bd
00000210: 1ed5 19be a83b ccbd f994 5ebe 6641 3dbe
00000220: 1a82 8cbe 2b0b 1dbe 14ea 5fbe b056 33be
00000230: 8d6e 05be 54bc 1bbe 6e15 2dbe 16a9 36be
00000240: 8560 3ebe 177d 3bbe d88d 0cbe 251f 8ebe
00000250: e92e 85be fbd5 3ebe 247a 4ebe 3c27 0cbe
00000260: 51d8 3fbe 3ff3 15be 66de 57be ab77 06be
00000270: 381f 1ebe 6d4c 3abe a861 16be 37b3 32be
00000280: fc9b 9dbe 5e54 90be 86d1 0dbe 86e0 3cbe
00000290: 7633 1fbe 7869 45be b6e9 0ebe 1418 79be
000002a0: f34a 92be 6801 04be 2441 22be 6e26 0dbe
000002b0: f8dc 28be d0ee 0cbe 3e37 49be 03da 2dbe
000002c0: a107 4fbe 8385 1ebe 975c 0cbe fd83 cebd
000002d0: 7a80 dbbd a0a2 0ebe 0727 4cbe 2e33 aabe
000002e0: 86bf 64be c300 3cbe 9154 18be df88 a2be
000002f0: 2eda 25be 871b 9bbd 1e00 60be 89a6 65be
00000300: 3d59 a0be 2baa a5be 0560 72be 198c 8abe
00000310: cf67 56be 6495 1cbe 79f5 63be ce29 6cbe
00000320: 203b 7ebe e9ce 31be 2e15 f9bd 4d57 05be
00000330: 7d84 adbd cb6f d6bd 1447 24be 9f5f 18be
00000340: 9cef 09be b01f ddbd feb1 22be 4ecc dcbd
00000350: 0869 71be 5b89 56be 5b63 3dbe df40 90be
00000360: 6dd1 85be a3d7 83be 27a0 84be 75c8 77be
00000370: a6ac 4abe 9bfa 17be 7e72 71be 4455 79be
00000380: e857 06be a97a 52be bca8 7fbe 339f 77be
00000390: 2f9f 58be 71b2 1abe a37e 05be ff39 b2bd
000003a0: be0f 8ebe 4c26 84be fb20 b2be c913 45be
000003b0: 76dd c5be 4c71 b6be e4e2 a8bf a512 a7be
000003c0: 443b 47be 1ff8 52be 1c28 86be 4e62 8abf
000003d0: 4e62 8abf 4e62 8abf a5e8 89bf 4e62 8abf
000003e0: 50fa 75bf d398 6dbf 94fc 68bf c7b0 69bf
000003f0: 1c60 6bbf 5c5f 73bf 4198 76bf fa14 6bbf
-0.16674739 -0.12607048 -0.18083335 -0.18108408 -0.17471154 -0.15486817 -0.23490784 -0.23881029
-0.25188813 -0.21705668 -0.052889545 -0.2031875 -0.1907049 -0.1611835 -0.08653019 -0.18524958
-0.1191736 -0.16675626 -0.12289076 -0.29712376 -0.16858423 -0.11643343 -0.11193854 -0.16698903
-0.11067663 -0.1870755 -0.21977022 -0.113058716 -0.081985615 -0.09925605 -0.19618069 -0.23724343
-0.2520448 -0.2654405 -0.22401302 -0.2737597 -0.12163813 -0.18369798 -0.10957224 -0.16737059
-0.03407229 -0.2133767 -0.17559332 -0.13550015 -0.16033974 -0.36260626 -0.14465252 -0.18663865
-0.124089986 -0.1754793 -0.18284471 -0.15734783 -0.24464627 -0.11735146 -0.12298396 -0.13380262
-0.2625248 -0.14719665 -0.22647654 -0.25078374 -0.18566363 -0.27277762 -0.13847515 -0.28229523
-0.09918532 -0.2313183 -0.12536986 -0.2978518 -0.22880052 -0.24982862 -0.26419494 -0.32952344
-0.30979693 -0.21072043 -0.22884466 -0.29052854 -0.29429153 -0.12475904 -0.16796242 -0.14810807
-0.2504142 -0.046780754 -0.24344017 -0.22607967 -0.14289956 -0.13173676 -0.31917083 -0.2177627
-0.2833383 -0.24193875 -0.21234338 -0.18910527 -0.30860385 -0.22140633 -0.0704848 -0.18333788
-0.045332395 -0.12809077 -0.06535406 -0.15561412 -0.11619659 -0.09033826 -0.18909635 -0.17311776
0.044728696 -0.11535779 -0.13890138 -0.110079534 -0.13314714 -0.0927323 -0.17054579 -0.11332705
-0.11799821 -0.18732335 -0.24682459 -0.16613673 -0.2122599 -0.16474879 -0.09916109 -0.1560747
-0.108944856 -0.100278124 -0.103539556 -0.12901753 -0.19288304 -0.15997401 -0.06441188 -0.06905168
-0.08598429 -0.080827974 -0.13093476 -0.06717341 -0.15022704 -0.09972316 -0.21736516 -0.18481979
-0.2744301 -0.15336291 -0.21866637 -0.17513537 -0.13030453 -0.1520856 -0.16902706 -0.17837939
-0.18591507 -0.18309437 -0.13725984 -0.27758136 -0.26012352 -0.18636315 -0.2016378 -0.13686842
-0.18734862 -0.14643572 -0.21080932 -0.13131587 -0.15441597 -0.18193217 -0.1468569 -0.17451178
-0.3078307 -0.28189367 -0.13849458 -0.18445024 -0.15546975 -0.19278514 -0.13956341 -0.24325591
-0.28572807 -0.12891161 -0.15845162 -0.13784191 -0.16490543 -0.13762975 -0.1964998 -0.16977696
-0.20217754 -0.15480618 -0.13707195 -0.100837685 -0.10717864 -0.13929224 -0.19936763 -0.33242172
-0.22338685 -0.18359666 -0.1487601 -0.3174505 -0.1619651 -0.0757361 -0.21875045 -0.2242681
-0.31318083 -0.3235639 -0.23669441 -0.2706001 -0.20938037 -0.15291363 -0.22261609 -0.23062822
-0.24827242 -0.17364086 -0.12162243 -0.13021584 -0.08472536 -0.104705416 -0.16042739 -0.14880227
-0.1347031 -0.107970595 -0.15888211 -0.107811555 -0.23575222 -0.20950834 -0.18494932 -0.28174493
-0.26136342 -0.25750455 -0.25903437 -0.24197562 -0.19792423 -0.14841692 -0.23578832 -0.24348933
-0.13119471 -0.20554604 -0.24966711 -0.24181823 -0.21154474 -0.15107132 -0.1303659 -0.08702468
-0.27746385 -0.25810468 -0.34790787 -0.19245829 -0.38645524 -0.35633314 -1.3194242 -0.32631412
-0.19456202 -0.20602463 -0.26202476 -1.081125 -1.081125 -1.081125 -1.0774122 -1.081125
-0.9608507 -0.92811316 -0.91010404 -0.91285366 -0.91943526 -0.9506738 -0.9632607 -0.9182888

recog/birnn/bidirectional_rnn/bw/rnn3/cell_bias f4 [164]
00000000: c28e d7ba c9a5 d3bd 293b ddbd 0a53 bd3c
00000010: df96 433d 62dc b5bc 9ffb 1bbe f18b a3bd
00000020: 867b 8e3d 4274 b73c 546f 053c 5486 d2bd
00000030: 4958 003a d909 85bd a0f1 ef3b 0648 fbbb
00000040: 31ec d13d 6743 e43d 75c9 f63d e642 f7bc
00000050: 6cef 32bd 9623 6b3d dfe7 84bd 6ffa 2f3c
00000060: 9b50 1ebc 376b bf3d aa2d 8bbc 0850 f63c
00000070: 8194 b4bd 21ed 2b3d 1120 fd3d cbe3 69bc
00000080: a207 71bd 5529 8dbb fd2d 86bd b032 d13d
00000090: cb2c 0c3e 7802 0f3d 8ba3 5bbd ccf5 cd3c
000000a0: 239c a1bd a3f6 df3c 405f c5bc d25d a9bc
000000b0: 4564 dd3d 29b5 8d3c 967f a6bd a3ce b6bd
000000c0: 7252 3a3d 2377 a03b 89e9 c93d a2ad 12be
000000d0: f4b7 0d3d 1b0b 303c c553 a23d 21e6 053a
000000e0: c198 34be a169 123c a0ad b7ba 485e d8bd
000000f0: 2651 b33b 74b5 063d 4ce9 443d 1950 f0bb
00000100: 3d49 343c 4c97 183d eaad 9abd da3e 9cbc
00000110: 9489 013e 3594 a2bb 7e6d 973b 3b6f ab3d
00000120: d46d 4dbc a201 9fbc ff22 363e b553 483d
00000130: 9ae1 fabd 882f 4b3d e670 803d 6e7b 0dbc
00000140: 48c6 b9ba f2d8 f43c c0fb 2c3d 7899 0f3d
00000150: 23b1 50bc 08c9 fdbc ef03 9abd 4317 44bd
00000160: a3d0 8abc d2da bbbb 3148 28bc c4c2 4ebd
00000170: 452e 0ebd 7677 193e 7e2b 41bc c9d4 80bb
00000180: 4116 d6bd d946 0ebc 6d5d fbbc 00ab 70bc
00000190: 7b49 b5bd 0244 6bbd 513e 033e a0c8 0f3d
000001a0: eb0e 1b3d cf6e 623c d684 c7bc 3811 843d
000001b0: fa8d 78bd 6f7a b9bc 00c3 c43b f8bd 043d
000001c0: 03f1 833d c5bc 453c ac6f 74bd ae4a 193d
000001d0: eb55 ddbb 68bb 6f3d 1244 4e3c ad3b 9f3c
000001e0: 0bb2 3cbd 05f3 db3c b742 fdbc 36e1 6a3d
000001f0: 63aa 98bc 8088 0ebe 9fa6 dd3c 9736 51bd
00000200: f753 68ba 842a b2bc fb94 8d3d f069 e4bc
00000210: e5dd 01bc eef5 693d fa6a 52bd bc9a d8bd
00000220: 5149 86bc 6404 fe3d 0b3d 343d ac70 0a3c
00000230: 3035 a9bd a304 d93d fb61 aebc 9aff f23b
00000240: ebac 5fbd 545c c9bc 113d b33c d9ca cfbd
00000250: 94a9 4b3d 0fba 72bc 9b4e a6bd afa3 a43c
00000260: 4ec2 b83b ec66 323d c651 283c d1d1 9539
00000270: d265 963d 2d82 883d df5d b5bd 4517 b43c
00000280: ffaf 643d 65ad 89bc f403 cebd 4e98 263d
-0.0016445743 -0.103343554 -0.108022995 0.023110885 0.047751304 -0.022199813 -0.15232705 -0.07985676
0.06957154 0.022394303 0.0081442185 -0.10279527 0.0004895968 -0.06496019 0.007322505 -0.007668498
0.10250128 0.111456685 0.12050144 -0.030183267 -0.04368536 0.057406984 -0.064895384 0.01074086
-0.0096627725 0.093466215 -0.016989548 0.030067459 -0.08817387 0.04197419 0.12359632 -0.0142755015
-0.05884517 -0.0043079057 -0.0655174 0.10214746 0.13688962 0.034914464 -0.053622764 0.02514162
-0.07891109 0.027339285 -0.02409327 -0.02067462 0.108101405 0.017298298 -0.08129804 -0.089261316
0.045488782 0.0048970147 0.098589964 -0.14324048 0.03459926 0.010744835 0.07926134 0.0005107839
-0.17636396 0.008936317 -0.0014013536 -0.10564858 0.00547232 0.03288789 0.04807405 -0.007333767
0.0110037895 0.037253663 -0.07552703 -0.019072939 0.12650138 -0.0049615153 0.004621207 0.08370825
-0.012538392 -0.019409958 0.17786787 0.048907954 -0.12250061 0.049605876 0.06271534 -0.008635385
-0.0014173472 0.029888604 0.042232275 0.03505847 -0.012737545 -0.030979648 -0.075202815 -0.047873747
-0.016945189 -0.0057328725 -0.010271118 -0.05047871 -0.034712095 0.14986977 -0.0117901545 -0.003931616
-0.10453463 -0.008683884 -0.030684197 -0.014689207 -0.08851906 -0.057437904 0.1281674 0.03510344
0.037856024 0.013820364 -0.024355333 0.06448597 -0.060682274 -0.022641389 0.006004691 0.03240773
0.06442454 0.012068932 -0.05967681 0.037424736 -0.006754627 0.058528334 0.012589471 0.019437635
-0.046068233 0.02684928 -0.030915601 0.057343684 -0.018635934 -0.13919258 0.02705699 -0.05107745
-0.00088626094 -0.021748789 0.069131814 -0.027882546 -0.007926439 0.057119302 -0.051371552 -0.10576388
-0.016392382 0.12403181 0.044003528 0.008449715 -0.08262098 0.105965875 -0.021286955 0.007415724
-0.054608267 -0.024580158 0.021879705 -0.10146112 0.04972227 -0.014814868 -0.081204616 0.020097582
0.0056383973 0.043555185 0.010273403 0.0002857582 0.073436394 0.06665454 -0.08855795 0.021983752
0.055831905 -0.016806314 -0.10059348 0.040672593

recog/birnn/bidirectional_rnn/bw/rnn3/cell_to_cell_w i1 [164, 164] scale=0.010910961 zero_point=0
00000000: ef07 100a fa14 fefd ff02 0104 02ff 0002
00000010: fe02 f5f9 f803 f807 f6fa f4fc fbed 06fe
00000020: 0bfa 0cf5 1003 030c fc07 f601 fe00 08fd
00000030: 07f6 0009 f508 02f6 f2fb ff03 fbfa f712
00000040: ffec f7ff 0501 07fd fdf9 fcfb fd0a 07fd
00000050: fff6 fd06 f9f3 ff06 05fe fb05 0214 03f4
00000060: fa04 07f9 f407 02fc e904 05fe f309 0df7
00000070: 0400 f900 f901 faec 09fd 20f7 00f0 02fb
00000080: 04f7 02fb 0704 0604 0206 fae6 fdfb 07fe
00000090: fdf0 feff 06fb 0702 0200 0106 0d0b fd03
000000a0: 09fb fc03 f7fe 04fd fa08 030d 11fd f3f7
000000b0: 0903 010c f5f5 e7ff f4ed e501 03fc f4fc
000000c0: 03ff f6fe fff8 0bf9 0126 0104 0cf9 03fe
000000d0: 0df3 03fc 08fa 05f1 fc04 fff9 e7fa ff0b
000000e0: ed07 0903 f8f4 0210 fffa 0bfc 0001 00fa
000000f0: ff05 0701 00fe ff03 f307 04f7 fc07 0de5
-0.18548633 0.07637673 0.17457537 0.10910961 -0.06546576 0.21821922 -0.021821922 -0.03273288
-0.010910961 0.021821922 0.010910961 0.043643843 0.021821922 -0.010910961 0.0 0.021821922
-0.021821922 0.021821922 -0.12002057 -0.07637673 -0.08728769 0.03273288 -0.08728769 0.07637673
-0.10910961 -0.06546576 -0.13093153 -0.043643843 -0.054554805 -0.20730826 0.06546576 -0.021821922
0.12002057 -0.06546576 0.13093153 -0.12002057 0.17457537 0.03273288 0.03273288 0.13093153
-0.043643843 0.07637673 -0.10910961 0.010910961 -0.021821922 0.0 0.08728769 -0.03273288
0.07637673 -0.10910961 0.0 0.098198645 -0.12002057 0.08728769 0.021821922 -0.10910961
-0.15275346 -0.054554805 -0.010910961 0.03273288 -0.054554805 -0.06546576 -0.098198645 0.19639729
-0.010910961 -0.21821922 -0.098198645 -0.010910961 0.054554805 0.010910961 0.07637673 -0.03273288
-0.03273288 -0.07637673 -0.043643843 -0.054554805 -0.03273288 0.10910961 0.07637673 -0.03273288
-0.010910961 -0.10910961 -0.03273288 0.06546576 -0.07637673 -0.14184248 -0.010910961 0.06546576
0.054554805 -0.021821922 -0.054554805 0.054554805 0.021821922 0.21821922 0.03273288 -0.13093153
-0.06546576 0.043643843 0.07637673 -0.07637673 -0.13093153 0.07637673 0.021821922 -0.043643843
-0.2509521 0.043643843 0.054554805 -0.021821922 -0.14184248 0.098198645 0.14184248 -0.098198645
0.043643843 0.0 -0.07637673 0.0 -0.07637673 0.010910961 -0.06546576 -0.21821922
0.098198645 -0.03273288 0.34915075 -0.098198645 0.0 -0.17457537 0.021821922 -0.054554805
0.043643843 -0.098198645 0.021821922 -0.054554805 0.07637673 0.043643843 0.06546576 0.043643843
0.021821922 0.06546576 -0.06546576 -0.28368497 -0.03273288 -0.054554805 0.07637673 -0.021821922
-0.03273288 -0.17457537 -0.021821922 -0.010910961 0.06546576 -0.054554805 0.07637673 0.021821922
0.021821922 0.0 0.010910961 0.06546576 0.14184248 0.12002057 -0.03273288 0.03273288
0.098198645 -0.054554805 -0.043643843 0.03273288 -0.098198645 -0.021821922 0.043643843 -0.03273288
-0.06546576 0.08728769 0.03273288 0.14184248 0.18548633 -0.03273288 -0.14184248 -0.098198645
0.098198645 0.03273288 0.010910961 0.13093153 -0.12002057 -0.12002057 -0.272774 -0.010910961
-0.13093153 -0.20730826 -0.29459596 0.010910961 0.03273288 -0.043643843 -0.13093153 -0.043643843
0.03273288 -0.010910961 -0.10910961 -0.021821922 -0.010910961 -0.08728769 0.12002057 -0.07637673
0.010910961 0.41461653 0.010910961 0.043643843 0.13093153 -0.07637673 0.03273288 -0.021821922
0.14184248 -0.14184248 0.03273288 -0.043643843 0.08728769 -0.06546576 0.054554805 -0.16366442
-0.043643843 0.043643843 -0.010910961 -0.07637673 -0.272774 -0.06546576 -0.010910961 0.12002057
-0.20730826 0.07637673 0.098198645 0.03273288 -0.08728769 -0.13093153 0.021821922 0.17457537
-0.010910961 -0.06546576 0.12002057 -0.043643843 0.0 0.010910961 0.0 -0.06546576
-0.010910961 0.054554805 0.07637673 0.010910961 0.0 -0.021821922 -0.010910961 0.03273288
-0.14184248 0.07637673 0.043643843 -0.098198645 -0.043643843 0.07637673 0.14184248 -0.29459596

recog/birnn/bidirectional_rnn/bw/rnn3/cell_to_forget_w i1 [164, 164] scale=0.010166387 zero_point=0
00000000: 05fc e1ff 12be f706 1aef face 100c 0e03
00000010: 09f2 f328 e30a 03fb 120a e21c 231e 0b17
00000020: 0af3 f7dd fbe7 1721 f91a 0d13 30e7 fcff
00000030: 0114 f2e6 ea33 1015 f0e3 1522 e7f1 1c50
00000040: 0012 efc9 0f0c e21d 2407 ee0f 0128 f9e4
00000050: f0eb f319 d322 fe28 e228 0928 0bff 0f25
00000060: fbdb e3d8 f10e f609 31fd 1618 e2fd e90a
00000070: 15c8 000e f3eb 000a e912 fa21 0818 fb11
00000080: 09fc 000c fe02 01e9 2904 12fb 1add 08fd
00000090: e705 e4f5 0f19 ec05 06f8 f6f7 23ef 0ccc
000000a0: 11fd 650e 1f1e e4f8 e3d6 abfc 071e 03e1
000000b0: ecff 0bf9 f205 10e8 f5f8 fe11 e9fe f81c
000000c0: 10e2 31f0 0f0b 09e7 f8f7 f2e7 f1ff f015
000000d0: 2c03 fc09 07d2 e20e e01c eb0e 064a f4ec
000000e0: e1ee 0643 023c ffda df0d ccd3 3aff e80f
000000f0: 0928 16ed f1ea 0033 ec23 fd25 e6fd 0c14
0.050831936 -0.04066555 -0.315158 -0.010166387 0.18299496 -0.6709815 -0.09149748 0.06099832
0.26432607 -0.17282858 -0.06099832 -0.5083194 0.1626622 0.12199664 0.14232942 0.03049916
0.09149748 -0.14232942 -0.13216303 0.4066555 -0.29482523 0.10166387 0.03049916 -0.050831936
0.18299496 0.10166387 -0.3049916 0.28465885 0.35582355 0.3049916 0.11183026 0.2338269
0.10166387 -0.13216303 -0.09149748 -0.35582355 -0.050831936 -0.2541597 0.2338269 0.33549076
-0.07116471 0.26432607 0.13216303 0.19316135 0.48798656 -0.2541597 -0.04066555 -0.010166387
0.010166387 0.20332775 -0.14232942 -0.26432607 -0.22366051 0.5184857 0.1626622 0.21349412
-0.1626622 -0.29482523 0.21349412 0.34565717 -0.2541597 -0.1524958 0.28465885 0.813311
0.0 0.18299496 -0.17282858 -0.5591513 0.1524958 0.12199664 -0.3049916 0.29482523
0.36598992 0.07116471 -0.18299496 0.1524958 0.010166387 0.4066555 -0.07116471 -0.28465885
-0.1626622 -0.21349412 -0.13216303 0.2541597 -0.4574874 0.34565717 -0.020332774 0.4066555
-0.3049916 0.4066555 0.09149748 0.4066555 0.11183026 -0.010166387 0.1524958 0.37615633
-0.050831936 -0.37615633 -0.29482523 -0.4066555 -0.1524958 0.14232942 -0.10166387 0.09149748
0.49815297 -0.03049916 0.22366051 0.24399328 -0.3049916 -0.03049916 -0.2338269 0.10166387
0.21349412 -0.5693177 0.0 0.14232942 -0.13216303 -0.21349412 0.0 0.10166387
-0.2338269 0.18299496 -0.06099832 0.33549076 0.0813311 0.24399328 -0.050831936 0.17282858
0.09149748 -0.04066555 0.0 0.12199664 -0.020332774 0.020332774 0.010166387 -0.2338269
0.41682187 0.04066555 0.18299496 -0.050831936 0.26432607 -0.35582355 0.0813311 -0.03049916
-0.2541597 0.050831936 -0.28465885 -0.11183026 0.1524958 0.2541597 -0.20332775 0.050831936
0.06099832 -0.0813311 -0.10166387 -0.09149748 0.35582355 -0.17282858 0.12199664 -0.52865213
0.17282858 -0.03049916 1.026805 0.14232942 0.315158 0.3049916 -0.28465885 -0.0813311
-0.29482523 -0.42698824 -0.8641429 -0.04066555 0.07116471 0.3049916 0.03049916 -0.315158
-0.20332775 -0.010166387 0.11183026 -0.07116471 -0.14232942 0.050831936 0.1626622 -0.24399328
-0.11183026 -0.0813311 -0.020332774 0.17282858 -0.2338269 -0.020332774 -0.0813311 0.28465885
0.1626622 -0.3049916 0.49815297 -0.1626622 0.1524958 0.11183026 0.09149748 -0.2541597
-0.0813311 -0.09149748 -0.14232942 -0.2541597 -0.1524958 -0.010166387 -0.1626622 0.21349412
0.44732103 0.03049916 -0.04066555 0.09149748 0.07116471 -0.4676538 -0.3049916 0.14232942
-0.3253244 0.28465885 -0.21349412 0.14232942 0.06099832 0.75231266 -0.12199664 -0.20332775
-0.315158 -0.18299496 0.06099832 0.68114793 0.020332774 0.6099832 -0.010166387 -0.3863227
-0.33549076 0.13216303 -0.52865213 -0.4574874 0.58965045 -0.010166387 -0.24399328 0.1524958
0.09149748 0.4066555 0.22366051 -0.19316135 -0.1524958 -0.22366051 0.0 0.5184857
-0.20332775 0.35582355 -0.03049916 0.37615633 -0.26432607 -0.03049916 0.12199664 0.20332775

recog/birnn/bidirectional_rnn/bw/rnn3/cell_to_input_w i1 [164, 164] scale=0.011353293 zero_point=0
00000000: 080b 0c03 0f68 eeed f2f5 fdf4 0f18 0e06
00000010: f50d f00f 0ef3 08ee 1ef9 f205 15ed fa02
00000020: 2301 fcff 21de f0f9 f50b f90f d217 0006
00000030: f6e5 f706 ed06 fe15 fffa 03ff 17f6 1fdb
00000040: 04d3 db19 1706 140d 1d20 fc00 022b 3bf0
00000050: 03f3 17f7 fbea 21f5 14d6 f109 f736 13eb
00000060: 0cfb 18f6 0703 02ff e533 fd0a 0fe2 1225
00000070: ff0c 0df2 0f12 141a 06f2 10fe f4fd d90e
00000080: 2505 f7ec fa0c 2901 f2e9 ec00 fcf5 100b
00000090: f41c fefd f3f8 1e00 ea0b 1000 fb21 0923
000000a0: f806 cf03 0107 e418 0f21 0fef fe0a de11
000000b0: f40e ea07 f00b d00b 0cfe 04f4 fe07 f601
000000c0: 04e6 0d08 07fa fefd 2201 f306 0cf2 01e6
000000d0: e0f8 06f4 f101 fb18 f7fb fff6 1512 e5df
000000e0: f0ef 0904 02ff 0706 eee0 1105 df08 0bf7
000000f0: effb 0400 e803 0c12 04f1 02d2 dd05 19f0
0.09082635 0.12488623 0.13623953 0.034059882 0.1702994 1.1807425 -0.20435928 -0.21571258
-0.15894611 -0.12488623 -0.034059882 -0.13623953 0.1702994 0.27247906 0.15894611 0.068119764
-0.12488623 0.14759281 -0.1816527 0.1702994 0.15894611 -0.14759281 0.09082635 -0.20435928
0.3405988 -0.079473056 -0.15894611 0.056766465 0.23841916 -0.21571258 -0.068119764 0.022706587
0.39736527 0.011353293 -0.045413174 -0.011353293 0.37465867 -0.386012 -0.1816527 -0.079473056
-0.12488623 0.12488623 -0.079473056 0.1702994 -0.5222515 0.26112574 0.0 0.068119764
-0.11353293 -0.3065389 -0.10217964 0.068119764 -0.21571258 0.068119764 -0.022706587 0.23841916
-0.011353293 -0.068119764 0.034059882 -0.011353293 0.26112574 -0.11353293 0.3519521 -0.42007187
0.045413174 -0.51089823 -0.42007187 0.28383234 0.26112574 0.068119764 0.22706586 0.14759281
0.3292455 0.3633054 -0.045413174 0.0 0.022706587 0.4881916 0.6698443 -0.1816527
0.034059882 -0.14759281 0.26112574 -0.10217964 -0.056766465 -0.24977246 0.37465867 -0.12488623
0.22706586 -0.47683832 -0.1702994 0.10217964 -0.10217964 0.6130778 0.21571258 -0.23841916
0.13623953 -0.056766465 0.27247906 -0.11353293 0.079473056 0.034059882 0.022706587 -0.011353293
-0.3065389 0.57901794 -0.034059882 0.11353293 0.1702994 -0.3405988 0.20435928 0.42007187
-0.011353293 0.13623953 0.14759281 -0.15894611 0.1702994 0.20435928 0.22706586 0.29518563
0.068119764 -0.15894611 0.1816527 -0.022706587 -0.13623953 -0.034059882 -0.44277844 0.15894611
0.42007187 0.056766465 -0.10217964 -0.22706586 -0.068119764 0.13623953 0.46548504 0.011353293
-0.15894611 -0.26112574 -0.22706586 0.0 -0.045413174 -0.12488623 0.1816527 0.12488623
-0.13623953 0.31789222 -0.022706587 -0.034059882 -0.14759281 -0.09082635 0.3405988 0.0
-0.24977246 0.12488623 0.1816527 0.0 -0.056766465 0.37465867 0.10217964 0.39736527
-0.09082635 0.068119764 -0.55631137 0.034059882 0.011353293 0.079473056 -0.31789222 0.27247906
0.1702994 0.37465867 0.1702994 -0.193006 -0.022706587 0.11353293 -0.386012 0.193006
-0.13623953 0.15894611 -0.24977246 0.079473056 -0.1816527 0.12488623 -0.5449581 0.12488623
0.13623953 -0.022706587 0.045413174 -0.13623953 -0.022706587 0.079473056 -0.11353293 0.011353293
0.045413174 -0.29518563 0.14759281 0.09082635 0.079473056 -0.068119764 -0.022706587 -0.034059882
0.386012 0.011353293 -0.14759281 0.068119764 0.13623953 -0.15894611 0.011353293 -0.29518563
-0.3633054 -0.09082635 0.068119764 -0.13623953 -0.1702994 0.011353293 -0.056766465 0.27247906
-0.10217964 -0.056766465 -0.011353293 -0.11353293 0.23841916 0.20435928 -0.3065389 -0.37465867
-0.1816527 -0.193006 0.10217964 0.045413174 0.022706587 -0.011353293 0.079473056 0.068119764
-0.20435928 -0.3633054 0.193006 0.056766465 -0.37465867 0.09082635 0.12488623 -0.10217964
-0.193006 -0.056766465 0.045413174 0.0 -0.27247906 0.034059882 0.13623953 0.20435928
0.045413174 -0.1702994 0.022706587 -0.5222515 -0.39736527 0.056766465 0.28383234 -0.1816527

recog/birnn/bidirectional_rnn/bw/rnn3/cell_to_output_w i1 [164, 164] scale=0.016081803 zero_point=0
00000000: e3ee 0404 ff0a 04f7 1020 fcfe 05f9 ed07
00000010: 03fa f321 feee 13f4 1a2b eff9 da05 f10a
00000020: 07fc fdeb e1f6 fd08 faf9 04e6 f604 0004
00000030: fc0f fafe e710 fcea ebf0 f31e fdfd fe0c
00000040: 00f1 f7fc f8e0 2109 0806 0103 f8ed e8ed
00000050: 02fd 24f3 0605 f10b 01f0 f600 fc21 fdf5
00000060: f1f6 06e5 f8f6 00f9 eaea e6fc e2f2 011a
00000070: 0206 e00c 16ff 17fe 102c f7fe 0efd e906
00000080: 1a0f 05f8 05eb fbfe 0d09 ef00 fcfa fefb
00000090: fe02 0ad8 fee7 f902 fffd f5ec 08e3 1eed
000000a0: 01ef 0a07 0de7 f709 f739 f8f4 17f4 d611
000000b0: 00fb 2518 09dd 00eb fb06 0af5 02f1 0213
000000c0: dbfc 040f f7f3 f4ef ee0e f6f3 1c02 0511
000000d0: eeed 02f5 fcf0 0910 ee14 e2f2 1100 0aff
000000e0: 1407 ea03 02f8 e514 02ff ea12 1822 f6ef
000000f0: eb08 ebfb fb0a 0b1a 27f3 06e3 0223 f200
-0.46637228 -0.28947246 0.06432721 0.06432721 -0.016081803 0.16081803 0.06432721 -0.14473623
0.25730884 0.5146177 -0.06432721 -0.032163605 0.08040901 -0.11257262 -0.30555424 0.11257262
0.048245408 -0.096490815 -0.20906344 0.5306995 -0.032163605 -0.28947246 0.30555424 -0.19298163
0.41812688 0.69151753 -0.27339065 -0.11257262 -0.6111085 0.08040901 -0.24122703 0.16081803
0.11257262 -0.06432721 -0.048245408 -0.33771786 -0.49853587 -0.16081803 -0.048245408 0.12865442
-0.096490815 -0.11257262 0.06432721 -0.41812688 -0.16081803 0.06432721 0.0 0.06432721
-0.06432721 0.24122703 -0.096490815 -0.032163605 -0.40204507 0.25730884 -0.06432721 -0.35379964
-0.33771786 -0.25730884 -0.20906344 0.48245406 -0.048245408 -0.048245408 -0.032163605 0.19298163
0.0 -0.24122703 -0.14473623 -0.06432721 -0.12865442 -0.5146177 0.5306995 0.14473623
0.12865442 0.096490815 0.016081803 0.048245408 -0.12865442 -0.30555424 -0.38596326 -0.30555424
0.032163605 -0.048245408 0.5789449 -0.20906344 0.096490815 0.08040901 -0.24122703 0.17689982
0.016081803 -0.25730884 -0.16081803 0.0 -0.06432721 0.5306995 -0.048245408 -0.17689982
-0.24122703 -0.16081803 0.096490815 -0.43420866 -0.12865442 -0.16081803 0.0 -0.11257262
-0.35379964 -0.35379964 -0.41812688 -0.06432721 -0.48245406 -0.22514524 0.016081803 0.41812688
0.032163605 0.096490815 -0.5146177 0.19298163 0.35379964 -0.016081803 0.36988145 -0.032163605
0.25730884 0.7075993 -0.14473623 -0.032163605 0.22514524 -0.048245408 -0.36988145 0.096490815
0.41812688 0.24122703 0.08040901 -0.12865442 0.08040901 -0.33771786 -0.08040901 -0.032163605
0.20906344 0.14473623 -0.27339065 0.0 -0.06432721 -0.096490815 -0.032163605 -0.08040901
-0.032163605 0.032163605 0.16081803 -0.6432721 -0.032163605 -0.40204507 -0.11257262 0.032163605
-0.016081803 -0.048245408 -0.17689982 -0.32163605 0.12865442 -0.46637228 0.48245406 -0.30555424
0.016081803 -0.27339065 0.16081803 0.11257262 0.20906344 -0.40204507 -0.14473623 0.14473623
-0.14473623 0.91666275 -0.12865442 -0.19298163 0.36988145 -0.19298163 -0.6754357 0.27339065
0.0 -0.08040901 0.5950267 0.38596326 0.14473623 -0.5628631 0.0 -0.33771786
-0.08040901 0.096490815 0.16081803 -0.17689982 0.032163605 -0.24122703 0.032163605 0.30555424
-0.5950267 -0.06432721 0.06432721 0.24122703 -0.14473623 -0.20906344 -0.19298163 -0.27339065
-0.28947246 0.22514524 -0.16081803 -0.20906344 0.45029047 0.032163605 0.08040901 0.27339065
-0.28947246 -0.30555424 0.032163605 -0.17689982 -0.06432721 -0.25730884 0.14473623 0.25730884
-0.28947246 0.32163605 -0.48245406 -0.22514524 0.27339065 0.0 0.16081803 -0.016081803
0.32163605 0.11257262 -0.35379964 0.048245408 0.032163605 -0.12865442 -0.43420866 0.32163605
0.032163605 -0.016081803 -0.35379964 0.28947246 0.38596326 0.5467813 -0.16081803 -0.27339065
-0.33771786 0.12865442 -0.33771786 -0.08040901 -0.08040901 0.16081803 0.17689982 0.41812688
0.6271903 -0.20906344 0.096490815 -0.46637228 0.032163605 0.5628631 -0.22514524 0.0

recog/birnn/bidirectional_rnn/bw/rnn3/forget_bias f4 [164]
00000000: dae1 713f 41c4 823f a299 ab3f bc62 853f
00000010: aa69 763f db91 823f 47f1 573f 8cf4 833f
00000020: 4bd0 5f3f eabb 673f 596e 773f d562 853f
00000030: 4db5 753f 0ab4 823f c8b8 6f3f f9d9 813f
00000040: 5d5c 6f3f cb7f b53f 11ee 883f a038 623f
00000050: f86f 7f3f 91ed 843f 341b 763f a180 743f
00000060: a327 763f e00f 703f 0720 843f 386f 8b3f
00000070: ef99 4e3f a9b0 8c3f 1d59 8f3f e7a2 773f
00000080: 2eed 7f3f 479f 713f 2a18 783f 0d8d 713f
00000090: 94a5 863f ceb1 863f d53d 873f 7ffe 8f3f
000000a0: 0741 793f 323c 7f3f 9875 6c3f c39c 793f
000000b0: cdc0 6a3f 7da5 803f eefb 723f 664a 933f
000000c0: 476a 763f 85aa 693f 21e0 743f 38fc 5d3f
000000d0: da54 6b3f aad7 743f 963f 663f c5a6 6d3f
000000e0: cc4c bc3f fde9 623f e24a 673f a10f 8c3f
000000f0: f347 6f3f 962c 6e3f 6437 6e3f cb14 813f
00000100: 4a29 653f 5857 943f 2618 7a3f 0926 5d3f
00000110: 75ee 793f 835f 7f3f 583f 833f b45e 823f
00000120: cc7e 723f 5fff 7a3f a112 773f 7283 7d3f
00000130: 72ef 933f 7635 753f e0d3 783f d439 7a3f
00000140: a6a1 6d3f 2122 833f b812 763f 160c 873f
00000150: 2daf 693f c74c 5d3f 52ba 7c3f 8c53 6b3f
00000160: 3385 513f 5fd9 6b3f c73a 673f 5438 7c3f
00000170: 7359 743f f6bd 863f b298 7d3f 0be2 843f
00000180: e29f 7b3f 709b 853f 0402 7b3f 34c1 703f
00000190: 4016 753f dd5f 673f e3b8 883f 6efd 853f
000001a0: 8603 733f 4ec7 5d3f b65e 603f 96c0 713f
000001b0: 8daf 853f c7ee 7b3f 6944 653f bda2 813f
000001c0: b9d6 753f aec8 733f 4c33 843f 0fe5 713f
000001d0: c590 703f af31 763f e5ae 6f3f 4bfa 883f
000001e0: 0a7a 6c3f e683 733f 0286 803f a770 a23f
000001f0: 3641 723f de74 833f 42ef 763f b485 7a3f
00000200: 3e50 7b3f a78e 773f 17eb 8a3f 2875 823f
00000210: c38c 7a3f fa31 623f 27b2 7f3f 33ed a93f
00000220: 414b 873f dad5 863f 20cf 6b3f cb23 7b3f
00000230: 2c2c 4f3f 8051 9f3f 6495 6a3f 87a0 833f
00000240: fd4d 6e3f 74a9 853f dcd4 773f 08b7 843f
00000250: af10 773f e7e2 843f 0a63 803f 71d1 783f
00000260: 8fce 753f 22dd 5a3f c4fd 623f b285 613f
00000270: ac06 7d3f 201e 4f3f 5656 873f 3143 573f
00000280: 1c56 6e3f f57d 6f3f d0a9 543f 5b60 793f
0.9448525 1.0216142 1.340626 1.0420756 0.9625498 1.0200762 0.84352535 1.0309005
0.87427205 0.9052111 0.9665275 1.0420786 0.9597977 1.0211194 0.9364133 1.0144645
0.9350031 1.4179624 1.0697652 0.8836765 0.99780226 1.0385 0.9613526 0.9550877
0.9615423 0.93774223 1.0322274 1.0893316 0.80703634 1.0991412 1.119907 0.96732944
0.9997128 0.9438366 0.9691187 0.9435585 1.051928 1.0523012 1.0565745 1.1249541
0.9736485 0.99701226 0.92366934 0.97504824 0.9170044 1.0050503 0.94915664 1.150708
0.96255916 0.9127582 0.95654494 0.8671298 0.9192635 0.9564158 0.89940774 0.92832595
1.4710937 0.8863829 0.9034864 1.094227 0.9346916 0.9303678 0.9305327 1.008447
0.8951613 1.1589155 0.976931 0.8638616 0.9762948 0.99755114 1.0253706 1.0185151
0.94724727 0.98045915 0.965128 0.99028695 1.1557448 0.957847 0.97198296 0.9774449
0.9282478 1.024479 0.9612231 1.0550563 0.9128292 0.8644528 0.987218 0.9192436
0.8184387 0.92128557 0.9032406 0.9852345 0.9544899 1.0526721 0.9906112 1.0381483
0.98290837 1.0438061 0.9804995 0.94044805 0.95737076 0.9038065 1.0681423 1.0467966
0.9492725 0.8663224 0.8764452 0.9443449 1.0444199 0.9841122 0.8955751 1.0127789
0.96030766 0.9522809 1.0328155 0.9449014 0.939709 0.9616956 0.9362624 1.0701383
0.92373717 0.95123136 1.0040896 1.2690629 0.94630754 1.027004 0.9645883 0.97860265
0.98169315 0.96702045 1.0852994 1.0192003 0.97871035 0.8835751 0.99881214 1.3275512
1.0569841 1.0534012 0.9211292 0.9810149 0.80926776 1.2446747 0.916342 1.0283364
0.9308775 1.0442338 0.9680917 1.0368357 0.9650983 1.0381745 1.0030224 0.9719458
0.9601831 0.8549367 0.88668466 0.8809463 0.98838305 0.8090534 1.0573223 0.840869
0.9310014 0.9355157 0.83071613 0.9741265

recog/birnn/bidirectional_rnn/bw/rnn3/input_bias f4 [164]
00000000: db11 953c 35b7 0ebd 3afb 833e 90e2 f8bc
00000010: 9e66 e3bc 3c14 10be d51d 583d f13d 353d
00000020: b869 8a3d 5f49 3f3d 2a84 1ebd c0b8 4cbd
00000030: b5bd dcbd 0ef4 4cbd 85f0 45ba 9e17 0abe
00000040: cdde fc3b e771 8ebd 2b6c 5e3d 4aa6 b6bd
00000050: 0ea6 a6bc 6026 a1bd b0ee dbbd fd33 f2bd
00000060: a9fd 7abb 8de9 853d ed06 00bd 289c 23be
00000070: ffe5 453c 9522 ff3d bd5f fbbd f152 4d3d
00000080: 79fd 0dbd c452 38bd 5b13 383c 5803 acbb
00000090: c217 9d3e c65f 28be 1189 94bd 5625 a8bd
000000a0: cf30 10bc 2b74 b63c 88c9 eebd 0bc7 7dbd
000000b0: 456c 62bd ed13 983c e622 7bbd a124 d63d
000000c0: 78b4 21bd 0998 b23b 6495 48bd abda ad3b
000000d0: d204 14bd e643 57bc 7286 efbd 0171 003d
000000e0: 769e 03be 12de 89bc f385 8739 db71 acbd
000000f0: a763 f4bd 8c9e fcbc 6289 3b3d 9af1 a73d
00000100: 6abb 78bc 7ba6 1bbe 410d 07bd 378c a93c
00000110: c8b9 0a3e 5288 6bbe dda5 59be f6bc ec3d
00000120: 8708 4b3d 5ba9 02be 6ca3 4d3d 1437 763c
00000130: 72af 1dbe 90d2 30be f173 4dbd 1a5f fdbd
00000140: 2ded e4bd 699e 923d fbeb 0a3c b15a 02be
00000150: 8490 40bc 5ea7 c8bd ae8d 22be 39c2 223c
00000160: b9da 0a3c ddd4 553d f398 d7bc 5fcc fbbd
00000170: 2b53 1e3e 8df0 c8bd db3f e93c a74f 14bd
00000180: 54b6 02be ebf7 7cbe a3e4 38bb 956e 243d
00000190: 3677 31be f02b 493d 4b0a 27bd 4b05 ea3b
000001a0: 997c a8bd 0501 fb3c f121 32bd 41b3 1dbe
000001b0: 87d7 2dbe b86b 46bc bfd4 26be ab8a d7bc
000001c0: 2277 27bd 64ac 02bd 1a81 c83d 101f 74bd
000001d0: 26cd ddbd 87db 45bc 0bfd 873d e705 4b3c
000001e0: 4956 52bd 6f45 d23d a44d a4bd 9ef5 893e
000001f0: 4754 f63d 5c9f ab3d 6808 15be fa1a 31bd
00000200: dec8 20bc 4b71 a43b 3874 e8bd adaa 82bc
00000210: d463 153d 5695 afbd bdc9 afbd 5a1c c33d
00000220: 0862 863d 3e89 c1bd f441 8cbd 9d27 7e3d
00000230: 7e09 8b3d b3b3 153e cbe8 61bd 3898 20bd
00000240: 50b3 89bd a1d4 c7bd 7e7c c6bd 875e 4ebc
00000250: 1943 153d d9d5 96bc 3407 0cbe a0e5 6ebd
00000260: d00c 1c3d 00c8 debd 8238 d23d dc6d a9bc
00000270: 3408 cdbc ff6c 25bd bfd2 2dbe 9302 a93d
00000280: 840f c5bc 29f9 b3bd 920b b33d 3907 bcbd
0.01819699 -0.03484269 0.25777608 -0.03038147 -0.027758893 -0.14070219 0.052762825 0.044248525
0.067584455 0.04670083 -0.03870026 -0.04998088 -0.10778371 -0.050037436 -0.0007550794 -0.13485572
0.0077169896 -0.06955319 0.054302376 -0.08918436 -0.020342853 -0.078686476 -0.107388854 -0.11826322
-0.0038298166 0.06538687 -0.031256605 -0.15977538 0.012078761 0.12457768 -0.1227412 0.050127927
-0.03466556 -0.045000806 0.011235083 -0.005249422 0.30682188 -0.16442785 -0.07252706 -0.08210246
-0.008800699 0.02227219 -0.11659533 -0.0619574 -0.055279035 0.018564189 -0.06131258 0.10456205
-0.03947875 0.005450253 -0.048970595 0.0053056083 -0.03613741 -0.013138747 -0.11695565 0.03135777
-0.12853417 -0.016829524 0.00025849006 -0.08420154 -0.1193307 -0.03083732 0.045785315 0.08200379
-0.015181402 -0.15200226 -0.032971624 0.020696742 0.13547432 -0.23001221 -0.21254678 0.11559479
0.04956868 -0.12759916 0.05020468 0.01502778 -0.15398958 -0.17267823 -0.0501594 -0.12371655
-0.1117805 0.071591206 0.008479114 -0.12729909 -0.011753205 -0.09797548 -0.15874359 0.009934002
0.008474999 0.052204955 -0.026318049 -0.1229484 0.15461414 -0.098115064 0.028472831 -0.036208775
-0.12764865 -0.24703948 -0.002821245 0.04014452 -0.17330632 0.049114168 -0.0407813 0.0071417443
-0.0822689 0.030640135 -0.0434894 -0.15400411 -0.16976748 -0.012110643 -0.16292094 -0.02631124
-0.0408851 -0.031902686 0.09790249 -0.059599936 -0.108301446 -0.012076265 0.06640061 0.012391544
-0.05135182 0.1026715 -0.08022621 0.26945204 0.120277934 0.08380005 -0.14553988 -0.043238617
-0.0098135155 0.0050183884 -0.11350292 -0.015950525 0.036472157 -0.085734054 -0.085834004 0.09526892
0.06561667 -0.09450005 -0.06848517 0.062049497 0.0678892 0.14619331 -0.05515365 -0.039207667
-0.06723654 -0.097573526 -0.09691714 -0.012595779 0.036440942 -0.018412517 -0.13674623 -0.058324456
0.038098156 -0.10877991 0.10264684 -0.020682268 -0.025028326 -0.04038715 -0.16974925 0.08252444
-0.02405525 -0.08787758 0.08742441 -0.09181065

recog/birnn/bidirectional_rnn/bw/rnn3/input_to_cell_w i1 [164, 164] scale=0.014785782 zero_point=0
00000000: 050c fe11 080b 1515 fe1d e9ee e800 e9f0
00000010: 0dfc 100d 140a f5ef 0100 0608 1a02 fcdd
00000020: f909 0e06 fd01 08e7 f2f5 fd0c fb07 f1fe
00000030: 0716 1413 ebf4 f8ee 03ff fc0e 0509 0809
00000040: 0f03 fef7 03fd fdeb f60c 0608 efe7 11e5
00000050: eb08 fc07 fa1f fa02 0004 0df1 1410 0108
00000060: f8e8 00f4 0504 fd0a 0f04 f5fb 0cfd e604
00000070: efd4 fa05 0d1e ee07 fb02 f209 f70c 0004
00000080: 0601 090d ee0a fdee 08ee 1405 ff01 f8f3
00000090: faf8 0e01 f501 fafa 0bfa 0110 01ee 03fe
000000a0: 02ff 0cef fa0e 14f0 01eb 0105 ea13 0804
000000b0: ecfa 020d fa07 f8ec fd09 fc0b 00f8 f20c
000000c0: 07f9 fceb 070a f008 ff1a fcec f106 d80d
000000d0: 070a 03f5 fe04 f705 fd03 ebf0 06f4 0106
000000e0: ffff 01fd 0500 020a 0024 fe00 07f1 031b
000000f0: 00ee fff0 05e8 0805 fffc 0cf7 040c 0ee8
0.073928915 0.1774294 -0.029571565 0.2513583 0.11828626 0.16264361 0.31050143 0.31050143
-0.029571565 0.42878768 -0.340073 -0.2661441 -0.3548588 0.0 -0.340073 -0.23657252
0.19221517 -0.05914313 0.23657252 0.19221517 0.29571566 0.14785783 -0.16264361 -0.2513583
0.014785782 0.0 0.0887147 0.11828626 0.38443035 0.029571565 -0.05914313 -0.51750237
-0.10350048 0.13307205 0.20700096 0.0887147 -0.04435735 0.014785782 0.11828626 -0.36964455
-0.20700096 -0.16264361 -0.04435735 0.1774294 -0.073928915 0.10350048 -0.22178674 -0.029571565
0.10350048 0.32528722 0.29571566 0.28092986 -0.31050143 -0.1774294 -0.11828626 -0.2661441
0.04435735 -0.014785782 -0.05914313 0.20700096 0.073928915 0.13307205 0.11828626 0.13307205
0.22178674 0.04435735 -0.029571565 -0.13307205 0.04435735 -0.04435735 -0.04435735 -0.31050143
-0.14785783 0.1774294 0.0887147 0.11828626 -0.2513583 -0.36964455 0.2513583 -0.39921612
-0.31050143 0.11828626 -0.05914313 0.10350048 -0.0887147 0.45835924 -0.0887147 0.029571565
0.0 0.05914313 0.19221517 -0.22178674 0.29571566 0.23657252 0.014785782 0.11828626
-0.11828626 -0.3548588 0.0 -0.1774294 0.073928915 0.05914313 -0.04435735 0.14785783
0.22178674 0.05914313 -0.16264361 -0.073928915 0.1774294 -0.04435735 -0.38443035 0.05914313
-0.2513583 -0.65057445 -0.0887147 0.073928915 0.19221517 0.44357347 -0.2661441 0.10350048
-0.073928915 0.029571565 -0.20700096 0.13307205 -0.13307205 0.1774294 0.0 0.05914313
0.0887147 0.014785782 0.13307205 0.19221517 -0.2661441 0.14785783 -0.04435735 -0.2661441
0.11828626 -0.2661441 0.29571566 0.073928915 -0.014785782 0.014785782 -0.11828626 -0.19221517
-0.0887147 -0.11828626 0.20700096 0.014785782 -0.16264361 0.014785782 -0.0887147 -0.0887147
0.16264361 -0.0887147 0.014785782 0.23657252 0.014785782 -0.2661441 0.04435735 -0.029571565
0.029571565 -0.014785782 0.1774294 -0.2513583 -0.0887147 0.20700096 0.29571566 -0.23657252
0.014785782 -0.31050143 0.014785782 0.073928915 -0.32528722 0.28092986 0.11828626 0.05914313
-0.29571566 -0.0887147 0.029571565 0.19221517 -0.0887147 0.10350048 -0.11828626 -0.29571566
-0.04435735 0.13307205 -0.05914313 0.16264361 0.0 -0.11828626 -0.20700096 0.1774294
0.10350048 -0.10350048 -0.05914313 -0.31050143 0.10350048 0.14785783 -0.23657252 0.11828626
-0.014785782 0.38443035 -0.05914313 -0.29571566 -0.22178674 0.0887147 -0.5914313 0.19221517
0.10350048 0.14785783 0.04435735 -0.16264361 -0.029571565 0.05914313 -0.13307205 0.073928915
-0.04435735 0.04435735 -0.31050143 -0.23657252 0.0887147 -0.1774294 0.014785782 0.0887147
-0.014785782 -0.014785782 0.014785782 -0.04435735 0.073928915 0.0 0.029571565 0.14785783
0.0 0.5322882 -0.029571565 0.0 0.10350048 -0.22178674 0.04435735 0.39921612
0.0 -0.2661441 -0.014785782 -0.23657252 0.073928915 -0.3548588 0.11828626 0.073928915
-0.014785782 -0.05914313 0.1774294 -0.13307205 0.05914313 0.1774294 0.20700096 -0.3548588

recog/birnn/bidirectional_rnn/bw/rnn3/input_to_forget_w i1 [164, 164] scale=0.011692234 zero_point=0
00000000: f50d 07d8 0a23 e301 28f5 dfe7 15f3 06c5
00000010: e419 fd23 da08 12fa 08f2 1bea f2f3 062e
00000020: fbed ea39 07f1 04f6 1002 f502 0fea fa1c
00000030: 0a08 fded f105 fdfc bff5 ec0c 1104 26ff
00000040: f6f6 fa23 f01c 23f6 f7f9 e3e3 fa12 eb1b
00000050: f6f4 def8 f125 f804 0d23 40f2 facf e508
00000060: c8f6 fddb fa06 cae2 dcea ddf3 e902 331d
00000070: 041e 0ffe ed03 0012 f7e6 fc0d 02ea 1e10
00000080: 0d13 1fd8 0714 1c0e f30e e604 0a00 041d
00000090: fcfc 07ff 0d01 e1fe 0f23 d6ef ee02 0f08
000000a0: fd0b f3f5 edfb fc02 0f1a ec0a 30fd dd11
000000b0: f3fc 1be0 f703 0903 0d0a f9ee f401 1901
000000c0: f6ec 0033 00ef 0b24 fee2 18fc 31f1 1bf0
000000d0: e912 ee0e fa04 f5ef e9f0 18fb eddb 0bfc
000000e0: effc 3029 ebff e3e7 0d98 24ef f329 eef3
000000f0: 06fd e417 ecf7 e3eb fd18 0103 03ea 2c22
-0.12861457 0.15199904 0.08184564 -0.46768937 0.11692234 0.4092282 -0.3390748 0.011692234
0.46768937 -0.12861457 -0.38584372 -0.29230586 0.24553692 -0.15199904 0.07015341 -0.6898418
-0.32738256 0.29230586 -0.035076704 0.4092282 -0.4443049 0.093537875 0.21046022 -0.07015341
0.093537875 -0.16369128 0.31569034 -0.25722915 -0.16369128 -0.15199904 0.07015341 0.53784275
-0.05846117 -0.22215246 -0.25722915 0.66645736 0.08184564 -0.17538351 0.046768937 -0.11692234
0.18707575 0.023384469 -0.12861457 0.023384469 0.17538351 -0.25722915 -0.07015341 0.32738256
0.11692234 0.093537875 -0.035076704 -0.22215246 -0.17538351 0.05846117 -0.035076704 -0.046768937
-0.7599952 -0.12861457 -0.23384468 0.14030682 0.19876799 0.046768937 0.4443049 -0.011692234
-0.11692234 -0.11692234 -0.07015341 0.4092282 -0.18707575 0.32738256 0.4092282 -0.11692234
-0.10523011 -0.08184564 -0.3390748 -0.3390748 -0.07015341 0.21046022 -0.24553692 0.31569034
-0.11692234 -0.14030682 -0.39753598 -0.093537875 -0.17538351 0.43261266 -0.093537875 0.046768937
0.15199904 0.4092282 0.748303 -0.16369128 -0.07015341 -0.5729195 -0.31569034 0.093537875
-0.6547651 -0.11692234 -0.035076704 -0.43261266 -0.07015341 0.07015341 -0.6313807 -0.35076702
-0.42092043 -0.25722915 -0.4092282 -0.15199904 -0.26892138 0.023384469 0.59630394 0.3390748
0.046768937 0.35076702 0.17538351 -0.023384469 -0.22215246 0.035076704 0.0 0.21046022
-0.10523011 -0.30399808 -0.046768937 0.15199904 0.023384469 -0.25722915 0.35076702 0.18707575
0.15199904 0.22215246 0.36245927 -0.46768937 0.08184564 0.23384468 0.32738256 0.16369128
-0.15199904 0.16369128 -0.30399808 0.046768937 0.11692234 0.0 0.046768937 0.3390748
-0.046768937 -0.046768937 0.08184564 -0.011692234 0.15199904 0.011692234 -0.36245927 -0.023384469
0.17538351 0.4092282 -0.49107385 -0.19876799 -0.21046022 0.023384469 0.17538351 0.093537875
-0.035076704 0.12861457 -0.15199904 -0.12861457 -0.22215246 -0.05846117 -0.046768937 0.023384469
0.17538351 0.30399808 -0.23384468 0.11692234 0.56122726 -0.035076704 -0.4092282 0.19876799
-0.15199904 -0.046768937 0.31569034 -0.3741515 -0.10523011 0.035076704 0.10523011 0.035076704
0.15199904 0.11692234 -0.08184564 -0.21046022 -0.14030682 0.011692234 0.29230586 0.011692234
-0.11692234 -0.23384468 0.0 0.59630394 0.0 -0.19876799 0.12861457 0.42092043
-0.023384469 -0.35076702 0.28061363 -0.046768937 0.5729195 -0.17538351 0.31569034 -0.18707575
-0.26892138 0.21046022 -0.21046022 0.16369128 -0.07015341 0.046768937 -0.12861457 -0.19876799
-0.26892138 -0.18707575 0.28061363 -0.05846117 -0.22215246 -0.43261266 0.12861457 -0.046768937
-0.19876799 -0.046768937 0.56122726 0.47938162 -0.24553692 -0.011692234 -0.3390748 -0.29230586
0.15199904 -1.2159923 0.42092043 -0.19876799 -0.15199904 0.47938162 -0.21046022 -0.15199904
0.07015341 -0.035076704 -0.32738256 0.26892138 -0.23384468 -0.10523011 -0.3390748 -0.24553692
-0.035076704 0.28061363 0.011692234 0.035076704 0.035076704 -0.25722915 0.5144583 0.39753598

recog/birnn/bidirectional_rnn/bw/rnn3/input_to_input_w i1 [164, 164] scale=0.017757766 zero_point=0
00000000: fcfe 0407 f9f9 0003 f216 130f 15fe 02f5
00000010: 15fc 070b eaec 0603 04f3 0cfa f8ec 1602
00000020: feef f3f2 280c f8f5 eefc f106 f4e8 ee02
00000030: 0206 e405 fe0c 10f5 0dfb ff00 e2f2 fd0a
00000040: 06fe f2ed faf6 ecf6 f9e9 ed09 0f10 fef1
00000050: 09f7 0905 e21d f606 f4d7 d50c 1516 e6f2
00000060: f90d 01ff 0ff6 04fc f1f1 15f8 feeb 07f2
00000070: f709 fd16 0f0a 00fa fdff f9f4 f2f3 03fd
00000080: 0d07 0b13 fffd eafb 11f1 ec18 02f6 fce7
00000090: eeef ff16 d500 ecf9 0211 fd09 f507 0213
000000a0: 04ef 0d03 fb00 fe01 110b 0019 ff0c f115
000000b0: 01ec f317 fdef 00f4 0de5 00f8 e8fb 0af5
000000c0: 01fc fbf0 040a fdfd 0007 f5f8 f7fd 0206
000000d0: 0412 0709 0805 02f5 f705 0404 fd0e 0703
000000e0: 03fd 15f9 f8ff 03f5 001c 0afe fef8 0808
000000f0: fbfd 06f8 080d 0a06 f30b f1ee 16fc effc
-0.071031064 -0.035515532 0.071031064 0.12430436 -0.12430436 -0.12430436 0.0 0.053273298
-0.24860872 0.39067084 0.33739755 0.26636648 0.3729131 -0.035515532 0.035515532 -0.19533542
0.3729131 -0.071031064 0.12430436 0.19533542 -0.39067084 -0.35515532 0.106546596 0.053273298
0.071031064 -0.23085096 0.21309319 -0.106546596 -0.14206213 -0.35515532 0.39067084 0.035515532
-0.035515532 -0.30188203 -0.23085096 -0.24860872 0.71031064 0.21309319 -0.14206213 -0.19533542
-0.3196398 -0.071031064 -0.26636648 0.106546596 -0.21309319 -0.42618638 -0.3196398 0.035515532
0.035515532 0.106546596 -0.49721745 0.08878883 -0.035515532 0.21309319 0.28412426 -0.19533542
0.23085096 -0.08878883 -0.017757766 0.0 -0.53273296 -0.24860872 -0.053273298 0.17757766
0.106546596 -0.035515532 -0.24860872 -0.33739755 -0.106546596 -0.17757766 -0.35515532 -0.17757766
-0.12430436 -0.4084286 -0.33739755 0.1598199 0.26636648 0.28412426 -0.035515532 -0.26636648
0.1598199 -0.1598199 0.1598199 0.08878883 -0.53273296 0.5149752 -0.17757766 0.106546596
-0.21309319 -0.7280684 -0.76358396 0.21309319 0.3729131 0.39067084 -0.46170193 -0.24860872
-0.12430436 0.23085096 0.017757766 -0.017757766 0.26636648 -0.17757766 0.071031064 -0.071031064
-0.26636648 -0.26636648 0.3729131 -0.14206213 -0.035515532 -0.3729131 0.12430436 -0.24860872
-0.1598199 0.1598199 -0.053273298 0.39067084 0.26636648 0.17757766 0.0 -0.106546596
-0.053273298 -0.017757766 -0.12430436 -0.21309319 -0.24860872 -0.23085096 0.053273298 -0.053273298
0.23085096 0.12430436 0.19533542 0.33739755 -0.017757766 -0.053273298 -0.39067084 -0.08878883
0.30188203 -0.26636648 -0.35515532 0.42618638 0.035515532 -0.17757766 -0.071031064 -0.44394416
-0.3196398 -0.30188203 -0.017757766 0.39067084 -0.76358396 0.0 -0.35515532 -0.12430436
0.035515532 0.30188203 -0.053273298 0.1598199 -0.19533542 0.12430436 0.035515532 0.33739755
0.071031064 -0.30188203 0.23085096 0.053273298 -0.08878883 0.0 -0.035515532 0.017757766
0.30188203 0.19533542 0.0 0.44394416 -0.017757766 0.21309319 -0.26636648 0.3729131
0.017757766 -0.35515532 -0.23085096 0.4084286 -0.053273298 -0.30188203 0.0 -0.21309319
0.23085096 -0.47945967 0.0 -0.14206213 -0.42618638 -0.08878883 0.17757766 -0.19533542
0.017757766 -0.071031064 -0.08878883 -0.28412426 0.071031064 0.17757766 -0.053273298 -0.053273298
0.0 0.12430436 -0.19533542 -0.14206213 -0.1598199 -0.053273298 0.035515532 0.106546596
0.071031064 0.3196398 0.12430436 0.1598199 0.14206213 0.08878883 0.035515532 -0.19533542
-0.1598199 0.08878883 0.071031064 0.071031064 -0.053273298 0.24860872 0.12430436 0.053273298
0.053273298 -0.053273298 0.3729131 -0.12430436 -0.14206213 -0.017757766 0.053273298 -0.19533542
0.0 0.49721745 0.17757766 -0.035515532 -0.035515532 -0.14206213 0.14206213 0.14206213
-0.08878883 -0.053273298 0.106546596 -0.14206213 0.14206213 0.23085096 0.17757766 0.106546596
-0.23085096 0.19533542 -0.26636648 -0.3196398 0.39067084 -0.071031064 -0.30188203 -0.071031064

recog/birnn/bidirectional_rnn/bw/rnn3/input_to_output_w i1 [164, 164] scale=0.015422076 zero_point=0
00000000: e80f 0a15 0d27 f6f5 0036 f311 29eb f905
00000010: 12ed 2e0a ee17 2634 f808 271b f604 ee0d
00000020: 040a 10e3 fff2 04f7 3505 13e7 131f 0e08
00000030: f9f8 0b1d e21a 23f2 e9fb fd04 ede4 fa01
00000040: feeb fb2d f300 11f5 fa15 f6fa 4002 fe0f
00000050: 1f02 ffff 1c05 1919 e1fd 1a1e 2500 df13
00000060: d70f 03fe fdf7 f7e8 fb10 1af9 f6ec 4f0d
00000070: 1af2 f5e8 eb14 f8fd 0ff5 18ff 0636 0808
00000080: 1d0c f103 2b0c eff2 0728 011a 04fd 01f4
00000090: 021b 1a07 1df8 f40d 0008 0b02 e6f2 010d
000000a0: fdf5 23e9 e7ee 23fc 08e8 070c 0607 fd02
000000b0: 22fb 080f 0206 0811 160c fc2a 0f17 0320
000000c0: 12f7 0204 ea07 0f05 e2fd 0ce3 fb04 f208
000000d0: ff47 031e ef31 fb05 0afd 0e00 0100 16f5
000000e0: 0f06 3108 f304 ecf6 1e18 f5f8 f900 fa1d
000000f0: f2f8 eff4 f222 090d 0c1c f814 0df6 0932
-0.37012982 0.23133114 0.15422076 0.3238636 0.20048699 0.60146093 -0.15422076 -0.16964284
0.0 0.8327921 -0.20048699 0.2621753 0.63230515 -0.3238636 -0.10795453 0.07711038
0.27759737 -0.29301944 0.7094155 0.15422076 -0.27759737 0.35470775 0.5860389 0.80194795
-0.12337661 0.12337661 0.60146093 0.41639605 -0.15422076 0.061688304 -0.27759737 0.20048699
0.061688304 0.15422076 0.24675322 -0.4472402 -0.015422076 -0.21590906 0.061688304 -0.13879868
0.81737006 0.07711038 0.29301944 -0.3855519 0.29301944 0.47808436 0.21590906 0.12337661
-0.10795453 -0.12337661 0.16964284 0.4472402 -0.46266228 0.40097398 0.5397726 -0.21590906
-0.35470775 -0.07711038 -0.046266228 0.061688304 -0.29301944 -0.43181813 -0.092532456 0.015422076
-0.030844152 -0.3238636 -0.07711038 0.69399345 -0.20048699 0.0 0.2621753 -0.16964284
-0.092532456 0.3238636 -0.15422076 -0.092532456 0.98701286 0.030844152 -0.030844152 0.23133114
0.47808436 0.030844152 -0.015422076 -0.015422076 0.43181813 0.07711038 0.3855519 0.3855519
-0.47808436 -0.046266228 0.40097398 0.46266228 0.57061684 0.0 -0.50892854 0.29301944
-0.63230515 0.23133114 0.046266228 -0.030844152 -0.046266228 -0.13879868 -0.13879868 -0.37012982
-0.07711038 0.24675322 0.40097398 -0.10795453 -0.15422076 -0.30844152 1.218344 0.20048699
0.40097398 -0.21590906 -0.16964284 -0.37012982 -0.3238636 0.30844152 -0.12337661 -0.046266228
0.23133114 -0.16964284 0.37012982 -0.015422076 0.092532456 0.8327921 0.12337661 0.12337661
0.4472402 0.18506491 -0.23133114 0.046266228 0.66314924 0.18506491 -0.2621753 -0.21590906
0.10795453 0.61688304 0.015422076 0.40097398 0.061688304 -0.046266228 0.015422076 -0.18506491
0.030844152 0.41639605 0.40097398 0.10795453 0.4472402 -0.12337661 -0.18506491 0.20048699
0.0 0.12337661 0.16964284 0.030844152 -0.40097398 -0.21590906 0.015422076 0.20048699
-0.046266228 -0.16964284 0.5397726 -0.35470775 -0.3855519 -0.27759737 0.5397726 -0.061688304
0.12337661 -0.37012982 0.10795453 0.18506491 0.092532456 0.10795453 -0.046266228 0.030844152
0.5243506 -0.07711038 0.12337661 0.23133114 0.030844152 0.092532456 0.12337661 0.2621753
0.33928567 0.18506491 -0.061688304 0.6477272 0.23133114 0.35470775 0.046266228 0.49350643
0.27759737 -0.13879868 0.030844152 0.061688304 -0.33928567 0.10795453 0.23133114 0.07711038
-0.46266228 -0.046266228 0.18506491 -0.4472402 -0.07711038 0.061688304 -0.21590906 0.12337661
-0.015422076 1.0949674 0.046266228 0.46266228 -0.2621753 0.75568175 -0.07711038 0.07711038
0.15422076 -0.046266228 0.21590906 0.0 0.015422076 0.0 0.33928567 -0.16964284
0.23133114 0.092532456 0.75568175 0.12337661 -0.20048699 0.061688304 -0.30844152 -0.15422076
0.46266228 0.37012982 -0.16964284 -0.12337661 -0.10795453 0.0 -0.092532456 0.4472402
-0.21590906 -0.12337661 -0.2621753 -0.18506491 -0.21590906 0.5243506 0.13879868 0.20048699
0.18506491 0.43181813 -0.12337661 0.30844152 0.20048699 -0.15422076 0.13879868 0.7711038
