system/system/saiv/textrecognition/stride/mSTR_Cyrillic_CNN.tflite (tflite, 186336 bytes, 13 tensors)

recog/cnn/GSE_A_1/GSE_A_1_fully_connected1/GSE_A_1_fully_connected1/MatMul i1 [6, 96] scale=0.010906454 zero_point=0
00000000: e950 00ff 8a29 09e8 684e 17e1 01f8 e4dc
00000010: 2ed7 29f5 38f9 f625 0601 e61e 073f f7ea
00000020: 0729 0d23 1633 200b 0e11 edd9 f7e9 2bc1
00000030: f20e f344 f854 01be 4efc e8ff 070b 1805
00000040: 07fb 411f c5e6 e7dd 252d 15e9 07f5 f8fd
00000050: ff17 1275 dedc 06ef 1a2c 43f1 5fe8 1ce9
00000060: 54e1 ea32 7f27 2ef9 eadd 1c60 2d12 ef6d
00000070: 1529 2447 fd5c 0512 ede8 2808 04d9 371c
00000080: 3220 4929 071c f007 2425 292d 3ee3 e234
00000090: ee30 2ff8 21dd 2f1e dc33 1e00 0f48 dff3
000000a0: 2156 0607 2c33 205f e80b 17ee 3df1 4c21
000000b0: 3228 18cd 0a12 4662 ff05 f161 d552 140f
000000c0: 05e9 1d09 00c8 fa18 fc1e e325 f5f6 3313
000000d0: db15 275d 2a0c 17ce 4544 e806 fe17 fc00
000000e0: efac ee2d eb34 f342 2826 dbf3 e82a 0bf4
000000f0: 3702 3a00 fe07 3ff8 24f8 fbe7 f90d 2422
-0.25084844 0.87251633 0.0 -0.010906454 -1.2869616 0.44716462 0.09815809 -0.2617549
1.1342713 0.8507034 0.25084844 -0.33810008 0.010906454 -0.08725163 -0.3053807 -0.39263237
0.5016969 -0.44716462 0.44716462 -0.11997099 0.6107614 -0.076345176 -0.10906454 0.4035388
0.065438725 0.010906454 -0.28356782 0.32719362 0.076345176 0.6871066 -0.09815809 -0.23994198
0.076345176 0.44716462 0.14178391 0.3817259 0.23994198 0.5562292 0.34900653 0.11997099
0.15269035 0.18540972 -0.20722263 -0.4253517 -0.09815809 -0.25084844 0.46897754 -0.6871066
-0.15269035 0.15269035 -0.14178391 0.7416389 -0.08725163 0.91614217 0.010906454 -0.719826
0.8507034 -0.043625817 -0.2617549 -0.010906454 0.076345176 0.11997099 0.2617549 0.05453227
0.076345176 -0.05453227 0.7089195 0.33810008 -0.6434808 -0.28356782 -0.27266136 -0.3817259
0.4035388 0.49079043 0.22903554 -0.25084844 0.076345176 -0.11997099 -0.08725163 -0.032719363
-0.010906454 0.25084844 0.19631618 1.2760551 -0.37081945 -0.39263237 0.065438725 -0.18540972
0.28356782 0.47988397 0.73073244 -0.16359681 1.0361131 -0.2617549 0.3053807 -0.25084844
0.91614217 -0.33810008 -0.23994198 0.5453227 1.3851197 0.4253517 0.5016969 -0.076345176
-0.23994198 -0.3817259 0.3053807 1.0470196 0.49079043 0.19631618 -0.18540972 1.1888036
0.22903554 0.44716462 0.39263237 0.7743583 -0.032719363 1.0033938 0.05453227 0.19631618
-0.20722263 -0.2617549 0.43625817 0.08725163 0.043625817 -0.4253517 0.599855 0.3053807
0.5453227 0.34900653 0.7961711 0.44716462 0.076345176 0.3053807 -0.17450327 0.076345176
0.39263237 0.4035388 0.44716462 0.49079043 0.67620015 -0.31628716 -0.32719362 0.56713563
-0.19631618 0.5235098 0.51260334 -0.08725163 0.359913 -0.3817259 0.51260334 0.32719362
-0.39263237 0.5562292 0.32719362 0.0 0.16359681 0.78526473 -0.359913 -0.14178391
0.359913 0.9379551 0.065438725 0.076345176 0.47988397 0.5562292 0.34900653 1.0361131
-0.2617549 0.11997099 0.25084844 -0.19631618 0.6652937 -0.16359681 0.8288905 0.359913
0.5453227 0.43625817 0.2617549 -0.5562292 0.10906454 0.19631618 0.7634518 1.0688325
-0.010906454 0.05453227 -0.16359681 1.057926 -0.46897754 0.89432925 0.21812908 0.16359681
0.05453227 -0.25084844 0.31628716 0.09815809 0.0 -0.6107614 -0.065438725 0.2617549
-0.043625817 0.32719362 -0.31628716 0.4035388 -0.11997099 -0.10906454 0.5562292 0.20722263
-0.4035388 0.22903554 0.4253517 1.0143002 0.45807108 0.13087745 0.25084844 -0.5453227
0.75254536 0.7416389 -0.2617549 0.065438725 -0.021812908 0.25084844 -0.043625817 0.0
-0.18540972 -0.91614217 -0.19631618 0.49079043 -0.22903554 0.56713563 -0.14178391 0.719826
0.43625817 0.41444525 -0.4035388 -0.14178391 -0.2617549 0.45807108 0.11997099 -0.13087745
0.599855 0.021812908 0.6325743 0.0 -0.021812908 0.076345176 0.6871066 -0.08725163
0.39263237 -0.08725163 -0.05453227 -0.27266136 -0.076345176 0.14178391 0.39263237 0.37081945

recog/cnn/GSE_A_1/GSE_A_1_fully_connected2/GSE_A_1_fully_connected2/MatMul i1 [96, 6] scale=0.018042142 zero_point=0
00000000: 0ff1 0201 01fe fcff f509 fd0a f40f fb04
00000010: 08f6 f7f9 03fd 060d 3934 361e 022b 3b2d
00000020: 2f1a 032a 0c07 f503 05f5 faf8 13fb 02f9
00000030: 2337 231c 0439 12fc 092e 0220 2c1b 2d20
00000040: 033b 676c 7648 0062 371b 2f29 0023 5559
00000050: 5f21 0a5c 1e32 2809 0223 3612 2437 ff21
00000060: 0903 1c0d fb20 1807 211c f616 e2fa e5fd
00000070: 0ce1 1a09 0f14 0408 fd06 fffb faff 16fe
00000080: 150a 0609 2238 4315 0c36 3936 4b25 0b53
00000090: 0b06 0f16 ff0e 3e3e 3a2e f44a 1c0d 0e3b
000000a0: 0928 2a43 3005 083f 0920 1506 ff16 1436
000000b0: 0e0c 080b 3924 3a2a 0832 312c 301c 0b34
000000c0: 2311 1515 f724 f804 0d0a 09f3 3416 2b20
000000d0: f42f f6e6 0c0b fb00 162b 372c 0231 15f0
000000e0: fb0f 01f4 425e 4a27 fd42 112c 1b15 fa29
000000f0: 011d 1c09 020b e20b ec03 fcdf 647f 7916
0.27063212 -0.27063212 0.036084283 0.018042142 0.018042142 -0.036084283 -0.07216857 -0.018042142
-0.19846356 0.16237928 -0.054126427 0.18042141 -0.2165057 0.27063212 -0.090210706 0.07216857
0.14433713 -0.18042141 -0.16237928 -0.12629499 0.054126427 -0.054126427 0.10825285 0.23454784
1.0284021 0.93819135 0.97427565 0.54126424 0.036084283 0.7758121 1.0644864 0.8118964
0.8479807 0.46909568 0.054126427 0.75776994 0.2165057 0.12629499 -0.19846356 0.054126427
0.090210706 -0.19846356 -0.10825285 -0.14433713 0.34280068 -0.090210706 0.036084283 -0.12629499
0.631475 0.9923178 0.631475 0.50517994 0.07216857 1.0284021 0.32475856 -0.07216857
0.16237928 0.82993853 0.036084283 0.57734853 0.79385424 0.48713782 0.8118964 0.57734853
0.054126427 1.0644864 1.8583406 1.9485513 2.1289728 1.2990342 0.0 1.7681298
0.9923178 0.48713782 0.8479807 0.7397278 0.0 0.631475 1.5335821 1.6057506
1.7140034 0.5953907 0.18042141 1.6598771 0.54126424 0.90210706 0.72168565 0.16237928
0.036084283 0.631475 0.97427565 0.32475856 0.6495171 0.9923178 -0.018042142 0.5953907
0.16237928 0.054126427 0.50517994 0.23454784 -0.090210706 0.57734853 0.4330114 0.12629499
0.5953907 0.50517994 -0.18042141 0.39692712 -0.54126424 -0.10825285 -0.48713782 -0.054126427
0.2165057 -0.5593064 0.46909568 0.16237928 0.27063212 0.36084282 0.07216857 0.14433713
-0.054126427 0.10825285 -0.018042142 -0.090210706 -0.10825285 -0.018042142 0.39692712 -0.036084283
0.37888497 0.18042141 0.10825285 0.16237928 0.6134328 1.0103599 1.2088234 0.37888497
0.2165057 0.97427565 1.0284021 0.97427565 1.3531606 0.66755927 0.19846356 1.4974978
0.19846356 0.10825285 0.27063212 0.39692712 -0.018042142 0.25258997 1.1186128 1.1186128
1.0464442 0.82993853 -0.2165057 1.3351185 0.50517994 0.23454784 0.25258997 1.0644864
0.16237928 0.72168565 0.75776994 1.2088234 0.8660228 0.090210706 0.14433713 1.136655
0.16237928 0.57734853 0.37888497 0.10825285 -0.018042142 0.39692712 0.36084282 0.97427565
0.25258997 0.2165057 0.14433713 0.19846356 1.0284021 0.6495171 1.0464442 0.75776994
0.14433713 0.90210706 0.8840649 0.79385424 0.8660228 0.50517994 0.19846356 0.93819135
0.631475 0.3067164 0.37888497 0.37888497 -0.16237928 0.6495171 -0.14433713 0.07216857
0.23454784 0.18042141 0.16237928 -0.23454784 0.93819135 0.39692712 0.7758121 0.57734853
-0.2165057 0.8479807 -0.18042141 -0.46909568 0.2165057 0.19846356 -0.090210706 0.0
0.39692712 0.7758121 0.9923178 0.79385424 0.036084283 0.8840649 0.37888497 -0.28867427
-0.090210706 0.27063212 0.018042142 -0.2165057 1.1907814 1.6959614 1.3351185 0.7036435
-0.054126427 1.1907814 0.3067164 0.79385424 0.48713782 0.37888497 -0.10825285 0.7397278
0.018042142 0.5232221 0.50517994 0.16237928 0.036084283 0.19846356 -0.54126424 0.19846356
-0.36084282 0.054126427 -0.07216857 -0.5953907 1.8042141 2.291352 2.183099 0.39692712

recog/cnn/GSE_B_2/GSE_B_2_fully_connected1/GSE_B_2_fully_connected1/MatMul i1 [9, 156] scale=0.011195638 zero_point=0
00000000: 04fc ee07 0b09 f4f0 fdf4 eef7 0eff 0b00
00000010: 09f2 fdf2 f0fa 0402 0d04 f609 f3f7 08f1
00000020: 0cf9 0e01 05f3 f40b f1f7 0200 f6f9 09f1
00000030: f203 edf3 10fc 0e0b f4f5 f5f6 030b 000b
00000040: f4fb 01f5 0601 0af6 01ed f105 0df2 0706
00000050: fcf1 00f2 03ef fbf7 0f0e f2f2 0f10 eef1
00000060: fef9 010e f7fa 03f0 fc0c 0d08 fc00 08fe
00000070: fefd f405 0bee f0f7 ee0c f305 f80c f308
00000080: f109 090a 0d03 fbef 0f0c fcf3 0dfd fd00
00000090: 00fa f1f1 f6fb 0006 09f6 0ff1 e4f4 40c6
000000a0: fc3a 1316 3cb9 0e10 223f 01fa 08d8 f733
000000b0: 3623 151c 7013 cef5 bcf2 0740 1ae8 4325
000000c0: 3b12 0411 611a 17d4 d606 3738 df26 432a
000000d0: 063b 4f0f 13e3 1906 7f26 9610 e81f 1601
000000e0: 0f35 db2f d012 2003 1bf4 22fa 3220 2703
000000f0: 2837 1026 0aef efe7 49fe 4f17 35ee 3848
0.044782553 -0.044782553 -0.20152149 0.07836947 0.12315202 0.10076074 -0.13434766 -0.17913021
-0.033586916 -0.13434766 -0.20152149 -0.10076074 0.15673894 -0.011195638 0.12315202 0.0
0.10076074 -0.15673894 -0.033586916 -0.15673894 -0.17913021 -0.06717383 0.044782553 0.022391276
0.14554329 0.044782553 -0.11195638 0.10076074 -0.14554329 -0.10076074 0.089565106 -0.16793457
0.13434766 -0.07836947 0.15673894 0.011195638 0.05597819 -0.14554329 -0.13434766 0.12315202
-0.16793457 -0.10076074 0.022391276 0.0 -0.11195638 -0.07836947 0.10076074 -0.16793457
-0.15673894 0.033586916 -0.21271713 -0.14554329 0.17913021 -0.044782553 0.15673894 0.12315202
-0.13434766 -0.12315202 -0.12315202 -0.11195638 0.033586916 0.12315202 0.0 0.12315202
-0.13434766 -0.05597819 0.011195638 -0.12315202 0.06717383 0.011195638 0.11195638 -0.11195638
0.011195638 -0.21271713 -0.16793457 0.05597819 0.14554329 -0.15673894 0.07836947 0.06717383
-0.044782553 -0.16793457 0.0 -0.15673894 0.033586916 -0.19032586 -0.05597819 -0.10076074
0.16793457 0.15673894 -0.15673894 -0.15673894 0.16793457 0.17913021 -0.20152149 -0.16793457
-0.022391276 -0.07836947 0.011195638 0.15673894 -0.10076074 -0.06717383 0.033586916 -0.17913021
-0.044782553 0.13434766 0.14554329 0.089565106 -0.044782553 0.0 0.089565106 -0.022391276
-0.022391276 -0.033586916 -0.13434766 0.05597819 0.12315202 -0.20152149 -0.17913021 -0.10076074
-0.20152149 0.13434766 -0.14554329 0.05597819 -0.089565106 0.13434766 -0.14554329 0.089565106
-0.16793457 0.10076074 0.10076074 0.11195638 0.14554329 0.033586916 -0.05597819 -0.19032586
0.16793457 0.13434766 -0.044782553 -0.14554329 0.14554329 -0.033586916 -0.033586916 0.0
0.0 -0.06717383 -0.16793457 -0.16793457 -0.11195638 -0.05597819 0.0 0.06717383
0.10076074 -0.11195638 0.16793457 -0.16793457 -0.31347787 -0.13434766 0.71652085 -0.649347
-0.044782553 0.649347 0.21271713 0.24630404 0.67173827 -0.7948903 0.15673894 0.17913021
0.3806517 0.7053252 0.011195638 -0.06717383 0.089565106 -0.44782552 -0.10076074 0.57097757
0.6045645 0.39184734 0.2351084 0.31347787 1.2539115 0.21271713 -0.5597819 -0.12315202
-0.7613034 -0.15673894 0.07836947 0.71652085 0.29108658 -0.26869532 0.75010777 0.4142386
0.66054267 0.20152149 0.044782553 0.19032586 1.085977 0.29108658 0.25749967 -0.49260807
-0.4702168 0.06717383 0.6157601 0.62695575 -0.36945605 0.42543426 0.75010777 0.4702168
0.06717383 0.66054267 0.88445544 0.16793457 0.21271713 -0.3246735 0.27989095 0.06717383
1.421846 0.42543426 -1.1867377 0.17913021 -0.26869532 0.3470648 0.24630404 0.011195638
0.16793457 0.5933688 -0.4142386 0.526195 -0.53739065 0.20152149 0.35826042 0.033586916
0.30228224 -0.13434766 0.3806517 -0.06717383 0.5597819 0.35826042 0.4366299 0.033586916
0.44782552 0.6157601 0.17913021 0.42543426 0.11195638 -0.19032586 -0.19032586 -0.27989095
0.8172816 -0.022391276 0.88445544 0.25749967 0.5933688 -0.20152149 0.62695575 0.80608594

recog/cnn/GSE_B_2/GSE_B_2_fully_connected2/GSE_B_2_fully_connected2/MatMul i1 [156, 9] scale=0.011003204 zero_point=0
00000000: f310 f13e 0b0b 3115 430a 5cff 5842 4d4a
00000010: 3861 ee1a f9fe 2e01 faff 1ef6 3505 0865
00000020: 1f2c 380d 070f 0a04 2200 01e6 f1fe 2efe
00000030: 1336 2318 1945 f9e7 f6d4 1507 d211 12ef
00000040: 5ef1 4958 0446 1c73 f3e4 f70d f90b 2534
00000050: e6f7 fd03 2ae7 0726 151b 0152 f762 6a62
00000060: 6d55 54f5 3209 3d34 1256 2425 032f fd06
00000070: 1b02 0ffc 37ff fefe 15d0 f5fa 2f05 112f
00000080: 0b06 1c0f 1a20 3a0c e600 0214 1217 f6fd
00000090: 1124 fb30 f507 12ed 1500 580c 334f 2454
000000a0: 2155 0831 f503 3021 0cf4 1903 fffe 1b16
000000b0: 0d19 f125 0ce9 fcf8 1cf9 fc31 d912 edf2
000000c0: 0efd 1223 f5e1 f522 0d04 240e 1e15 fbf9
000000d0: f00d 1ed1 0a07 e810 094c f83f 0a17 4a15
000000e0: 52f5 37fd 34fd 232c 0320 0a27 0f3e 270f
000000f0: 39ed 59f7 3106 5cfd 261e fc48 0207 0d40
-0.14304164 0.17605126 -0.16504806 0.68219864 0.12103524 0.12103524 0.539157 0.23106727
0.7372146 0.11003204 1.0122948 -0.011003204 0.9682819 0.7262114 0.8472467 0.81423706
0.6161794 1.0673108 -0.19805767 0.28608328 -0.077022426 -0.022006407 0.5061474 0.011003204
-0.06601922 -0.011003204 0.33009613 -0.11003204 0.5831698 0.05501602 0.08802563 1.1113236
0.34109932 0.48414096 0.6161794 0.14304164 0.077022426 0.16504806 0.11003204 0.044012815
0.3741089 0.0 0.011003204 -0.28608328 -0.16504806 -0.022006407 0.5061474 -0.022006407
0.20906088 0.594173 0.38511214 0.2640769 0.27508008 0.7592211 -0.077022426 -0.27508008
-0.11003204 -0.48414096 0.23106727 0.077022426 -0.5061474 0.18705446 0.19805767 -0.18705446
1.0343012 -0.16504806 0.80323386 0.9682819 0.044012815 0.7702243 0.3080897 1.2653685
-0.14304164 -0.3080897 -0.09902883 0.14304164 -0.077022426 0.12103524 0.40711853 0.57216656
-0.28608328 -0.09902883 -0.03300961 0.03300961 0.46213454 -0.27508008 0.077022426 0.41812176
0.23106727 0.2970865 0.011003204 0.9022627 -0.09902883 1.078314 1.1663396 1.078314
1.1993492 0.93527234 0.9242691 -0.12103524 0.55016017 0.09902883 0.67119545 0.57216656
0.19805767 0.94627553 0.39611533 0.40711853 0.03300961 0.5171506 -0.03300961 0.06601922
0.2970865 0.022006407 0.16504806 -0.044012815 0.6051762 -0.011003204 -0.022006407 -0.022006407
0.23106727 -0.5281538 -0.12103524 -0.06601922 0.5171506 0.05501602 0.18705446 0.5171506
0.12103524 0.06601922 0.3080897 0.16504806 0.28608328 0.35210252 0.6381858 0.13203844
-0.28608328 0.0 0.022006407 0.22006407 0.19805767 0.2530737 -0.11003204 -0.03300961
0.18705446 0.39611533 -0.05501602 0.5281538 -0.12103524 0.077022426 0.19805767 -0.20906088
0.23106727 0.0 0.9682819 0.13203844 0.56116337 0.8692531 0.39611533 0.9242691
0.3631057 0.93527234 0.08802563 0.539157 -0.12103524 0.03300961 0.5281538 0.3631057
0.13203844 -0.13203844 0.27508008 0.03300961 -0.011003204 -0.022006407 0.2970865 0.24207048
0.14304164 0.27508008 -0.16504806 0.40711853 0.13203844 -0.2530737 -0.044012815 -0.08802563
0.3080897 -0.077022426 -0.044012815 0.539157 -0.42912495 0.19805767 -0.20906088 -0.15404485
0.15404485 -0.03300961 0.19805767 0.38511214 -0.12103524 -0.34109932 -0.12103524 0.3741089
0.14304164 0.044012815 0.39611533 0.15404485 0.33009613 0.23106727 -0.05501602 -0.077022426
-0.17605126 0.14304164 0.33009613 -0.5171506 0.11003204 0.077022426 -0.2640769 0.17605126
0.09902883 0.8362435 -0.08802563 0.69320184 0.11003204 0.2530737 0.81423706 0.23106727
0.9022627 -0.12103524 0.6051762 -0.03300961 0.57216656 -0.03300961 0.38511214 0.48414096
0.03300961 0.35210252 0.11003204 0.42912495 0.16504806 0.68219864 0.42912495 0.16504806
0.6271826 -0.20906088 0.9792851 -0.09902883 0.539157 0.06601922 1.0122948 -0.03300961
0.41812176 0.33009613 -0.044012815 0.79223067 0.022006407 0.077022426 0.14304164 0.70420504

recog/cnn/conv2d/Conv2D i1 [32, 3, 3, 3]
00000000: 0e25 2f02 6046 f7c0 c23b 3039 ea2a 301a
00000010: 818a f64b 3bcd eee5 f8a8 b4f8 c70d e581
00000020: bb89 95a7 396a f72e 5874 2849 57c6 0b03
00000030: 2529 e71f e7e2 c518 3581 295d ed0a 0fab
00000040: 301d 25ef ea4e f1bf 22dd 0560 eaad 2ddd
00000050: eade df45 eef1 843e 7216 bafa 68f7 8581
00000060: 4069 ffe5 fd63 c19a bf60 4114 2bb3 d8bc
00000070: 81fd 1b2a 0cde 8eea d0e7 ed16 5e05 e5e3
00000080: e223 7f33 336e 2f7f 3e22 5924 eded fdfb
00000090: fd02 fa94 99df d9f3 08f2 e4ef d203 160b
000000a0: 2b11 b0da 1bcd 3ec6 7ff7 14a0 aeba 0348
000000b0: 1e5c 0f29 adf9 d440 12f4 16e2 41c1 46f8
000000c0: e82a ed27 efea 160f d76e a4ea 38cf f712
000000d0: dd12 e3fb 2681 4542 110b 0e30 ecc5 2a15
000000e0: c6be c7fd 81b9 17e7 b1d6 3f48 0a41 423e
000000f0: f037 37f2 fa08 4e60 eb7c 7ff2 b9bb 00ba
14 37 47 2 96 70 -9 -64
-62 59 48 57 -22 42 48 26
-127 -118 -10 75 59 -51 -18 -27
-8 -88 -76 -8 -57 13 -27 -127
-69 -119 -107 -89 57 106 -9 46
88 116 40 73 87 -58 11 3
37 41 -25 31 -25 -30 -59 24
53 -127 41 93 -19 10 15 -85
48 29 37 -17 -22 78 -15 -65
34 -35 5 96 -22 -83 45 -35
-22 -34 -33 69 -18 -15 -124 62
114 22 -70 -6 104 -9 -123 -127
64 105 -1 -27 -3 99 -63 -102
-65 96 65 20 43 -77 -40 -68
-127 -3 27 42 12 -34 -114 -22
-48 -25 -19 22 94 5 -27 -29
-30 35 127 51 51 110 47 127
62 34 89 36 -19 -19 -3 -5
-3 2 -6 -108 -103 -33 -39 -13
8 -14 -28 -17 -46 3 22 11
43 17 -80 -38 27 -51 62 -58
127 -9 20 -96 -82 -70 3 72
30 92 15 41 -83 -7 -44 64
18 -12 22 -30 65 -63 70 -8
-24 42 -19 39 -17 -22 22 15
-41 110 -92 -22 56 -49 -9 18
-35 18 -29 -5 38 -127 69 66
17 11 14 48 -20 -59 42 21
-58 -66 -57 -3 -127 -71 23 -25
-79 -42 63 72 10 65 66 62
-16 55 55 -14 -6 8 78 96
-21 124 127 -14 -71 -69 0 -70

recog/cnn/extra/Conv2D i1 [64, 3, 3, 32]
00000000: e100 01f8 ea03 f413 fff9 2402 0012 0be0
00000010: e9d8 18ff 11fc fbfb f4f8 e5c5 0305 f906
00000020: 000d 1ce5 f90b d308 06e4 f4cf 0e04 f7ec
00000030: 0202 140e 08df dfb8 f0f1 e1f5 0de2 f022
00000040: 110d 4224 2024 2624 fbf5 0de5 fa16 00ef
00000050: 0d18 1a19 2b42 180f e618 4f1c 10e4 f63e
00000060: e4e7 f6d2 e616 dbe7 f4e1 d7d5 0708 1408
00000070: e1cb 1b25 dea2 ebee 18ed 81ea 0af9 18bb
00000080: 0008 01de 0909 e7eb f8d2 9ebf 140b e1fd
00000090: 0100 251d decd fcbf 1005 c519 05e2 faf2
000000a0: f7fc 3aed 032b 1318 0ef0 d4ef f20c f6f9
000000b0: fcfb 3808 1b08 1604 f70f 0626 f3dc e729
000000c0: ecfc 00ee e708 ec0e 10e7 07dd 0c0b 06fc
000000d0: fbf8 2b0d d4d9 ffec 2309 cc02 fe03 1710
000000e0: 1ae9 0b19 0019 0d18 05e8 e2c2 080e 0112
000000f0: 1a19 1b0d d6f3 2f04 0523 fd2c 09ed 1405
-31 0 1 -8 -22 3 -12 19
-1 -7 36 2 0 18 11 -32
-23 -40 24 -1 17 -4 -5 -5
-12 -8 -27 -59 3 5 -7 6
0 13 28 -27 -7 11 -45 8
6 -28 -12 -49 14 4 -9 -20
2 2 20 14 8 -33 -33 -72
-16 -15 -31 -11 13 -30 -16 34
17 13 66 36 32 36 38 36
-5 -11 13 -27 -6 22 0 -17
13 24 26 25 43 66 24 15
-26 24 79 28 16 -28 -10 62
-28 -25 -10 -46 -26 22 -37 -25
-12 -31 -41 -43 7 8 20 8
-31 -53 27 37 -34 -94 -21 -18
24 -19 -127 -22 10 -7 24 -69
0 8 1 -34 9 9 -25 -21
-8 -46 -98 -65 20 11 -31 -3
1 0 37 29 -34 -51 -4 -65
16 5 -59 25 5 -30 -6 -14
-9 -4 58 -19 3 43 19 24
14 -16 -44 -17 -14 12 -10 -7
-4 -5 56 8 27 8 22 4
-9 15 6 38 -13 -36 -25 41
-20 -4 0 -18 -25 8 -20 14
16 -25 7 -35 12 11 6 -4
-5 -8 43 13 -44 -39 -1 -20
35 9 -52 2 -2 3 23 16
26 -23 11 25 0 25 13 24
5 -24 -30 -62 8 14 1 18
26 25 27 13 -42 -13 47 4
5 35 -3 44 9 -19 20 5

recog/cnn/sepconv-3/separable_conv2d/depthwise1 i1 [1, 3, 3, 64]
00000000: d23c 073a f42e f2c7 1bda 0d37 07ce e01f
00000010: 7fba 19d8 53f0 5fea e3da 7839 baf4 2fbe
00000020: 4af2 ef08 4efc fed3 fc30 1b7f e923 0645
00000030: 592e 0cc8 0ac0 eafa d147 f915 14e7 0cf9
00000040: 2f7f dd00 9581 c481 7f68 4be2 8181 ce98
00000050: 6ff1 7f81 7fa0 7ce1 542b 830a 813d 4181
00000060: 81a5 b520 d330 0dd2 a8f7 8139 3d67 5681
00000070: e17f 02ad 81ac f51c 2539 38e2 7f8b f990
00000080: 1c13 24fc a7e2 9fc1 324c d1e7 ed1d e681
00000090: 273b 5ca1 38a6 3dd4 504a ecc7 d218 3416
000000a0: 980d e2db d911 cde5 a4a9 8b00 100f 7fe0
000000b0: dc38 33e7 cc81 1307 fda4 81db 4dec f7fa
000000c0: 172c f868 abb1 09a4 f119 dc13 f4be ac1d
000000d0: 0d3b 13ce 0c43 ae2f 7fdd 6af6 f647 07a4
000000e0: 478d e81e 33ca dbc0 d35a df4d 0439 d31d
000000f0: f8e4 8a97 d7d6 5dff 4a3c cbf3 11d4 65b1
-46 60 7 58 -12 46 -14 -57
27 -38 13 55 7 -50 -32 31
127 -70 25 -40 83 -16 95 -22
-29 -38 120 57 -70 -12 47 -66
74 -14 -17 8 78 -4 -2 -45
-4 48 27 127 -23 35 6 69
89 46 12 -56 10 -64 -22 -6
-47 71 -7 21 20 -25 12 -7
47 127 -35 0 -107 -127 -60 -127
127 104 75 -30 -127 -127 -50 -104
111 -15 127 -127 127 -96 124 -31
84 43 -125 10 -127 61 65 -127
-127 -91 -75 32 -45 48 13 -46
-88 -9 -127 57 61 103 86 -127
-31 127 2 -83 -127 -84 -11 28
37 57 56 -30 127 -117 -7 -112
28 19 36 -4 -89 -30 -97 -63
50 76 -47 -25 -19 29 -26 -127
39 59 92 -95 56 -90 61 -44
80 74 -20 -57 -46 24 52 22
-104 13 -30 -37 -39 17 -51 -27
-92 -87 -117 0 16 15 127 -32
-36 56 51 -25 -52 -127 19 7
-3 -92 -127 -37 77 -20 -9 -6
23 44 -8 104 -85 -79 9 -92
-15 25 -36 19 -12 -66 -84 29
13 59 19 -50 12 67 -82 47
127 -35 106 -10 -10 71 7 -92
71 -115 -24 30 51 -54 -37 -64
-45 90 -33 77 4 57 -45 29
-8 -28 -118 -105 -41 -42 93 -1
74 60 -53 -13 17 -44 101 -79

recog/cnn/sepconv-3/separable_conv2d i1 [96, 1, 1, 64]
00000000: d5ea 2bfd f226 1e04 f5e3 0dc9 f3d9 fbf2
00000010: 080c fcac ff50 2d9f 0917 2aef 161d 7f3d
00000020: ce0c 15dc 17f1 301c e923 1101 ed27 20e3
00000030: 142a 0df7 0bd1 f9d2 1cfd dcec c216 2323
00000040: 54d8 552c 05cb d23d 8aea 04fc 37f9 d319
00000050: cf5a a534 f6b6 2adf 0026 7f06 1a3e 1eb5
00000060: 0eb0 ef8d b594 4fff 060b fa1c 1a85 06dd
00000070: 4d1a be1d b9c4 c34d 6fa2 06a9 9723 ef02
00000080: e8f5 d54c f8e5 dde1 e5fa 1415 0616 36c2
00000090: 384c 302c ecdf a323 0b1f 173f e307 f40b
000000a0: fff1 15e4 4ff8 fa09 1005 e1d0 f8dc da0f
000000b0: 0526 0909 d8f4 cfbd 3381 d40a 0acf cef2
000000c0: e647 f455 2ee6 d20a 321f 1535 ef4e dbe5
000000d0: 02f0 fce6 f7f1 7f27 e549 b010 4b46 d5fd
000000e0: e516 46d3 5e06 277e 1733 e22e 2221 cefd
000000f0: e2ef fd08 e9eb 3db4 badc 24fe 1944 ea4c
-43 -22 43 -3 -14 38 30 4
-11 -29 13 -55 -13 -39 -5 -14
8 12 -4 -84 -1 80 45 -97
9 23 42 -17 22 29 127 61
-50 12 21 -36 23 -15 48 28
-23 35 17 1 -19 39 32 -29
20 42 13 -9 11 -47 -7 -46
28 -3 -36 -20 -62 22 35 35
84 -40 85 44 5 -53 -46 61
-118 -22 4 -4 55 -7 -45 25
-49 90 -91 52 -10 -74 42 -33
0 38 127 6 26 62 30 -75
14 -80 -17 -115 -75 -108 79 -1
6 11 -6 28 26 -123 6 -35
77 26 -66 29 -71 -60 -61 77
111 -94 6 -87 -105 35 -17 2
-24 -11 -43 76 -8 -27 -35 -31
-27 -6 20 21 6 22 54 -62
56 76 48 44 -20 -33 -93 35
11 31 23 63 -29 7 -12 11
-1 -15 21 -28 79 -8 -6 9
16 5 -31 -48 -8 -36 -38 15
5 38 9 9 -40 -12 -49 -67
51 -127 -44 10 10 -49 -50 -14
-26 71 -12 85 46 -26 -46 10
50 31 21 53 -17 78 -37 -27
2 -16 -4 -26 -9 -15 127 39
-27 73 -80 16 75 70 -43 -3
-27 22 70 -45 94 6 39 126
23 51 -30 46 34 33 -50 -3
-30 -17 -3 8 -23 -21 61 -76
-70 -36 36 -2 25 68 -22 76

recog/cnn/sepconv-2/separable_conv2d/depthwise1 i1 [1, 3, 3, 96]
00000000: 81f2 2de3 2330 04ef a27f 2bae 2ed7 ac81
00000010: c4d7 f65b b205 8f41 ae2a 04d6 6103 e213
00000020: 5614 d7e0 a8c9 eae0 e1b5 f69f ec55 e360
00000030: d4dc 9ef9 b95d b904 bae2 b95d 85f8 0c33
00000040: c5e1 5002 f62c ebd9 3d07 7b7f fc48 9914
00000050: 3a16 7fa6 1b15 1ad6 bc14 8115 8112 9b32
00000060: b629 0e81 e97e b416 9b71 b8a6 0681 81c8
00000070: e10b 207f 8133 81ae cc18 21af 0781 08b2
00000080: 7f09 819f 8181 1df9 81cc d882 457f c372
00000090: 81c1 814b 617f 8178 814c c97f d8ab 5c6d
000000a0: 8505 537f d154 cc4b 7fd5 7f5c a2ce 8114
000000b0: 7728 3e81 7f7f 7f81 8167 d117 2a17 b827
000000c0: 0434 2f8d d87f 8139 a0fe cbdc b9ac f14c
000000d0: 4e37 4451 8220 af81 19dd a8bb e4a4 66a9
000000e0: 3625 c590 d99b f22d 99af 14a5 5353 e417
000000f0: 95e8 de7f 0b46 dc69 bb66 18fe 5081 7f7f
-127 -14 45 -29 35 48 4 -17
-94 127 43 -82 46 -41 -84 -127
-60 -41 -10 91 -78 5 -113 65
-82 42 4 -42 97 3 -30 19
86 20 -41 -32 -88 -55 -22 -32
-31 -75 -10 -97 -20 85 -29 96
-44 -36 -98 -7 -71 93 -71 4
-70 -30 -71 93 -123 -8 12 51
-59 -31 80 2 -10 44 -21 -39
61 7 123 127 -4 72 -103 20
58 22 127 -90 27 21 26 -42
-68 20 -127 21 -127 18 -101 50
-74 41 14 -127 -23 126 -76 22
-101 113 -72 -90 6 -127 -127 -56
-31 11 32 127 -127 51 -127 -82
-52 24 33 -81 7 -127 8 -78
127 9 -127 -97 -127 -127 29 -7
-127 -52 -40 -126 69 127 -61 114
-127 -63 -127 75 97 127 -127 120
-127 76 -55 127 -40 -85 92 109
-123 5 83 127 -47 84 -52 75
127 -43 127 92 -94 -50 -127 20
119 40 62 -127 127 127 127 -127
-127 103 -47 23 42 23 -72 39
4 52 47 -115 -40 127 -127 57
-96 -2 -53 -36 -71 -84 -15 76
78 55 68 81 -126 32 -81 -127
25 -35 -88 -69 -28 -92 102 -87
54 37 -59 -112 -39 -101 -14 45
-103 -81 20 -91 83 83 -28 23
-107 -24 -34 127 11 70 -36 105
-69 102 24 -2 80 -127 127 127

recog/cnn/sepconv-2/separable_conv2d i1 [156, 1, 1, 96]
00000000: 0215 b2f1 4815 eaed c323 e60a 11fa 4aee
00000010: f814 3cc7 3ae0 d920 e8ee e740 1fcd 227f
00000020: 3415 eed5 d91b 110b e3f7 d8e5 ed3e 02c9
00000030: 0a28 0427 e7f0 12b1 fc94 1300 afff 173b
00000040: ca27 3f2f b1ea faff 3e17 37f5 f752 ffd9
00000050: 38d8 f406 1802 2510 0e3e befc 2e10 0dc0
00000060: e810 ff03 c725 e526 e415 be39 30ca 51c3
00000070: 1b05 cea2 cedd da07 1429 1a11 7f97 34df
00000080: 040f f4f4 e511 13de e2c9 4be6 cf25 d1a1
00000090: 1740 21e5 ad0e 2f12 d60e 0722 06ec d13d
000000a0: 0d71 1539 3f0b 3200 120f f6fd 111c 0c00
000000b0: d83d 47ee f1a3 03ec 091a a8b9 ec16 1246
000000c0: 2eed 24e6 f7cf 1c01 1b10 0f0c f3ec bccb
000000d0: 2506 d501 ff1f 1510 10e9 2cf9 ed03 2307
000000e0: 1381 4400 eb1f 1eb8 d50b f00e d40e 0017
000000f0: d7e4 e714 d026 de2b 1004 f11e 30f5 24e1
2 21 -78 -15 72 21 -22 -19
-61 35 -26 10 17 -6 74 -18
-8 20 60 -57 58 -32 -39 32
-24 -18 -25 64 31 -51 34 127
52 21 -18 -43 -39 27 17 11
-29 -9 -40 -27 -19 62 2 -55
10 40 4 39 -25 -16 18 -79
-4 -108 19 0 -81 -1 23 59
-54 39 63 47 -79 -22 -6 -1
62 23 55 -11 -9 82 -1 -39
56 -40 -12 6 24 2 37 16
14 62 -66 -4 46 16 13 -64
-24 16 -1 3 -57 37 -27 38
-28 21 -66 57 48 -54 81 -61
27 5 -50 -94 -50 -35 -38 7
20 41 26 17 127 -105 52 -33
4 15 -12 -12 -27 17 19 -34
-30 -55 75 -26 -49 37 -47 -95
23 64 33 -27 -83 14 47 18
-42 14 7 34 6 -20 -47 61
13 113 21 57 63 11 50 0
18 15 -10 -3 17 28 12 0
-40 61 71 -18 -15 -93 3 -20
9 26 -88 -71 -20 22 18 70
46 -19 36 -26 -9 -49 28 1
27 16 15 12 -13 -20 -68 -53
37 6 -43 1 -1 31 21 16
16 -23 44 -7 -19 3 35 7
19 -127 68 0 -21 31 30 -72
-43 11 -16 14 -44 14 0 23
-41 -28 -25 20 -48 38 -34 43
16 4 -15 30 48 -11 36 -31

recog/cnn/sepconv-1/separable_conv2d/depthwise1 i1 [1, 3, 3, 156]
00000000: 600b 81dd a310 3609 ec16 eb2b a051 df63
00000010: cdb6 81ce fc65 f013 3bcd f91e da25 f1e6
00000020: eabb 3633 0511 412d f0f2 dfaa dea6 0544
00000030: 36f4 7ffc 1c6b 3eac 12e9 1132 21da f2c2
00000040: e7e6 a5cd f422 f424 04b8 3205 8599 2fde
00000050: c90f 5b9f e66e e616 f8e1 a9f9 a1dc 55ed
00000060: 12e9 e920 1209 afff 0dca ef0b 061a 29df
00000070: e4dc f854 e312 cc16 df2e 031b 0b9b 07e8
00000080: 0cfe edb9 f0e8 7ff4 2de0 1ebd fdee e5e6
00000090: 192b d1da f418 c322 cb39 7fdc 81ad cd2b
000000a0: 9481 547f 81b4 f481 817f 523a 81b9 0181
000000b0: f852 deb0 7f59 05d7 2d45 f003 bc19 f77f
000000c0: 2fed 7f7f 02ae 89d1 8181 7cd4 2f1b 7bc8
000000d0: 796e 5ee2 8ec6 c720 cc43 b281 4a4d a276
000000e0: 2806 e427 bca6 916d f5ce d84f 8dea 7ff8
000000f0: d875 30cf 8181 8124 8181 7e7f 81a0 03ee
96 11 -127 -35 -93 16 54 9
-20 22 -21 43 -96 81 -33 99
-51 -74 -127 -50 -4 101 -16 19
59 -51 -7 30 -38 37 -15 -26
-22 -69 54 51 5 17 65 45
-16 -14 -33 -86 -34 -90 5 68
54 -12 127 -4 28 107 62 -84
18 -23 17 50 33 -38 -14 -62
-25 -26 -91 -51 -12 34 -12 36
4 -72 50 5 -123 -103 47 -34
-55 15 91 -97 -26 110 -26 22
-8 -31 -87 -7 -95 -36 85 -19
18 -23 -23 32 18 9 -81 -1
13 -54 -17 11 6 26 41 -33
-28 -36 -8 84 -29 18 -52 22
-33 46 3 27 11 -101 7 -24
12 -2 -19 -71 -16 -24 127 -12
45 -32 30 -67 -3 -18 -27 -26
25 43 -47 -38 -12 24 -61 34
-53 57 127 -36 -127 -83 -51 43
-108 -127 84 127 -127 -76 -12 -127
-127 127 82 58 -127 -71 1 -127
-8 82 -34 -80 127 89 5 -41
45 69 -16 3 -68 25 -9 127
47 -19 127 127 2 -82 -119 -47
-127 -127 124 -44 47 27 123 -56
121 110 94 -30 -114 -58 -57 32
-52 67 -78 -127 74 77 -94 118
40 6 -28 39 -68 -90 -111 109
-11 -50 -40 79 -115 -22 127 -8
-40 117 48 -49 -127 -127 -127 36
-127 -127 126 127 -127 -96 3 -18

recog/cnn/sepconv-1/separable_conv2d i1 [224, 1, 1, 156]
00000000: 0bd5 3e1b dcd1 c1f2 1521 eb02 2a0b e424
00000010: fb11 b517 0cea f61f e925 221f c222 e61d
00000020: 25f8 f40f 15c3 aa02 0614 24e7 5110 f404
00000030: fdf1 e8c6 d802 3af0 0fec 112a 021d 42ed
00000040: 98df 3dc1 dce8 1335 e550 f9c9 dae7 1909
00000050: fffe e364 2422 0713 21bf e4b8 e97f 2cdc
00000060: e9b6 1306 e9bc 20e2 1043 0ae4 12ca fcc9
00000070: f425 14c9 0914 3811 1906 1af9 094f e621
00000080: 0254 ddf5 120b 061b dfd9 16e4 1f25 121c
00000090: 37eb 010c 1700 060f f0d1 062a fc0e 003c
000000a0: 13c3 e7e4 fbcd e9cc 51e8 fc1f 08dc 03e7
000000b0: ec26 ddfd e4d2 fa15 eef0 e4fe d7f3 f043
000000c0: 02e9 d70f 27d7 f5c8 bdf4 06cc 0803 d8ce
000000d0: faef e0d9 8597 2900 0bd4 0fdb d5ea e913
000000e0: f1f1 b6f9 0df1 d3d8 fce7 e4ef 0605 1a41
000000f0: 0400 e4d2 61b3 c810 f1fc 36dd 03ee 2df0
11 -43 62 27 -36 -47 -63 -14
21 33 -21 2 42 11 -28 36
-5 17 -75 23 12 -22 -10 31
-23 37 34 31 -62 34 -26 29
37 -8 -12 15 21 -61 -86 2
6 20 36 -25 81 16 -12 4
-3 -15 -24 -58 -40 2 58 -16
15 -20 17 42 2 29 66 -19
-104 -33 61 -63 -36 -24 19 53
-27 80 -7 -55 -38 -25 25 9
-1 -2 -29 100 36 34 7 19
33 -65 -28 -72 -23 127 44 -36
-23 -74 19 6 -23 -68 32 -30
16 67 10 -28 18 -54 -4 -55
-12 37 20 -55 9 20 56 17
25 6 26 -7 9 79 -26 33
2 84 -35 -11 18 11 6 27
-33 -39 22 -28 31 37 18 28
55 -21 1 12 23 0 6 15
-16 -47 6 42 -4 14 0 60
19 -61 -25 -28 -5 -51 -23 -52
81 -24 -4 31 8 -36 3 -25
-20 38 -35 -3 -28 -46 -6 21
-18 -16 -28 -2 -41 -13 -16 67
2 -23 -41 15 39 -41 -11 -56
-67 -12 6 -52 8 3 -40 -50
-6 -17 -32 -39 -123 -105 41 0
11 -44 15 -37 -43 -22 -23 19
-15 -15 -74 -7 13 -15 -45 -40
-4 -25 -28 -17 6 5 26 65
4 0 -28 -46 97 -77 -56 16
-15 -4 54 -35 3 -18 45 -16

recog/cnn/conv2d_4/Conv2D i1 [164, 1, 1, 320]
00000000: f3ea 1df9 ff29 e5eb 2f14 e1e9 021f f9ed
00000010: d7ff fad1 0003 d32d 1d0f 2a7f 1027 13f6
00000020: ecf2 1be1 07df 07fe 0a11 dde3 02fc e408
00000030: f60d f91d c50f ef1a 0005 25ff 1def c4fa
00000040: f618 fef3 1d18 17f9 d7e8 f9f1 f711 e9db
00000050: f1fc ea2a ef1c 14e3 2e0d f2f4 fb00 1ff8
00000060: d71d 060b 160c ff15 ef46 0108 fc08 e71c
00000070: 16ea d6ee f4e6 e8fb 091f 21d7 eb00 1201
00000080: 1f01 5507 eadf 0df9 db13 02ec 08fb eb11
00000090: fee7 160b 1705 08f1 f014 ecf3 f70f 1dbe
000000a0: e202 12fc 1e1c e703 dfd6 f101 2c20 03e9
000000b0: 10ea f4ff d21b 1d0c f30b f30c 2a22 ec0e
000000c0: e7e4 e2ca 11e9 29f4 1ff8 db00 0eea 1314
000000d0: 23f9 67ef fc02 0aff f8fe 4ad7 021b 47f8
000000e0: 04ec fdec f5f6 0c01 0ef8 00d7 ef00 07e3
000000f0: 0fec 19ea 14fe dee4 e010 f30b dcf0 0df3
-13 -22 29 -7 -1 41 -27 -21
47 20 -31 -23 2 31 -7 -19
-41 -1 -6 -47 0 3 -45 45
29 15 42 127 16 39 19 -10
-20 -14 27 -31 7 -33 7 -2
10 17 -35 -29 2 -4 -28 8
-10 13 -7 29 -59 15 -17 26
0 5 37 -1 29 -17 -60 -6
-10 24 -2 -13 29 24 23 -7
-41 -24 -7 -15 -9 17 -23 -37
-15 -4 -22 42 -17 28 20 -29
46 13 -14 -12 -5 0 31 -8
-41 29 6 11 22 12 -1 21
-17 70 1 8 -4 8 -25 28
22 -22 -42 -18 -12 -26 -24 -5
9 31 33 -41 -21 0 18 1
31 1 85 7 -22 -33 13 -7
-37 19 2 -20 8 -5 -21 17
-2 -25 22 11 23 5 8 -15
-16 20 -20 -13 -9 15 29 -66
-30 2 18 -4 30 28 -25 3
-33 -42 -15 1 44 32 3 -23
16 -22 -12 -1 -46 27 29 12
-13 11 -13 12 42 34 -20 14
-25 -28 -30 -54 17 -23 41 -12
31 -8 -37 0 14 -22 19 20
35 -7 103 -17 -4 2 10 -1
-8 -2 74 -41 2 27 71 -8
4 -20 -3 -20 -11 -10 12 1
14 -8 0 -41 -17 0 7 -29
15 -20 25 -22 20 -2 -34 -28
-32 16 -13 11 -36 -16 13 -13
