system/system/saiv/textrecognition/stride/mSTR_ChineseJapanese_CNN.tflite (tflite, 189360 bytes, 10 tensors)

recog/cnn/conv2d/Conv2D i1 [32, 3, 3, 3]
00000000: 050c f931 3009 3344 15f1 e611 a68c e69d
00000010: 81d5 070c f231 4b16 2b36 1512 1713 bb8c
00000020: d928 500f 4067 1d1e 211e a581 c8b2 85cc
00000030: 3e6b 1d16 151a 241a 1ab1 b9c9 2928 21c8
00000040: c8d8 657f 44d4 c0e2 1823 0fdd c0ea 0d1c
00000050: 05d3 cbef ded1 f24b 631e e3d4 f027 2606
00000060: f908 0941 5b1b 0c22 0ab5 81dd 273b 17e0
00000070: f2e7 eec6 fd5e 7632 e7ed 05a5 81b8 606a
00000080: 2d06 1918 baa6 d40f 0502 0e1c 07e2 e0fa
00000090: 3e5a 204e 671f 233c fda4 81da bb99 e3f3
000000a0: e903 eb11 06a2 3927 e13a e148 cdee bdfb
000000b0: 43b1 2d20 7fc8 b95a c4e3 01fb 073f 5122
000000c0: 3749 1ef3 f1f1 2330 1594 81c4 d8bc f9ed
000000d0: edee e1c8 eb3c 5325 38ae 1d3f 8140 318f
000000e0: 43d8 35f2 d245 e8db 48dd f812 f3eb 39e0
000000f0: f132 d906 3a17 585c 2406 0209 3554 164e
5 12 -7 49 48 9 51 68
21 -15 -26 17 -90 -116 -26 -99
-127 -43 7 12 -14 49 75 22
43 54 21 18 23 19 -69 -116
-39 40 80 15 64 103 29 30
33 30 -91 -127 -56 -78 -123 -52
62 107 29 22 21 26 36 26
26 -79 -71 -55 41 40 33 -56
-56 -40 101 127 68 -44 -64 -30
24 35 15 -35 -64 -22 13 28
5 -45 -53 -17 -34 -47 -14 75
99 30 -29 -44 -16 39 38 6
-7 8 9 65 91 27 12 34
10 -75 -127 -35 39 59 23 -32
-14 -25 -18 -58 -3 94 118 50
-25 -19 5 -91 -127 -72 96 106
45 6 25 24 -70 -90 -44 15
5 2 14 28 7 -30 -32 -6
62 90 32 78 103 31 35 60
-3 -92 -127 -38 -69 -103 -29 -13
-23 3 -21 17 6 -94 57 39
-31 58 -31 72 -51 -18 -67 -5
67 -79 45 32 127 -56 -71 90
-60 -29 1 -5 7 63 81 34
55 73 30 -13 -15 -15 35 48
21 -108 -127 -60 -40 -68 -7 -19
-19 -18 -31 -56 -21 60 83 37
56 -82 29 63 -127 64 49 -113
67 -40 53 -14 -46 69 -24 -37
72 -35 -8 18 -13 -21 57 -32
-15 50 -39 6 58 23 88 92
36 6 2 9 53 84 22 78

recog/cnn/extra/Conv2D i1 [64, 3, 3, 32]
00000000: 2205 ef10 1ef3 f702 eeed f10e fdfc 01e8
00000010: 03ea f910 0507 ff19 1817 f8f7 db01 1b08
00000020: 0de7 e5ff 1909 0b0a 0af6 edf9 09fe f309
00000030: 1b0e da1a 130d f629 0d1b 04f3 06fb 1808
00000040: 090f f4fe 1df5 03fa 05e3 ee04 09f0 02fb
00000050: eef0 0902 fd13 17eb fbf5 f402 0605 1702
00000060: fcf1 dadc dd19 edef f812 02f8 2316 f811
00000070: f2f8 e926 f6f6 f8e2 eae7 1104 f2ff d4c5
00000080: 0e92 bfa6 b346 ef1c 1f39 1cd3 0126 df4c
00000090: 0035 f01f ecc5 00ea d7ee 0b07 371b a30f
000000a0: ff0a f20c fa08 08fe 06f2 0019 fa0c 2011
000000b0: ebfd 02fc f8ff fcdf e704 16ff 1320 e3ec
000000c0: fbdc 9fde 0a0c 00eb 23fe 4bd9 0f08 00ec
000000d0: f707 3540 f309 020a faf7 edd1 120e 0627
000000e0: f7bb 81d0 f804 0013 2211 54b7 0fda f4dd
000000f0: 3828 1d59 e9e8 ff01 fe06 c4ee 451a f854
34 5 -17 16 30 -13 -9 2
-18 -19 -15 14 -3 -4 1 -24
3 -22 -7 16 5 7 -1 25
24 23 -8 -9 -37 1 27 8
13 -25 -27 -1 25 9 11 10
10 -10 -19 -7 9 -2 -13 9
27 14 -38 26 19 13 -10 41
13 27 4 -13 6 -5 24 8
9 15 -12 -2 29 -11 3 -6
5 -29 -18 4 9 -16 2 -5
-18 -16 9 2 -3 19 23 -21
-5 -11 -12 2 6 5 23 2
-4 -15 -38 -36 -35 25 -19 -17
-8 18 2 -8 35 22 -8 17
-14 -8 -23 38 -10 -10 -8 -30
-22 -25 17 4 -14 -1 -44 -59
14 -110 -65 -90 -77 70 -17 28
31 57 28 -45 1 38 -33 76
0 53 -16 31 -20 -59 0 -22
-41 -18 11 7 55 27 -93 15
-1 10 -14 12 -6 8 8 -2
6 -14 0 25 -6 12 32 17
-21 -3 2 -4 -8 -1 -4 -33
-25 4 22 -1 19 32 -29 -20
-5 -36 -97 -34 10 12 0 -21
35 -2 75 -39 15 8 0 -20
-9 7 53 64 -13 9 2 10
-6 -9 -19 -47 18 14 6 39
-9 -69 -127 -48 -8 4 0 19
34 17 84 -73 15 -38 -12 -35
56 40 29 89 -23 -24 -1 1
-2 6 -60 -18 69 26 -8 84

recog/cnn/sepconv2d_3/separable_conv2d/depthwise1 i1 [1, 3, 3, 64]
00000000: e8e6 140a fdec 02df d4e8 d214 e281 e5c4
00000010: 8164 1412 ed12 fe16 00e8 1012 d5f6 f8eb
00000020: 06fa 7ffe 131a de04 10b9 f8f9 ffbb f9f4
00000030: fe23 d613 f00c 000c 81e0 7f0d fdf6 051f
00000040: 243d fc56 2ba8 7f81 ffa6 2ba6 0f9f f9b7
00000050: e559 0caf 81c2 0fb8 36c8 c201 32fd cd36
00000060: 81c7 5535 d0a6 817f edcd cbe5 ce81 dd5a
00000070: 1bb9 c5de fbec d3b8 c67f dce3 50e5 d9a5
00000080: 3906 fa1d 4509 26e4 0803 daf6 179f fdef
00000090: 9ad6 1d23 07bd 2cf1 0eb0 f506 2605 e029
000000a0: c016 1305 1181 bb35 e4e0 0b02 fe84 89f5
000000b0: 12c3 ed0c f100 0fff 344d 3507 7231 f3e7
000000c0: 12f0 f90a f8e4 0834 da81 2df3 c223 bdae
000000d0: a846 1708 420a f3f9 e20f e681 ef01 ebd9
000000e0: d1df 18fa cd40 a9e7 07ac b0ce 9fe3 f208
000000f0: cdf4 a1e7 f3c2 810a ab87 81f8 03b4 d720
-24 -26 20 10 -3 -20 2 -33
-44 -24 -46 20 -30 -127 -27 -60
-127 100 20 18 -19 18 -2 22
0 -24 16 18 -43 -10 -8 -21
6 -6 127 -2 19 26 -34 4
16 -71 -8 -7 -1 -69 -7 -12
-2 35 -42 19 -16 12 0 12
-127 -32 127 13 -3 -10 5 31
36 61 -4 86 43 -88 127 -127
-1 -90 43 -90 15 -97 -7 -73
-27 89 12 -81 -127 -62 15 -72
54 -56 -62 1 50 -3 -51 54
-127 -57 85 53 -48 -90 -127 127
-19 -51 -53 -27 -50 -127 -35 90
27 -71 -59 -34 -5 -20 -45 -72
-58 127 -36 -29 80 -27 -39 -91
57 6 -6 29 69 9 38 -28
8 3 -38 -10 23 -97 -3 -17
-102 -42 29 35 7 -67 44 -15
14 -80 -11 6 38 5 -32 41
-64 22 19 5 17 -127 -69 53
-28 -32 11 2 -2 -124 -119 -11
18 -61 -19 12 -15 0 15 -1
52 77 53 7 114 49 -13 -25
18 -16 -7 10 -8 -28 8 52
-38 -127 45 -13 -62 35 -67 -82
-88 70 23 8 66 10 -13 -7
-30 15 -26 -127 -17 1 -21 -39
-47 -33 24 -6 -51 64 -87 -25
7 -84 -80 -50 -97 -29 -14 8
-51 -12 -95 -25 -13 -62 -127 10
-85 -121 -127 -8 3 -76 -41 32

recog/cnn/sepconv2d_3/separable_conv2d i1 [96, 1, 1, 64]
00000000: de10 3d07 e3e6 181e 2a2a 2182 21de 16e3
00000010: d7fe 2629 d90a 497f 1b0e fe23 20ef 250a
00000020: 192f 3e39 03e3 f65a 0dcf f926 15dd 103d
00000030: e504 4a3e e9f9 5405 1502 e902 132e 26f7
00000040: 351f f609 22da f124 0026 ee56 fa03 e20f
00000050: 45cc ccd3 7f1c ebe4 8e18 d748 7bd0 12f6
00000060: adc3 4bd6 3617 f0b5 2242 4004 0df6 cde2
00000070: e216 f513 0537 31fb 1222 f4f3 5050 25cb
00000080: 1300 1019 f321 da09 fcfb c570 117f 1a0c
00000090: 0ff9 ef16 cb11 f4fa 0bfe 1e19 06ed ea12
000000a0: 2311 1eeb f8d2 070e d0d6 ee0e 08b3 3702
000000b0: 08d7 060b f942 1311 3ef7 0ff6 e315 34f2
000000c0: edf2 0b2a dee9 3ec8 fbdf 37f7 191f 0df9
000000d0: 06db 23f2 ccf7 e851 11f2 fa27 cf0c 2bf8
000000e0: 1b31 04ee dd27 d9ce c336 f331 0312 3029
000000f0: 9b09 13c8 00ef e906 81dc d71a cff0 ec19
-34 16 61 7 -29 -26 24 30
42 42 33 -126 33 -34 22 -29
-41 -2 38 41 -39 10 73 127
27 14 -2 35 32 -17 37 10
25 47 62 57 3 -29 -10 90
13 -49 -7 38 21 -35 16 61
-27 4 74 62 -23 -7 84 5
21 2 -23 2 19 46 38 -9
53 31 -10 9 34 -38 -15 36
0 38 -18 86 -6 3 -30 15
69 -52 -52 -45 127 28 -21 -28
-114 24 -41 72 123 -48 18 -10
-83 -61 75 -42 54 23 -16 -75
34 66 64 4 13 -10 -51 -30
-30 22 -11 19 5 55 49 -5
18 34 -12 -13 80 80 37 -53
19 0 16 25 -13 33 -38 9
-4 -5 -59 112 17 127 26 12
15 -7 -17 22 -53 17 -12 -6
11 -2 30 25 6 -19 -22 18
35 17 30 -21 -8 -46 7 14
-48 -42 -18 14 8 -77 55 2
8 -41 6 11 -7 66 19 17
62 -9 15 -10 -29 21 52 -14
-19 -14 11 42 -34 -23 62 -56
-5 -33 55 -9 25 31 13 -7
6 -37 35 -14 -52 -9 -24 81
17 -14 -6 39 -49 12 43 -8
27 49 4 -18 -35 39 -39 -50
-61 54 -13 49 3 18 48 41
-101 9 19 -56 0 -17 -23 6
-127 -36 -41 26 -49 -16 -20 25

recog/cnn/sepconv2d_2/separable_conv2d/depthwise1 i1 [1, 3, 3, 96]
00000000: e2ea c0eb 16e0 4af9 da1e ac65 10fe 7f19
00000010: a602 de00 3c0d c1f8 e7ae 27ea 12e9 2689
00000020: 3aca 06f8 7fc5 d01b 0515 1ac2 0281 d1d1
00000030: 063d be18 1bd9 041f f7bc 42ae c4a7 e997
00000040: 15e8 0b95 dc2f 0a24 0509 3bb8 1fc9 04ff
00000050: fa81 3067 81e8 b12a 1557 05e9 f90f 47b8
00000060: d902 a8ee 0dae 7fda 00e2 f43b 567f 2b2a
00000070: 48f5 d7fc 50ed a2aa 2281 fee2 b37f 96d7
00000080: 7f42 bc56 4b95 b95d 81dd 2c81 03d3 ba36
00000090: 3a47 a2ce 55be 1c53 81c1 7f95 818d d086
000000a0: a6fb 2081 e829 f70a 033c 4000 31d5 c715
000000b0: f06b 4d7f e200 dd23 f47f 268f df53 36ce
000000c0: a044 57f3 2aaf 1d02 1d06 f37f 7f40 e767
000000d0: 22c1 3605 06fd b6c5 00d8 8112 3e29 81a4
000000e0: 0d7f 867f 6b81 c0d0 d504 16c1 0eba 3d31
000000f0: c72f 8181 7f29 7f5d fed7 64b0 e3e5 8995
-30 -22 -64 -21 22 -32 74 -7
-38 30 -84 101 16 -2 127 25
-90 2 -34 0 60 13 -63 -8
-25 -82 39 -22 18 -23 38 -119
58 -54 6 -8 127 -59 -48 27
5 21 26 -62 2 -127 -47 -47
6 61 -66 24 27 -39 4 31
-9 -68 66 -82 -60 -89 -23 -105
21 -24 11 -107 -36 47 10 36
5 9 59 -72 31 -55 4 -1
-6 -127 48 103 -127 -24 -79 42
21 87 5 -23 -7 15 71 -72
-39 2 -88 -18 13 -82 127 -38
0 -30 -12 59 86 127 43 42
72 -11 -41 -4 80 -19 -94 -86
34 -127 -2 -30 -77 127 -106 -41
127 66 -68 86 75 -107 -71 93
-127 -35 44 -127 3 -45 -70 54
58 71 -94 -50 85 -66 28 83
-127 -63 127 -107 -127 -115 -48 -122
-90 -5 32 -127 -24 41 -9 10
3 60 64 0 49 -43 -57 21
-16 107 77 127 -30 0 -35 35
-12 127 38 -113 -33 83 54 -50
-96 68 87 -13 42 -81 29 2
29 6 -13 127 127 64 -25 103
34 -63 54 5 6 -3 -74 -59
0 -40 -127 18 62 41 -127 -92
13 127 -122 127 107 -127 -64 -48
-43 4 22 -63 14 -70 61 49
-57 47 -127 -127 127 41 127 93
-2 -41 100 -80 -29 -27 -119 -107

recog/cnn/sepconv2d_2/separable_conv2d i1 [156, 1, 1, 96]
00000000: 03ec 0b05 d7f2 eefd af83 eee8 ec5e e83c
00000010: 3283 ed04 2f81 d3cd f7d3 e500 fc01 a7e7
00000020: 26d5 f545 e029 e2d7 fded e1f0 f3e6 a5af
00000030: 2c91 e3d0 143c 0848 ce34 14f4 e927 df1f
00000040: 0009 db09 18f4 84a6 30bd cf11 f6cf 1e12
00000050: 19c3 f8c2 64ff 1804 e3eb f189 e7cf fae1
00000060: e428 19fa 0212 f5dc 0ef5 edd7 bbf9 12f3
00000070: 2103 1ad0 173d c3e2 317f 18fc 16c7 ec20
00000080: bf2b 0bf8 2631 0dd2 fddd 3226 dd02 0de7
00000090: f1f7 1415 21e8 ecfc daee 1be3 e3d6 0c18
000000a0: a6e4 f6d9 0520 d0fd f3c8 12f0 d12f 3d39
000000b0: 010a 1ef4 2df0 9cf5 16f7 25ed d918 f62d
000000c0: 44c3 d1d4 0612 cd96 f00e 25ba 3afe fb12
000000d0: e523 def1 d245 e316 b35b 2a00 0de5 c418
000000e0: 2f19 202b ece3 0030 2929 f829 dce8 083c
000000f0: b8bc f0ae 1a60 083b 2204 a81e 0b0f 2322
3 -20 11 5 -41 -14 -18 -3
-81 -125 -18 -24 -20 94 -24 60
50 -125 -19 4 47 -127 -45 -51
-9 -45 -27 0 -4 1 -89 -25
38 -43 -11 69 -32 41 -30 -41
-3 -19 -31 -16 -13 -26 -91 -81
44 -111 -29 -48 20 60 8 72
-50 52 20 -12 -23 39 -33 31
0 9 -37 9 24 -12 -124 -90
48 -67 -49 17 -10 -49 30 18
25 -61 -8 -62 100 -1 24 4
-29 -21 -15 -119 -25 -49 -6 -31
-28 40 25 -6 2 18 -11 -36
14 -11 -19 -41 -69 -7 18 -13
33 3 26 -48 23 61 -61 -30
49 127 24 -4 22 -57 -20 32
-65 43 11 -8 38 49 13 -46
-3 -35 50 38 -35 2 13 -25
-15 -9 20 21 33 -24 -20 -4
-38 -18 27 -29 -29 -42 12 24
-90 -28 -10 -39 5 32 -48 -3
-13 -56 18 -16 -47 47 61 57
1 10 30 -12 45 -16 -100 -11
22 -9 37 -19 -39 24 -10 45
68 -61 -47 -44 6 18 -51 -106
-16 14 37 -70 58 -2 -5 18
-27 35 -34 -15 -46 69 -29 22
-77 91 42 0 13 -27 -60 24
47 25 32 43 -20 -29 0 48
41 41 -8 41 -36 -24 8 60
-72 -68 -16 -82 26 96 8 59
34 4 -88 30 11 15 35 34

recog/cnn/sepconv2d_1/separable_conv2d/depthwise1 i1 [1, 3, 3, 156]
00000000: 44e0 3206 edc3 c823 33c9 fdba cc13 e996
00000010: dc3e 2852 d77f 01c2 3526 d5e6 4234 2a2f
00000020: 0218 15e1 f200 d0f1 e5d0 1573 1040 42f6
00000030: 1ae4 d050 dc39 abe3 cd37 f803 03de 2926
00000040: 25f6 eaeb 818d f5c7 e0f4 0aa2 81f6 ca33
00000050: d42d 8100 29f0 fe1e 1c11 e4e6 d3bc e3df
00000060: a233 8ec7 81bc 1ac9 cf26 81f4 3a36 edd0
00000070: 3168 00b5 08ff b420 fe31 590b 06a4 e90b
00000080: cfe9 fafb e306 dca7 bf38 83f0 b781 27fb
00000090: 130e 81bc 8144 8819 c0ff 01c2 1d62 8bc1
000000a0: 8133 2c81 7f18 7f7f 6681 7f5a f6b6 8181
000000b0: 7fb0 633f d681 d52c 3f81 8183 817f 7f7f
000000c0: 0cef 1737 f0bc f781 817f 8137 5f7f 8d23
000000d0: 81a3 427f 8188 0062 81ec 087f 4681 7f81
000000e0: 8b2b 240d 10f1 81ab 4481 81c5 d68b d77f
000000f0: 817f bf7f 817f 7fba 8181 2275 8d73 7f7f
68 -32 50 6 -19 -61 -56 35
51 -55 -3 -70 -52 19 -23 -106
-36 62 40 82 -41 127 1 -62
53 38 -43 -26 66 52 42 47
2 24 21 -31 -14 0 -48 -15
-27 -48 21 115 16 64 66 -10
26 -28 -48 80 -36 57 -85 -29
-51 55 -8 3 3 -34 41 38
37 -10 -22 -21 -127 -115 -11 -57
-32 -12 10 -94 -127 -10 -54 51
-44 45 -127 0 41 -16 -2 30
28 17 -28 -26 -45 -68 -29 -33
-94 51 -114 -57 -127 -68 26 -55
-49 38 -127 -12 58 54 -19 -48
49 104 0 -75 8 -1 -76 32
-2 49 89 11 6 -92 -23 11
-49 -23 -6 -5 -29 6 -36 -89
-65 56 -125 -16 -73 -127 39 -5
19 14 -127 -68 -127 68 -120 25
-64 -1 1 -62 29 98 -117 -63
-127 51 44 -127 127 24 127 127
102 -127 127 90 -10 -74 -127 -127
127 -80 99 63 -42 -127 -43 44
63 -127 -127 -125 -127 127 127 127
12 -17 23 55 -16 -68 -9 -127
-127 127 -127 55 95 127 -115 35
-127 -93 66 127 -127 -120 0 98
-127 -20 8 127 70 -127 127 -127
-117 43 36 13 16 -15 -127 -85
68 -127 -127 -59 -42 -117 -41 127
-127 127 -65 127 -127 127 127 -70
-127 -127 34 117 -115 115 127 127

recog/cnn/sepconv2d_1/separable_conv2d i1 [224, 1, 1, 156]
00000000: 17d9 1404 f3f5 b0f0 3a1f 0be8 e8e3 f103
00000010: e3d3 2410 13f2 1cd2 ff0d 3330 06e6 f5f6
00000020: 2337 dd20 56f4 0cc6 1719 0326 de1f 0aff
00000030: 280d fdcf fbfc fd54 d921 0ce9 5614 e218
00000040: 4b09 f9d6 21c9 bdde 120a fc02 0fe0 0bcb
00000050: f2a5 0919 fbda d802 1c0a fc0f bb07 1012
00000060: eef7 ee00 ddc7 d4e1 0dc1 1dd6 e9ea eed9
00000070: 1df9 30eb 181d 0d06 efc8 f424 1914 02d2
00000080: 27ff fb08 079f 21ff 1bbe 39e5 f509 81e0
00000090: 0e07 e916 1f17 0fd7 1f0b 03e1 0253 de37
000000a0: bff2 adc5 0128 3024 d10a 05af 0a27 ea30
000000b0: 7060 fb47 1922 d5f1 1d20 240d 2701 1bef
000000c0: 0a81 b6e7 ed33 364f 05d3 c40a 0948 b3ff
000000d0: f8f0 f511 f258 ff13 0fdb 30f8 24e1 0b9f
000000e0: 36fc ffd4 0235 16c9 0ed0 d921 d41e 391e
000000f0: ce0f a6f3 6211 e3f9 20ea 1203 e643 2c38
23 -39 20 4 -13 -11 -80 -16
58 31 11 -24 -24 -29 -15 3
-29 -45 36 16 19 -14 28 -46
-1 13 51 48 6 -26 -11 -10
35 55 -35 32 86 -12 12 -58
23 25 3 38 -34 31 10 -1
40 13 -3 -49 -5 -4 -3 84
-39 33 12 -23 86 20 -30 24
75 9 -7 -42 33 -55 -67 -34
18 10 -4 2 15 -32 11 -53
-14 -91 9 25 -5 -38 -40 2
28 10 -4 15 -69 7 16 18
-18 -9 -18 0 -35 -57 -44 -31
13 -63 29 -42 -23 -22 -18 -39
29 -7 48 -21 24 29 13 6
-17 -56 -12 36 25 20 2 -46
39 -1 -5 8 7 -97 33 -1
27 -66 57 -27 -11 9 -127 -32
14 7 -23 22 31 23 15 -41
31 11 3 -31 2 83 -34 55
-65 -14 -83 -59 1 40 48 36
-47 10 5 -81 10 39 -22 48
112 96 -5 71 25 34 -43 -15
29 32 36 13 39 1 27 -17
10 -127 -74 -25 -19 51 54 79
5 -45 -60 10 9 72 -77 -1
-8 -16 -11 17 -14 88 -1 19
15 -37 48 -8 36 -31 11 -97
54 -4 -1 -44 2 53 22 -55
14 -48 -39 33 -44 30 57 30
-50 15 -90 -13 98 17 -29 -7
32 -22 18 3 -26 67 44 56

recog/cnn/sepconv2d/separable_conv2d/depthwise1 i1 [1, 1, 1, 320]
00000000: 817f 7f7f 817f 7f7f 7f7f 7f7f 817f 7f7f
00000010: 7f81 7f7f 7f81 7f81 7f81 7f7f 7f7f 7f7f
00000020: 7f7f 817f 7f7f 7f81 7f7f 7f7f 7f7f 7f7f
00000030: 7f7f 8181 817f 817f 817f 7f7f 7f7f 7f7f
00000040: 7f7f 817f 817f 7f7f 7f7f 7f81 7f7f 7f7f
00000050: 7f7f 7f7f 7f7f 7f7f 7f7f 7f7f 817f 7f7f
00000060: 7f7f 7f7f 7f7f 817f 7f7f 7f7f 7f7f 7f81
00000070: 7f7f 7f7f 7f7f 7f7f 8181 7f7f 7f7f 817f
00000080: 7f7f 7f7f 7f7f 7f7f 7f81 7f7f 7f7f 7f7f
00000090: 7f7f 7f7f 7f7f 7f81 7f7f 7f7f 7f7f 817f
000000a0: 7f7f 7f7f 817f 7f81 7f7f 7f7f 7f7f 7f7f
000000b0: 7f7f 7f81 7f7f 8181 7f7f 7f7f 817f 7f7f
000000c0: 7f81 7f81 7f7f 7f7f 817f 7f7f 7f7f 7f7f
000000d0: 7f7f 7f7f 7f7f 7f7f 8181 7f7f 7f7f 7f7f
000000e0: 7f7f 7f7f 7f7f 7f7f 7f7f 7f7f 7f7f 7f7f
000000f0: 7f7f 7f7f 7f7f 7f7f 7f7f 7f7f 7f7f 7f7f
-127 127 127 127 -127 127 127 127
127 127 127 127 -127 127 127 127
127 -127 127 127 127 -127 127 -127
127 -127 127 127 127 127 127 127
127 127 -127 127 127 127 127 -127
127 127 127 127 127 127 127 127
127 127 -127 -127 -127 127 -127 127
-127 127 127 127 127 127 127 127
127 127 -127 127 -127 127 127 127
127 127 127 -127 127 127 127 127
127 127 127 127 127 127 127 127
127 127 127 127 -127 127 127 127
127 127 127 127 127 127 -127 127
127 127 127 127 127 127 127 -127
127 127 127 127 127 127 127 127
-127 -127 127 127 127 127 -127 127
127 127 127 127 127 127 127 127
127 -127 127 127 127 127 127 127
127 127 127 127 127 127 127 -127
127 127 127 127 127 127 -127 127
127 127 127 127 -127 127 127 -127
127 127 127 127 127 127 127 127
127 127 127 -127 127 127 -127 -127
127 127 127 127 -127 127 127 127
127 -127 127 -127 127 127 127 127
-127 127 127 127 127 127 127 127
127 127 127 127 127 127 127 127
-127 -127 127 127 127 127 127 127
127 127 127 127 127 127 127 127
127 127 127 127 127 127 127 127
127 127 127 127 127 127 127 127
127 127 127 127 127 127 127 127

recog/cnn/sepconv2d/separable_conv2d i1 [164, 1, 1, 320]
00000000: fb1e f83c e305 d41a 49fa 03e7 e710 0c15
00000010: 1603 14da d309 ecfe ff0f c9f3 3012 150f
00000020: 04f6 0008 0df0 3019 fd0d 069e ae0a 1903
00000030: e3f2 f20e 0a09 200e 1de2 07f0 f47b e514
00000040: 0305 cb37 e408 befc f2d9 0124 10f5 2905
00000050: 0d0c f10e 1426 0bfb 04f9 0422 0d0d fbf6
00000060: 072e 1b06 1c18 0107 2921 0500 1a3e 0103
00000070: ca24 23fd 24d9 080c d81e 02e7 07d3 b220
00000080: 06f6 09ff e9dc e1f8 da0b 1c17 0bc4 f4fe
00000090: fe21 23fd 16ff 3e00 12ec 042f 240c 1ee2
000000a0: ec0b fcf7 03db d80e ebb0 e2e1 da04 e221
000000b0: d7f8 0e32 f2eb 51be 0cc7 fa20 0f0a cceb
000000c0: 16fb c6fd 1d09 04c7 0acc f5d5 f0f6 0cfc
000000d0: ebfc d51f 2c5e 05f5 d3a7 edcd ee0b f604
000000e0: d7f3 f447 ef28 31ee 18fb 4108 f1f2 1aed
000000f0: d818 0ef4 f2ed 0618 d5d7 ce16 daed 0add
-5 30 -8 60 -29 5 -44 26
73 -6 3 -25 -25 16 12 21
22 3 20 -38 -45 9 -20 -2
-1 15 -55 -13 48 18 21 15
4 -10 0 8 13 -16 48 25
-3 13 6 -98 -82 10 25 3
-29 -14 -14 14 10 9 32 14
29 -30 7 -16 -12 123 -27 20
3 5 -53 55 -28 8 -66 -4
-14 -39 1 36 16 -11 41 5
13 12 -15 14 20 38 11 -5
4 -7 4 34 13 13 -5 -10
7 46 27 6 28 24 1 7
41 33 5 0 26 62 1 3
-54 36 35 -3 36 -39 8 12
-40 30 2 -25 7 -45 -78 32
6 -10 9 -1 -23 -36 -31 -8
-38 11 28 23 11 -60 -12 -2
-2 33 35 -3 22 -1 62 0
18 -20 4 47 36 12 30 -30
-20 11 -4 -9 3 -37 -40 14
-21 -80 -30 -31 -38 4 -30 33
-41 -8 14 50 -14 -21 81 -66
12 -57 -6 32 15 10 -52 -21
22 -5 -58 -3 29 9 4 -57
10 -52 -11 -43 -16 -10 12 -4
-21 -4 -43 31 44 94 5 -11
-45 -89 -19 -51 -18 11 -10 4
-41 -13 -12 71 -17 40 49 -18
24 -5 65 8 -15 -14 26 -19
-40 24 14 -12 -14 -19 6 24
-43 -41 -50 22 -38 -19 10 -35
