system/system/saiv/textrecognition/stride/mSTR_Korean_LSTM.tflite (tflite, 952608 bytes, 26 tensors)

dense/bias f4 [1522]
00000000: dbac dcbe bbfd b0be e30b d4be fc4f c3be
00000010: affc f6be ea50 cfbe 9082 f1be 7e57 02bf
00000020: d325 efbe 55fb e4be 2537 aabe 76b9 2ebf
00000030: 95bd d6be e2ce 0bbf afc5 f5be b247 e8be
00000040: 0ad1 13bf 6e2a 0cbf efa3 cfbe 35f4 0dbf
00000050: 7599 24bf 1d02 02bf 401d 15bf ef95 04bf
00000060: 7469 f4be 4a87 0cbf 2832 22bf 1eed d8be
00000070: fa29 bebe 8306 84be 6fb1 e5be 0f52 09bf
00000080: 4bf1 17bf ee44 18bf 2a87 0dbf 88d0 12bf
00000090: d7f1 edbe 6743 f1be 514c b7be 0f70 02bf
000000a0: bcd2 85be b3ae 0abf f29b fdbe 0f99 25bf
000000b0: 598e eabe 07b6 35bf f630 21bf 7834 f0be
000000c0: b198 f5be 4c9b f6be a727 d9be af04 febe
000000d0: 610f 1bbf 42f2 50be 0385 9ebe 4419 ccbe
000000e0: 47b1 febe 547a f9be 6a1f 0dbf a053 13bf
000000f0: fe63 0bbf 01d1 00bf a5e6 9fbe 27e4 10bf
00000100: 03f2 03bf 659f f1be ef03 c2be 1449 d1be
00000110: f8b8 ffbe 990f 0abf 6734 16bf 95a9 e3be
00000120: 17f4 32bf 0675 bfbe 2b4b 06bf 4b98 26bf
00000130: 57a9 03bf d03b abbe b6a2 a4be 7f5d 94be
00000140: 2d73 ddbe 5815 e6be 0cfa 16bf 2766 dbbe
00000150: 6058 d2be 8965 d7be f9b1 f0be 652b 29bf
00000160: 8373 1ebf 0b17 24be 2d92 0dbf 20b2 d0be
00000170: 34c4 21bf ae31 f4be 97d4 35be d99e 20be
00000180: 4d97 cebd 4e32 b8be 5bf3 19be e69c d9be
00000190: c654 aebe bb6a 01bf abbd d2bc 8484 9ebe
000001a0: 268d 87be 4dd5 d5bd b1a2 4dbe 8cd7 78be
000001b0: e3c9 04be 4ae1 93bc 08f9 85be e2f7 c7be
000001c0: 8b3c bdbe 4809 54bd 1e59 58be a046 b2be
000001d0: eacb b7be 3155 aebe 9610 16be d47a 93be
000001e0: b097 71be 6d82 3cbe 1917 c5be b784 f1bc
000001f0: 3174 b7bd 32ac a9be 8401 22be 5d71 f0bd
00000200: db37 e9bd d6a8 4ebe 9753 21be 52a4 f5bd
00000210: cf52 4ebd b829 bebe 8cb9 01bd aee0 ecbd
00000220: e9e2 80bd 0a56 60be f99f 52bd c197 2bbe
00000230: c987 0ebe fc2b b8be 8553 0e3e 1fa5 cdbe
00000240: de4c f7be c2ca dabe 8012 54be c89b 52be
00000250: 352d c1bd 3e8c dbbe 25de e2be e792 e1be
00000260: de94 c2bd 344c 23be 8274 47bc 1b37 30be
00000270: 79b6 c6be 4ee0 13bd 3fb1 c4be 2241 b2be
00000280: 25a4 b4be 6c7e 81bd 0bc0 edbd d13a efbd
00000290: 4dde 7ebe d156 82be 82fb 60be 6b09 7abe
000002a0: a2aa cd3c eb96 3ebe ef53 2bbe 8e81 abbd
000002b0: f6cc d9be ab08 47be 69c1 e3bb fb2b 16be
000002c0: f248 6dbe e8e0 d5be 7dc3 13be f15a 27be
000002d0: ca60 6ebe c38d 14be ab10 cabe 2102 99be
000002e0: 7830 45be cd83 69bc 5468 7ebe d789 b33b
000002f0: ccd7 2dbe 593a a3be 32f8 a6be b15c 58be
00000300: 0c59 51be 9624 45bd 565c 89be 7195 94bd
00000310: 264e 2dbe 5a3a 5ebe 554e 65bd a9ff 05be
00000320: 37b2 5dbe 5139 24bd 32d7 f9bd 77ec 09bc
00000330: f91f cebd 329a 96be a645 9fbd fc57 363d
00000340: 58c1 79be 4d69 04be 2f80 03be ec64 403d
00000350: 8263 983d b24c f3be 694d bfbe bd08 80be
00000360: 8802 b6be 42fd 39be 6363 d7bd 13b6 c3be
00000370: 2985 ddbe ffda a1be b34e 81be ebb3 13bd
00000380: 7892 7c3c 6a3e fc3c 6f4c 78be c6af 37be
00000390: 13f7 0fbe 506d 07be 8b5e 88be f298 2fbe
000003a0: 4d8e 43bd 03d5 a6be d4e5 e8bd 2d27 21bd
000003b0: c258 4bbe 9322 c2bd c5af 90bd 5d01 febd
000003c0: 65ac aebe e2ca 8bbe ddd0 b3bd 7b09 82be
000003d0: 00ed 3dbe b855 63be 4d09 37bd aff4 b7be
000003e0: 7b2c 83be 3699 b7be 1a4b 033c 7aa9 7bbe
000003f0: 03b7 23be 0718 a2be 1dbb 9cbe f76e debc
-0.43100628 -0.3456858 -0.4141532 -0.3814696 -0.48239657 -0.4049142 -0.47169924 -0.5091475
-0.46708545 -0.44723 -0.33245197 -0.6825174 -0.41941515 -0.54612553 -0.48002383 -0.453672
-0.57740843 -0.5475224 -0.4055476 -0.55450755 -0.64296657 -0.50784475 -0.58247757 -0.5179128
-0.47736704 -0.54893935 -0.6335778 -0.42368406 -0.371414 -0.25786218 -0.44861934 -0.53640836
-0.5935256 -0.5948018 -0.5528437 -0.57349443 -0.46473572 -0.47121736 -0.35800412 -0.5095224
-0.2613734 -0.5417282 -0.4953304 -0.64686674 -0.45811728 -0.70980877 -0.62965333 -0.4691503
-0.47968057 -0.48165357 -0.42413065 -0.49612948 -0.6057034 -0.20404914 -0.30960855 -0.39863026
-0.49744627 -0.4872614 -0.5512606 -0.57549477 -0.5444945 -0.50318915 -0.31230655 -0.5659813
-0.51541156 -0.4719192 -0.37893626 -0.40876067 -0.49945807 -0.5393005 -0.5867371 -0.44465318
-0.699037 -0.3739397 -0.5245845 -0.6507613 -0.5143027 -0.3344407 -0.3215539 -0.28977582
-0.43251935 -0.4493816 -0.5897529 -0.42851374 -0.4108305 -0.42069653 -0.47010782 -0.6608184
-0.61895007 -0.16024415 -0.5530117 -0.407609 -0.6319001 -0.47694153 -0.17756878 -0.15685596
-0.10087452 -0.3597588 -0.15034239 -0.42502517 -0.34049052 -0.5055348 -0.025725206 -0.30960476
-0.26474875 -0.104410745 -0.20081593 -0.24300975 -0.12967639 -0.018051762 -0.26166558 -0.39056307
-0.36960253 -0.051766664 -0.21127746 -0.34819508 -0.35897762 -0.3404937 -0.14654765 -0.28804648
-0.2359302 -0.18409128 -0.38494185 -0.029482229 -0.089577086 -0.33139187 -0.1582089 -0.11740372
-0.11387607 -0.20181593 -0.15754543 -0.11994232 -0.05037194 -0.37141204 -0.031671092 -0.11566292
-0.0629328 -0.21907821 -0.051422093 -0.16757108 -0.13918985 -0.35971057 0.13899048 -0.4016504
-0.48300833 -0.42732817 -0.20710182 -0.20567238 -0.09432451 -0.42880434 -0.44310108 -0.4405739
-0.095010504 -0.15947038 -0.012173774 -0.17208521 -0.3881109 -0.036102585 -0.38416478 -0.34815317
-0.35281482 -0.06322941 -0.11608895 -0.1168114 -0.24889489 -0.2545686 -0.21970943 -0.24417655
0.025105778 -0.18612258 -0.16731237 -0.0837432 -0.42539185 -0.194369 -0.0069505465 -0.14665215
-0.23172358 -0.41773152 -0.14430042 -0.16343285 -0.2327911 -0.14507203 -0.39465842 -0.29884437
-0.1925677 -0.014252615 -0.24844486 0.0054790783 -0.16976851 -0.31880453 -0.32611233 -0.21129109
-0.20444125 -0.048130594 -0.2682826 -0.07255066 -0.16924343 -0.21701947 -0.055982906 -0.13085808
-0.21650015 -0.040093724 -0.121992484 -0.008418194 -0.10064692 -0.29414517 -0.07776956 0.044517502
-0.24390161 -0.12930794 -0.12841867 0.046971247 0.074408546 -0.4751945 -0.37363747 -0.25006667
-0.35548806 -0.18163016 -0.105170034 -0.3822485 -0.43265656 -0.31612393 -0.25255355 -0.036060255
0.01541578 0.03079148 -0.24247907 -0.17938146 -0.14059095 -0.13225293 -0.2663463 -0.17148188
-0.04774313 -0.3258439 -0.11371961 -0.039344 -0.19858077 -0.09479251 -0.070647754 -0.12402604
-0.34115902 -0.27303225 -0.08780072 -0.25397858 -0.1854744 -0.22200668 -0.044686604 -0.35928866
-0.25619873 -0.35859078 0.008013511 -0.24576369 -0.15987782 -0.31658956 -0.30611506 -0.027152522

recog/birnn/bidirectional_rnn/bw/rnn3/cell_bias f4 [164]
00000000: 78a2 c5be 482e ce3c a844 f1bc 6348 c33c
00000010: 4fb0 da3d e733 0bbc 5299 0a3d 272a 173d
00000020: ec68 49bd 8326 753d 19e2 d0bc b7c6 bd3d
00000030: abe1 263d 8612 0e3d e3c6 013e 138a dabc
00000040: 6a22 273e 3683 403d 49c4 08be d050 9e3d
00000050: d6ba 81bd 3326 913d e26a 3d3e 9c7c 9b3d
00000060: 2cc7 a0bd c350 43be 2c90 8a3d 5019 773d
00000070: 31ee 83be 42fa 0cbd ee3e 8d3d 2eac 2fbe
00000080: 6717 453e 6e6d 883d 5116 1f3d 33f0 253e
00000090: be38 08be cba6 d93d 7df9 8abe 9356 5fbc
000000a0: 348c 54bd 90b7 43bd b914 a43c 823b bebe
000000b0: 5988 0cbe af66 54bd b4cd e3bc 9029 fc3d
000000c0: 3924 7e3d 7238 b0bd b7ae 1dbc 24a5 073e
000000d0: 7b45 89bd f7b2 dabc 2370 9e3d bfe7 643e
000000e0: cff5 af3d 1fd1 a1bd d4b8 95bc 5f73 9cbd
000000f0: 9b01 423c f7c4 67be d8a8 e03d 78d8 8e3c
00000100: 69e5 c6bc 347f 9fbe c15c 583e 97c4 643d
00000110: 9e3f a23d fb7e c0bd 9930 4a3d bac5 fbbd
00000120: 31e2 dbbd fc00 2ebd ed2e 4abe 75c4 f73c
00000130: f7dd 87be 3b79 fd3c bf19 cf3b b4e2 603c
00000140: 99a3 aebd 49a7 57bd 29c5 a63b c933 043e
00000150: b192 2cbe 86c7 0c3e e59d 983d d600 383d
00000160: 9093 fc3d 4808 c93e e8e6 e13d 4cd7 ad3e
00000170: 2354 7ebe 4abc 00be b0a9 923e fc17 0bbe
00000180: efae d8bc 5be5 293e 4cf4 c63c d851 91bd
00000190: 5471 403c b97d aebd 3a88 773d 736f 4bbe
000001a0: 3fe3 e93d f13d b4bd 4832 ee3c 44da 353e
000001b0: 7675 3abd b488 d3bc 5883 21be abb6 6c3e
000001c0: 0691 ce3d 01eb 03be b39c 813d c53e efbd
000001d0: 825d 3ebd 4365 dc3d c437 1f3d 705d 95be
000001e0: f98e 083e aaff 903e 7866 a23d 061c 7e3e
000001f0: 5590 7dbc d187 7c3d 99fc 573d 062a 2b3e
00000200: 2283 88bd 3ee5 143d e1cb 1dbe 78b9 b13d
00000210: 8b10 e53d ff9d dfbd 190d bfbd 99d7 1a3e
00000220: 98a2 293e abe9 d2bc dbe8 e4bd 1d48 efbd
00000230: 28cf 39be af3c 093e b588 6cbc 2b78 0dbd
00000240: 749f e83d e6d7 a1bd fcf3 7e3d cbaf 7f3c
00000250: fb58 463d 9f3b 09bc 3ef2 0a3c 943e 01bd
00000260: e172 57be 2cc4 9cbe 4c07 0a3e 6e64 bb3d
00000270: 0f8d be3e a3b5 b9bd c958 9a3d 1fc7 653d
00000280: 535b 653d fb06 783d 0534 b7be 149c 8f3d
-0.38600516 0.025168553 -0.029451683 0.023838228 0.106781594 -0.008496261 0.033837624 0.036905434
-0.049172327 0.05985118 -0.025498437 0.092664175 0.040742557 0.034685634 0.12673526 -0.026677167
0.16321722 0.047000133 -0.13356127 0.077302575 -0.06334464 0.07087364 0.18497804 0.07592127
-0.07850489 -0.19073777 0.0676578 0.060326874 -0.25767663 -0.034418352 0.068967685 -0.17155525
0.19247209 0.06661497 0.038839642 0.1620491 -0.13302895 0.10627516 -0.2714347 -0.013631481
-0.05189152 -0.04778248 0.020029413 -0.37154776 -0.13723888 -0.05185574 -0.027808048 0.12312615
0.062046263 -0.08604516 -0.009624175 0.1324659 -0.067027055 -0.026696665 0.07736232 0.22354029
0.08591806 -0.07901215 -0.01827661 -0.07639193 0.011841203 -0.2263373 0.109697044 0.017437205
-0.024279313 -0.31151736 0.21129133 0.055851545 0.0792229 -0.093992196 0.049362753 -0.12293573
-0.10736502 -0.042481408 -0.19744463 0.030245045 -0.26536533 0.030941596 0.006320208 0.013725925
-0.085272975 -0.05264977 0.0050894213 0.1291038 -0.16852833 0.13747987 0.07451991 0.044922672
0.12332833 0.3926413 0.1103037 0.3395332 -0.24836783 -0.12571827 0.28645086 -0.13583368
-0.026450602 0.16591398 0.024286412 -0.070956886 0.0117457695 -0.085200734 0.06043265 -0.19866733
0.11420297 -0.08800877 0.02907671 0.17759043 -0.045522176 -0.025822021 -0.1577276 0.23116557
0.10086255 -0.12882616 0.06328716 -0.11681894 -0.046475895 0.10761502 0.03887154 -0.2917285
0.1333579 0.28320056 0.079297006 0.24815378 -0.015476306 0.061652962 0.05273113 0.1671525
-0.066656366 0.036351435 -0.15409805 0.086779535 0.11184796 -0.10918807 -0.0932867 0.15121306
0.16565931 -0.025746187 -0.11177226 -0.116836764 -0.1814543 0.13402055 -0.01443689 -0.03453843
0.11358538 -0.079025075 0.0622444 0.015605877 0.048424702 -0.008376031 0.008480607 -0.03155382
-0.21039917 -0.30618417 0.13479346 0.09150015 0.37216994 -0.090678476 0.07536466 0.0560981
0.055995297 0.060553532 -0.35781875 0.070121914

recog/birnn/bidirectional_rnn/bw/rnn3/cell_to_cell_w i1 [164, 164] scale=0.016080251 zero_point=0
00000000: f7fe fee7 02e6 f402 16f4 01db 0ff9 eb00
00000010: fef7 0d0c f6d6 f306 fc11 f2f4 f11b f82d
00000020: f2fa 00fd 2efa 18fe 0f28 0f04 fce7 03e6
00000030: 1612 0f00 ff1d 23c1 fa13 f9f6 3411 dd08
00000040: fa17 fb09 e7f6 ecf6 fd02 10f4 22e5 00fa
00000050: f6f8 09fd f9f1 f5fd f7c4 09e0 f50f d0f7
00000060: f7f0 f73d 04f6 ff0f f922 21f0 ff08 00f9
00000070: 0110 151a 13e9 001d fff9 deec dbe6 efec
00000080: 11e1 11e8 f9e3 fffd f71f f60b 0bfc f404
00000090: fd05 f7f6 0fd9 f608 09f4 f609 dd17 f2f1
000000a0: 0fff 4ff5 08d3 0606 07eb 0312 0bf9 00f2
000000b0: fbfb fa05 06f7 07fb fa10 19fb f40e deff
000000c0: fced f40d fe03 fbf9 f8fe 06f3 1af7 ec08
000000d0: fcef ff00 02f4 0006 0216 ff02 10fa 0bf8
000000e0: 0309 040d 12f6 0ef0 0c04 0609 04fd 07ea
000000f0: fcfa e5f2 faf0 06ed f70d f80c 01f5 05ff
-0.14472225 -0.032160502 -0.032160502 -0.40200627 0.032160502 -0.41808653 -0.192963 0.032160502
0.35376552 -0.192963 0.016080251 -0.5949693 0.24120377 -0.112561755 -0.33768526 0.0
-0.032160502 -0.14472225 0.20904326 0.192963 -0.16080251 -0.6753705 -0.20904326 0.0964815
-0.064321004 0.27336428 -0.22512351 -0.192963 -0.24120377 0.4341668 -0.12864201 0.7236113
-0.22512351 -0.0964815 0.0 -0.04824075 0.73969156 -0.0964815 0.385926 -0.032160502
0.24120377 0.64321005 0.24120377 0.064321004 -0.064321004 -0.40200627 0.04824075 -0.41808653
0.35376552 0.2894445 0.24120377 0.0 -0.016080251 0.46632728 0.5628088 -1.0130558
-0.0964815 0.30552477 -0.112561755 -0.16080251 0.83617306 0.27336428 -0.5628088 0.12864201
-0.0964815 0.36984578 -0.08040126 0.14472225 -0.40200627 -0.16080251 -0.32160503 -0.16080251
-0.04824075 0.032160502 0.25728402 -0.192963 0.54672855 -0.4341668 0.0 -0.0964815
-0.16080251 -0.12864201 0.14472225 -0.04824075 -0.112561755 -0.24120377 -0.17688276 -0.04824075
-0.14472225 -0.9648151 0.14472225 -0.51456803 -0.17688276 0.24120377 -0.771852 -0.14472225
-0.14472225 -0.25728402 -0.14472225 0.9808953 0.064321004 -0.16080251 -0.016080251 0.24120377
-0.112561755 0.54672855 0.5306483 -0.25728402 -0.016080251 0.12864201 0.0 -0.112561755
0.016080251 0.25728402 0.33768526 0.41808653 0.30552477 -0.36984578 0.0 0.46632728
-0.016080251 -0.112561755 -0.54672855 -0.32160503 -0.5949693 -0.41808653 -0.27336428 -0.32160503
0.27336428 -0.49848777 0.27336428 -0.385926 -0.112561755 -0.46632728 -0.016080251 -0.04824075
-0.14472225 0.49848777 -0.16080251 0.17688276 0.17688276 -0.064321004 -0.192963 0.064321004
-0.04824075 0.08040126 -0.14472225 -0.16080251 0.24120377 -0.6271298 -0.16080251 0.12864201
0.14472225 -0.192963 -0.16080251 0.14472225 -0.5628088 0.36984578 -0.22512351 -0.24120377
0.24120377 -0.016080251 1.2703398 -0.17688276 0.12864201 -0.7236113 0.0964815 0.0964815
0.112561755 -0.33768526 0.04824075 0.2894445 0.17688276 -0.112561755 0.0 -0.22512351
-0.08040126 -0.08040126 -0.0964815 0.08040126 0.0964815 -0.14472225 0.112561755 -0.08040126
-0.0964815 0.25728402 0.40200627 -0.08040126 -0.192963 0.22512351 -0.54672855 -0.016080251
-0.064321004 -0.30552477 -0.192963 0.20904326 -0.032160502 0.04824075 -0.08040126 -0.112561755
-0.12864201 -0.032160502 0.0964815 -0.20904326 0.41808653 -0.14472225 -0.32160503 0.12864201
-0.064321004 -0.27336428 -0.016080251 0.0 0.032160502 -0.192963 0.0 0.0964815
0.032160502 0.35376552 -0.016080251 0.032160502 0.25728402 -0.0964815 0.17688276 -0.12864201
0.04824075 0.14472225 0.064321004 0.20904326 0.2894445 -0.16080251 0.22512351 -0.25728402
0.192963 0.064321004 0.0964815 0.14472225 0.064321004 -0.04824075 0.112561755 -0.35376552
-0.064321004 -0.0964815 -0.4341668 -0.22512351 -0.0964815 -0.25728402 0.0964815 -0.30552477
-0.14472225 0.20904326 -0.12864201 0.192963 0.016080251 -0.17688276 0.08040126 -0.016080251

recog/birnn/bidirectional_rnn/bw/rnn3/cell_to_forget_w i1 [164, 164] scale=0.017224614 zero_point=0
00000000: 1803 fb31 f6f5 03ff 0800 fbfb f0f4 1b0c
00000010: ea16 f8fb ea2b e714 f109 d5e7 fd05 0703
00000020: 1b07 f6f2 07e4 1c12 feec f504 fde3 f7f2
00000030: 190b 02f9 121f 0903 f419 0201 1704 0ae6
00000040: f01d d8ea 0a19 f61c f9f9 06ff 1dff f7fe
00000050: e607 f2ee 1c00 fbed fd01 02fa e805 f003
00000060: 09f9 e1fb f105 fd05 f70d f6e9 02f8 14dc
00000070: 0b15 ff05 0100 f408 08f5 f3f0 28e5 fe11
00000080: 1728 f9f2 020e 1607 f40e fb0b f607 1afd
00000090: cdf2 03fa fc09 0cf4 0511 0a20 ff20 ebf2
000000a0: 1c02 fd03 0ae9 11f2 08ed 04f6 f609 1a08
000000b0: fe06 0307 0d09 fa15 0108 14eb 0403 c411
000000c0: f802 f602 f008 f801 01f6 0101 fe09 0afc
000000d0: 0316 01ee f301 0d0e f505 1401 0cf0 09e8
000000e0: 0c00 f804 f700 0714 ff01 fffd 12fb f8ff
000000f0: 0c08 f7f7 02f6 edf4 fb06 010b 0611 f91b
0.41339073 0.05167384 -0.086123064 0.84400606 -0.17224613 -0.18947075 0.05167384 -0.017224614
0.13779691 0.0 -0.086123064 -0.086123064 -0.27559382 -0.20669536 0.46506456 0.20669536
-0.3789415 0.3789415 -0.13779691 -0.086123064 -0.3789415 0.7406584 -0.43061534 0.34449226
-0.2583692 0.15502152 -0.7406584 -0.43061534 -0.05167384 0.086123064 0.1205723 0.05167384
0.46506456 0.1205723 -0.17224613 -0.2411446 0.1205723 -0.4822892 0.4822892 0.31004304
-0.034449227 -0.34449226 -0.18947075 0.068898454 -0.05167384 -0.4995138 -0.15502152 -0.2411446
0.43061534 0.18947075 0.034449227 -0.1205723 0.31004304 0.533963 0.15502152 0.05167384
-0.20669536 0.43061534 0.034449227 0.017224614 0.39616612 0.068898454 0.17224613 -0.44783995
-0.27559382 0.4995138 -0.6889845 -0.3789415 0.17224613 0.43061534 -0.17224613 0.4822892
-0.1205723 -0.1205723 0.10334768 -0.017224614 0.4995138 -0.017224614 -0.15502152 -0.034449227
-0.44783995 0.1205723 -0.2411446 -0.31004304 0.4822892 0.0 -0.086123064 -0.32726765
-0.05167384 0.017224614 0.034449227 -0.10334768 -0.41339073 0.086123064 -0.27559382 0.05167384
0.15502152 -0.1205723 -0.533963 -0.086123064 -0.2583692 0.086123064 -0.05167384 0.086123064
-0.15502152 0.22391997 -0.17224613 -0.39616612 0.034449227 -0.13779691 0.34449226 -0.6200861
0.18947075 0.3617169 -0.017224614 0.086123064 0.017224614 0.0 -0.20669536 0.13779691
0.13779691 -0.18947075 -0.22391997 -0.27559382 0.6889845 -0.46506456 -0.034449227 0.29281843
0.39616612 0.6889845 -0.1205723 -0.2411446 0.034449227 0.2411446 0.3789415 0.1205723
-0.20669536 0.2411446 -0.086123064 0.18947075 -0.17224613 0.1205723 0.44783995 -0.05167384
-0.8784553 -0.2411446 0.05167384 -0.10334768 -0.068898454 0.15502152 0.20669536 -0.20669536
0.086123064 0.29281843 0.17224613 0.55118763 -0.017224614 0.55118763 -0.3617169 -0.2411446
0.4822892 0.034449227 -0.05167384 0.05167384 0.17224613 -0.39616612 0.29281843 -0.2411446
0.13779691 -0.32726765 0.068898454 -0.17224613 -0.17224613 0.15502152 0.44783995 0.13779691
-0.034449227 0.10334768 0.05167384 0.1205723 0.22391997 0.15502152 -0.10334768 0.3617169
0.017224614 0.13779691 0.34449226 -0.3617169 0.068898454 0.05167384 -1.0334768 0.29281843
-0.13779691 0.034449227 -0.17224613 0.034449227 -0.27559382 0.13779691 -0.13779691 0.017224614
0.017224614 -0.17224613 0.017224614 0.017224614 -0.034449227 0.15502152 0.17224613 -0.068898454
0.05167384 0.3789415 0.017224614 -0.31004304 -0.22391997 0.017224614 0.22391997 0.2411446
-0.18947075 0.086123064 0.34449226 0.017224614 0.20669536 -0.27559382 0.15502152 -0.41339073
0.20669536 0.0 -0.13779691 0.068898454 -0.15502152 0.0 0.1205723 0.34449226
-0.017224614 0.017224614 -0.017224614 -0.05167384 0.31004304 -0.086123064 -0.13779691 -0.017224614
0.20669536 0.13779691 -0.15502152 -0.15502152 0.034449227 -0.17224613 -0.32726765 -0.20669536
-0.086123064 0.10334768 0.017224614 0.18947075 0.10334768 0.29281843 -0.1205723 0.46506456

recog/birnn/bidirectional_rnn/bw/rnn3/cell_to_input_w i1 [164, 164] scale=0.018478286 zero_point=0
00000000: 0d07 13fc 0917 f801 edf9 ee04 f611 0519
00000010: 2109 1724 f9fa 1701 0103 1c06 0cf5 eafb
00000020: 0df8 f310 000c eaf4 eef2 fedf 05f0 0706
00000030: f2fb 0114 e7f5 f010 1aec f917 eff2 0101
00000040: 00f3 0507 f8fe 17fa f719 e3f9 f30d 0a00
00000050: 1600 f50c fdfe 160b 11ed fb0c 05ed 15fa
00000060: 05f9 0bfe 0718 fe14 0d08 1513 f1fe e512
00000070: 0503 f5fa ed01 f8f5 e80f ff04 0af6 1c06
00000080: 15e9 fa13 ec12 0fe9 0aff 12f8 fafc eaf1
00000090: 0b04 0bfe fd0e ff0d edfe 07f4 0ff4 1003
000000a0: fbfd eb10 01b1 05f0 f2f6 fffb f7f8 ef05
000000b0: fff7 1104 0901 fa06 eafc 1508 effb 3904
000000c0: f026 00e6 01f7 f923 f40c 0201 11fb 10e8
000000d0: 11f8 f509 f7fc 1103 06e0 0815 130a 0513
000000e0: 0404 ee05 f701 01fe f6f8 08ec fe18 f0fe
000000f0: fb00 01f1 0802 e7fe 05f4 07fb 0ff3 0200
0.24021772 0.129348 0.35108742 -0.07391314 0.16630457 0.42500058 -0.14782628 0.018478286
-0.35108742 -0.129348 -0.33260915 0.07391314 -0.18478286 0.31413084 0.09239143 0.46195713
0.6097834 0.16630457 0.42500058 0.6652183 -0.129348 -0.11086971 0.42500058 0.018478286
0.018478286 0.055434857 0.517392 0.11086971 0.22173943 -0.20326114 -0.40652227 -0.09239143
0.24021772 -0.14782628 -0.24021772 0.29565257 0.0 0.22173943 -0.40652227 -0.22173943
-0.33260915 -0.258696 -0.03695657 -0.6097834 0.09239143 -0.29565257 0.129348 0.11086971
-0.258696 -0.09239143 0.018478286 0.36956573 -0.46195713 -0.20326114 -0.29565257 0.29565257
0.48043543 -0.36956573 -0.129348 0.42500058 -0.31413084 -0.258696 0.018478286 0.018478286
0.0 -0.24021772 0.09239143 0.129348 -0.14782628 -0.03695657 0.42500058 -0.11086971
-0.16630457 0.46195713 -0.53587025 -0.129348 -0.24021772 0.24021772 0.18478286 0.0
0.40652227 0.0 -0.20326114 0.22173943 -0.055434857 -0.03695657 0.40652227 0.20326114
0.31413084 -0.35108742 -0.09239143 0.22173943 0.09239143 -0.35108742 0.388044 -0.11086971
0.09239143 -0.129348 0.20326114 -0.03695657 0.129348 0.44347885 -0.03695657 0.36956573
0.24021772 0.14782628 0.388044 0.35108742 -0.2771743 -0.03695657 -0.4989137 0.33260915
0.09239143 0.055434857 -0.20326114 -0.11086971 -0.35108742 0.018478286 -0.14782628 -0.20326114
-0.44347885 0.2771743 -0.018478286 0.07391314 0.18478286 -0.18478286 0.517392 0.11086971
0.388044 -0.42500058 -0.11086971 0.35108742 -0.36956573 0.33260915 0.2771743 -0.42500058
0.18478286 -0.018478286 0.33260915 -0.14782628 -0.11086971 -0.07391314 -0.40652227 -0.2771743
0.20326114 0.07391314 0.20326114 -0.03695657 -0.055434857 0.258696 -0.018478286 0.24021772
-0.35108742 -0.03695657 0.129348 -0.22173943 0.2771743 -0.22173943 0.29565257 0.055434857
-0.09239143 -0.055434857 -0.388044 0.29565257 0.018478286 -1.4597845 0.09239143 -0.29565257
-0.258696 -0.18478286 -0.018478286 -0.09239143 -0.16630457 -0.14782628 -0.31413084 0.09239143
-0.018478286 -0.16630457 0.31413084 0.07391314 0.16630457 0.018478286 -0.11086971 0.11086971
-0.40652227 -0.07391314 0.388044 0.14782628 -0.31413084 -0.09239143 1.0532622 0.07391314
-0.29565257 0.70217484 0.0 -0.48043543 0.018478286 -0.16630457 -0.129348 0.64674
-0.22173943 0.22173943 0.03695657 0.018478286 0.31413084 -0.09239143 0.29565257 -0.44347885
0.31413084 -0.14782628 -0.20326114 0.16630457 -0.16630457 -0.07391314 0.31413084 0.055434857
0.11086971 -0.59130514 0.14782628 0.388044 0.35108742 0.18478286 0.09239143 0.35108742
0.07391314 0.07391314 -0.33260915 0.09239143 -0.16630457 0.018478286 0.018478286 -0.03695657
-0.18478286 -0.14782628 0.14782628 -0.36956573 -0.03695657 0.44347885 -0.29565257 -0.03695657
-0.09239143 0.0 0.018478286 -0.2771743 0.14782628 0.03695657 -0.46195713 -0.03695657
0.09239143 -0.22173943 0.129348 -0.09239143 0.2771743 -0.24021772 0.03695657 0.0

recog/birnn/bidirectional_rnn/bw/rnn3/cell_to_output_w i1 [164, 164] scale=0.01682107 zero_point=0
00000000: e90f 00f5 bc09 1b11 0505 0e11 e0f5 f204
00000010: fbf9 05ff 00f4 0b31 f00a e800 11fe 1105
00000020: 0bf6 fef0 f3fb f8fa 0ef9 0a02 ff0a 01fc
00000030: 0206 04fe 0905 ef05 ff02 08ef 1902 f7f4
00000040: ff06 0afd fafd fe10 09fa 03f3 110f 1206
00000050: 00fe 0fef fef8 0ceb f5f0 15fb fef4 fb04
00000060: 0ffc e3e1 03fd f700 080c f902 0603 03fb
00000070: 0305 1929 08fd 23f8 fb02 1608 effe f80c
00000080: 0813 02f9 0f05 0300 faf7 fb04 fc06 0af1
00000090: d30b f215 fd09 01fd d302 02d5 0c00 00eb
000000a0: 070c 020b f424 f604 fceb f7fd 07ef 13e9
000000b0: f112 0603 1603 161d 06f5 fbf2 0404 3cec
000000c0: 08f7 f4fb 05f4 f6ef fbf6 0302 0212 ff05
000000d0: 2003 0304 effe 1c06 ff02 f1fb 06f0 fd0a
000000e0: 0114 ec01 f503 fc07 0204 09f3 0216 fbff
000000f0: 00f6 ef02 0407 010f 0df6 1efa 11fa f4fc
-0.3868846 0.25231606 0.0 -0.18503177 -1.1438327 0.15138963 0.4541689 0.28595817
0.08410535 0.08410535 0.23549497 0.28595817 -0.5382742 -0.18503177 -0.23549497 0.06728428
-0.08410535 -0.117747486 0.08410535 -0.01682107 0.0 -0.20185283 0.18503177 0.8242324
-0.2691371 0.1682107 -0.40370566 0.0 0.28595817 -0.03364214 0.28595817 0.08410535
0.18503177 -0.1682107 -0.03364214 -0.2691371 -0.2186739 -0.08410535 -0.13456856 -0.100926414
0.23549497 -0.117747486 0.1682107 0.03364214 -0.01682107 0.1682107 0.01682107 -0.06728428
0.03364214 0.100926414 0.06728428 -0.03364214 0.15138963 0.08410535 -0.28595817 0.08410535
-0.01682107 0.03364214 0.13456856 -0.28595817 0.42052674 0.03364214 -0.15138963 -0.20185283
-0.01682107 0.100926414 0.1682107 -0.050463207 -0.100926414 -0.050463207 -0.03364214 0.2691371
0.15138963 -0.100926414 0.050463207 -0.2186739 0.28595817 0.25231606 0.30277926 0.100926414
0.0 -0.03364214 0.25231606 -0.28595817 -0.03364214 -0.13456856 0.20185283 -0.35324246
-0.18503177 -0.2691371 0.35324246 -0.08410535 -0.03364214 -0.20185283 -0.08410535 0.06728428
0.25231606 -0.06728428 -0.48781103 -0.52145314 0.050463207 -0.050463207 -0.15138963 0.0
0.13456856 0.20185283 -0.117747486 0.03364214 0.100926414 0.050463207 0.050463207 -0.08410535
0.050463207 0.08410535 0.42052674 0.6896638 0.13456856 -0.050463207 0.5887374 -0.13456856
-0.08410535 0.03364214 0.37006354 0.13456856 -0.28595817 -0.03364214 -0.13456856 0.20185283
0.13456856 0.3196003 0.03364214 -0.117747486 0.25231606 0.08410535 0.050463207 0.0
-0.100926414 -0.15138963 -0.08410535 0.06728428 -0.06728428 0.100926414 0.1682107 -0.25231606
-0.7569481 0.18503177 -0.23549497 0.35324246 -0.050463207 0.15138963 0.01682107 -0.050463207
-0.7569481 0.03364214 0.03364214 -0.723306 0.20185283 0.0 0.0 -0.35324246
0.117747486 0.20185283 0.03364214 0.18503177 -0.20185283 0.6055585 -0.1682107 0.06728428
-0.06728428 -0.35324246 -0.15138963 -0.050463207 0.117747486 -0.28595817 0.3196003 -0.3868846
-0.25231606 0.30277926 0.100926414 0.050463207 0.37006354 0.050463207 0.37006354 0.48781103
0.100926414 -0.18503177 -0.08410535 -0.23549497 0.06728428 0.06728428 1.0092642 -0.3364214
0.13456856 -0.15138963 -0.20185283 -0.08410535 0.08410535 -0.20185283 -0.1682107 -0.28595817
-0.08410535 -0.1682107 0.050463207 0.03364214 0.03364214 0.30277926 -0.01682107 0.08410535
0.5382742 0.050463207 0.050463207 0.06728428 -0.28595817 -0.03364214 0.47098994 0.100926414
-0.01682107 0.03364214 -0.25231606 -0.08410535 0.100926414 -0.2691371 -0.050463207 0.1682107
0.01682107 0.3364214 -0.3364214 0.01682107 -0.18503177 0.050463207 -0.06728428 0.117747486
0.03364214 0.06728428 0.15138963 -0.2186739 0.03364214 0.37006354 -0.08410535 -0.01682107
0.0 -0.1682107 -0.28595817 0.03364214 0.06728428 0.117747486 0.01682107 0.25231606
0.2186739 -0.1682107 0.5046321 -0.100926414 0.28595817 -0.100926414 -0.20185283 -0.06728428

recog/birnn/bidirectional_rnn/bw/rnn3/forget_bias f4 [164]
00000000: cc24 a13f 6fe1 803f 7767 723f d2a5 763f
00000010: b978 7f3f b600 593f 5cc5 803f d687 613f
00000020: 30db 413f c19a 523f d909 5e3f f29f 6d3f
00000030: 5417 813f 33ad 4e3f e3c2 6e3f d5e6 7a3f
00000040: 00b3 763f e877 613f 8327 773f e299 743f
00000050: 02c8 663f db55 9c3f f11a d73f 75ad 843f
00000060: aa6e 8b3f b705 943f 0b35 7c3f 5013 8c3f
00000070: e39c 863f 7582 2f3f f413 813f 92de 5f3f
00000080: 9d03 4e3f 47af 8b3f 4f67 753f f175 863f
00000090: 044d 943f 3129 483f d1fb 8e3f defd 703f
000000a0: aca1 663f 8263 4c3f dc46 693f 51d2 883f
000000b0: faa6 763f 0564 923f 6f00 6b3f 0e85 813f
000000c0: ba2a 693f 4e66 6b3f a03d 693f 28d8 173f
000000d0: 6628 613f de9a 593f 626f 793f 7d00 a33f
000000e0: f5ac 3d3f 1d6f 5d3f eb00 7a3f 794f 503f
000000f0: 6346 243f f67d bc3f 441b 7b3f de92 573f
00000100: 5d58 873f 591d 7b3f dd39 5c3f 4505 633f
00000110: c627 673f a12c 613f d963 943f 5473 8a3f
00000120: e128 3d3f 2c1a 683f 3e17 a13f 2525 5c3f
00000130: 7309 803f a6a8 743f 3734 893f 4dc8 7b3f
00000140: 71a4 5e3f 2ac0 6e3f da5b 443f de59 5c3f
00000150: eb72 683f dba9 3a3f 785a 763f b252 963f
00000160: 62d9 a33f dc56 a53f 2f6b 833f 50ec 273f
00000170: 97f0 803f 352c 483f 04c5 7a3f aa30 5a3f
00000180: 35dd 873f 93e7 3c3f 5ad8 433f d154 6b3f
00000190: ce17 823f 8aea 5f3f 5143 673f 575f 8d3f
000001a0: d0fb 3b3f 72e3 553f d144 423f 7cff 453f
000001b0: 6a5f 743f 6d93 5d3f 96e1 8a3f 65f7 9a3f
000001c0: 54f1 4a3f 5160 853f a4c8 913f 922e 803f
000001d0: def0 763f 4ab2 7a3f 4f89 523f 0bbf 413f
000001e0: d6cb 803f 93a3 663f 0835 813f 347f 683f
000001f0: ad8e 663f dbe6 693f 5bd5 4c3f 7a6d 4b3f
00000200: 2308 643f 0df6 783f 9730 493f 03d4 843f
00000210: 33b3 383f 488c 6d3f a2ed 703f ac72 5a3f
00000220: 9621 803f d17e 763f ab54 803f 20d5 5f3f
00000230: fc61 8a3f 634a 453f 3e3b 8d3f d688 803f
00000240: a707 7c3f 4f4f 673f c099 4b3f 7964 5b3f
00000250: 51e6 843f c9f8 583f ba07 4b3f ebb7 423f
00000260: b56b 1d3f eb35 8a3f 4fb1 4a3f 3ecb 813f
00000270: 8596 6d3f 79e0 873f e18f 533f 4f59 5b3f
00000280: b581 523f 7a13 693f 19de 9f3f ecae 643f
1.2589355 1.0068797 0.94689125 0.9634677 0.99793583 0.8476671 1.0060229 0.88097894
0.7572508 0.82267386 0.86733776 0.9282218 1.0085244 0.8073303 0.93266124 0.9800847
0.9636688 0.8807359 0.96544665 0.95547307 0.9014894 1.2213701 1.6805097 1.0365435
1.0893147 1.1564244 0.9851844 1.0943394 1.0516628 0.68558437 1.0084214 0.8744899
0.80474263 1.0912865 0.9586076 1.0504743 1.1586003 0.78187853 1.1170598 0.9413737
0.9009044 0.79839337 0.9112375 1.0689183 0.96348536 1.1436774 0.91797537 1.011873
0.9108082 0.9195298 0.9110966 0.59314203 0.8795227 0.85001934 0.9743558 1.2734524
0.74092036 0.8649767 0.9765765 0.81371266 0.641699 1.472594 0.9808848 0.84208477
1.0573841 0.98091656 0.8602579 0.88679916 0.90295064 0.87958723 1.1592971 1.0816445
0.738905 0.90664935 1.2585218 0.8599418 1.0002884 0.9556984 1.071906 0.9835251
0.8696967 0.9326197 0.76702654 0.86074626 0.9080035 0.7291543 0.96231794 1.1743987
1.2800715 1.2917132 1.0267085 0.6559496 1.0073422 0.78192455 0.9795687 0.85230505
1.0614382 0.73790854 0.76502 0.91926295 1.0163515 0.87467253 0.9033709 1.104472
0.7343111 0.8355018 0.75886256 0.77342963 0.9545809 0.8655308 1.0850093 1.2106749
0.7927449 1.0420018 1.1389356 1.0014212 0.96461284 0.979283 0.82240766 0.75682133
1.0062206 0.90093344 1.0094309 0.90819097 0.90061456 0.9136788 0.80013055 0.7946392
0.89074916 0.97250444 0.7858977 1.0377201 0.72148436 0.9279218 0.941126 0.85331225
1.001025 0.96287256 1.0025839 0.8743458 1.0811152 0.7706663 1.1033704 1.0041759
0.98449177 0.9035539 0.7953148 0.85700184 1.0382787 0.84754616 0.79308665 0.76061887
0.6149247 1.0797704 0.791768 1.014015 0.928078 1.0615379 0.82641417 0.8568315
0.8222917 0.91045344 1.2489654 0.8932941

recog/birnn/bidirectional_rnn/bw/rnn3/input_bias f4 [164]
00000000: 752c 3abd 1486 8abe b263 0ebd 8e26 bdbd
00000010: 6ecc d93b e412 29be aa53 b6be 7cda d4bd
00000020: 9643 fcbd a475 94bd 5f4e 92be bb8e fbbd
00000030: 600a 86be 68a0 38bd a576 98bd ccfb b1be
00000040: 7505 f5bc 8921 26bd dfe1 e6bd 0002 7ebd
00000050: 49b8 083e 5579 76be c7bf 0e3d 03a5 a3be
00000060: bd8d 5bbe 2c0d e4be e6c8 9ebe d61a 6fbe
00000070: bc01 3fbe d303 7cbe 8626 c0bd ef9e 32be
00000080: ee8f 00bd 66e5 08be 31e2 83be 397c d0bd
00000090: c00a 26be 1520 bebd 4039 043e d029 2ebe
000000a0: cbd1 0fbe 56f8 1fbe 9ada bcbc c8e6 bbbe
000000b0: 4713 1ebe 4e8c a4be 4bec 1ebe 7b05 83be
000000c0: 2333 1b3e 2993 f53b a83a 2dbe 976a 9bbe
000000d0: 59d6 88be aae5 80be 9966 3cbe fdb2 863e
000000e0: 4430 94be 5b99 8cbd 2c51 55be c18f 69be
000000f0: 6be2 82be c838 4f3e 5928 8cbe baea f1bd
00000100: 5090 d53c 9bbe 9abe 6c7e 94be 9ad8 853c
00000110: 41b5 cabd 07fa 24bd 5990 a2be 67a7 42be
00000120: 298b b5bd 9833 853d 1f2a 6ebd 3bf5 69bc
00000130: 6fce 14be 1beb 20be 19d4 7ebe 89bd c93c
00000140: 5969 1cbe 2ab8 45be d202 843c fd90 7dbe
00000150: bbc5 373e 9a1e 9a3d 5fe3 ccbd 3e59 debd
00000160: 8821 92be e8b6 88be 166b 4abe 91f4 b9be
00000170: 04b8 10be bada d8bd 582c 5fbe f2f0 10be
00000180: b49e b3bc 768c 5fbe 9db0 a3be ff05 d33c
00000190: 78ae 8fbe f94b acbd 0707 f7bd c4ba 59be
000001a0: a9cf 24be 3b3f 61be 5798 82bd 6230 9cbe
000001b0: 68f1 00be 97a5 ccbd 9496 01be 9ece cfbe
000001c0: 3d97 14bd 2026 9ebe 8098 11bf 96b7 4ebe
000001d0: 844b bcbe 75f8 833d f06a 43be f6f6 96bd
000001e0: 8307 a7bd 1d9e 14be 9eed 84be e961 593e
000001f0: 7920 933d a50b 96bd ab3a 73be 202b f3bd
00000200: 079d 7dbe 6e22 36be 8471 3fbe dbd5 89be
00000210: 6f54 70be 4cea 22be eaaf 0ebe 972c aabd
00000220: 7085 15be 829c 2dbe f6b9 bfbc 920a aebd
00000230: 006c 11be b461 85bd 6e81 b3bd 9358 32be
00000240: e1c9 8fbe 6a91 e9bd 94f7 c8bb 392e 1bbb
00000250: 7f5c 0fbe 05bf b0bd 6731 4ebe 658c eabd
00000260: eabd aebe 4bc6 cdbe eec1 03be 8a00 85be
00000270: 9580 abbd 3e61 9bbe ed61 b7be 924d 0cbe
00000280: 135f 8fbd 972f 2cbd ceea d63e e6af 80bd
-0.045452554 -0.27055418 -0.034763046 -0.09235869 0.0066466844 -0.16511112 -0.35610706 -0.10393235
-0.123175785 -0.07249001 -0.28575417 -0.12283083 -0.2617979 -0.04507485 -0.07444505 -0.34762418
-0.029909829 -0.040559325 -0.1127355 -0.062013626 0.13351549 -0.24069722 0.034850862 -0.3196183
-0.21440788 -0.445413 -0.31012648 -0.23350081 -0.18653005 -0.24610834 -0.09382348 -0.17443441
-0.031387262 -0.13368759 -0.25758508 -0.101799436 -0.16215038 -0.09283463 0.12912464 -0.17008138
-0.14044873 -0.15622076 -0.023053456 -0.3669951 -0.15437041 -0.32138294 -0.15519826 -0.2559012
0.15156226 0.0074943495 -0.16916907 -0.3035476 -0.26726034 -0.2517522 -0.18398513 0.26308432
-0.28943074 -0.06865188 -0.20831746 -0.22808744 -0.25563368 0.20236504 -0.27374533 -0.11812349
0.02606979 -0.30223545 -0.29002702 0.016338635 -0.09897853 -0.040277507 -0.31750754 -0.19009171
-0.08864433 0.06503981 -0.05814564 -0.014279659 -0.14531873 -0.15714686 -0.24885596 0.02462651
-0.15274562 -0.19308534 0.016114626 -0.2476234 0.17946522 0.07525368 -0.10004305 -0.10856865
-0.28541207 -0.26702046 -0.19767413 -0.36319402 -0.14132696 -0.10588594 -0.2179426 -0.14154413
-0.021926261 -0.21830925 -0.31970683 0.025759695 -0.28062797 -0.08412928 -0.12061887 -0.21262652
-0.16094841 -0.21996777 -0.06376713 -0.30505663 -0.12592089 -0.09992521 -0.12655097 -0.40587324
-0.036277045 -0.30888462 -0.5687332 -0.2018722 -0.36776364 0.06443874 -0.19083762 -0.07371323
-0.081557296 -0.1451344 -0.25962538 0.21228756 0.07183928 -0.0732644 -0.23752849 -0.1187346
-0.24766932 -0.17786571 -0.18695647 -0.2692097 -0.23469709 -0.1590969 -0.13934293 -0.08309286
-0.14601684 -0.16954234 -0.023404103 -0.0849811 -0.14201355 -0.06512776 -0.08764921 -0.17416601
-0.2808371 -0.11404689 -0.0061330292 -0.0023678674 -0.14000128 -0.08630184 -0.20136033 -0.114525594
-0.34129268 -0.40190348 -0.12866947 -0.25976974 -0.083741345 -0.30347627 -0.358169 -0.13701466
-0.07000556 -0.042037573 0.41976017 -0.0628355

recog/birnn/bidirectional_rnn/bw/rnn3/input_to_cell_w i1 [164, 164] scale=0.011360136 zero_point=0
00000000: 01f2 070d f6f1 1819 f6f7 05f1 23f6 d9fe
00000010: 11fd 1ffb fe0a e920 f425 08e0 16fa f50f
00000020: 0706 f401 0219 06fe 11dc fefc fa01 0ff2
00000030: d2f7 18f3 07ed 0820 fe12 ecf1 001e dc1a
00000040: ece7 04ff 0315 e1f4 0108 20fb da0b 090c
00000050: fc07 e505 121a e306 02fa 0b06 050e 0cde
00000060: e20f 03f1 e6e8 04f6 2a0b e91b fa0e f6df
00000070: fcfb f702 f505 de1b f4f2 1a11 0bf5 0b00
00000080: 1ef6 0c0d 06eb f812 0bf5 0503 efff 10f2
00000090: 0018 01f2 03e4 ee01 06fc d9fd 2921 11f1
000000a0: fefa f727 1417 0520 fc00 0700 f4fa 02ed
000000b0: e7e8 fcfb 19f2 f1f8 14fe 03ed 09e7 11db
000000c0: eb05 fd13 12d4 db0c f404 37da 1800 fafe
000000d0: 0403 0200 f1fe ec26 ed00 ed06 0c18 0322
000000e0: 2305 26fc 1625 0f0b 06f1 061c fa0a 040f
000000f0: 261c f8fa fe18 1512 02fe 03df 0a02 fde9
0.011360136 -0.1590419 0.07952095 0.14768177 -0.11360136 -0.17040204 0.27264327 0.2840034
-0.11360136 -0.102241226 0.05680068 -0.17040204 0.39760476 -0.11360136 -0.4430453 -0.022720272
0.19312231 -0.03408041 0.3521642 -0.05680068 -0.022720272 0.11360136 -0.26128313 0.36352435
-0.13632163 0.42032504 0.09088109 -0.36352435 0.24992299 -0.06816082 -0.124961495 0.17040204
0.07952095 0.06816082 -0.13632163 0.011360136 0.022720272 0.2840034 0.06816082 -0.022720272
0.19312231 -0.4089649 -0.022720272 -0.045440543 -0.06816082 0.011360136 0.17040204 -0.1590419
-0.52256626 -0.102241226 0.27264327 -0.14768177 0.07952095 -0.21584257 0.09088109 0.36352435
-0.022720272 0.20448245 -0.22720271 -0.17040204 0.0 0.34080407 -0.4089649 0.29536355
-0.22720271 -0.2840034 0.045440543 -0.011360136 0.03408041 0.23856285 -0.3521642 -0.13632163
0.011360136 0.09088109 0.36352435 -0.05680068 -0.43168515 0.124961495 0.102241226 0.13632163
-0.045440543 0.07952095 -0.30672365 0.05680068 0.20448245 0.29536355 -0.32944393 0.06816082
0.022720272 -0.06816082 0.124961495 0.06816082 0.05680068 0.1590419 0.13632163 -0.38624462
-0.34080407 0.17040204 0.03408041 -0.17040204 -0.29536355 -0.27264327 0.045440543 -0.11360136
0.4771257 0.124961495 -0.26128313 0.30672365 -0.06816082 0.1590419 -0.11360136 -0.3748845
-0.045440543 -0.05680068 -0.102241226 0.022720272 -0.124961495 0.05680068 -0.38624462 0.30672365
-0.13632163 -0.1590419 0.29536355 0.19312231 0.124961495 -0.124961495 0.124961495 0.0
0.34080407 -0.11360136 0.13632163 0.14768177 0.06816082 -0.23856285 -0.09088109 0.20448245
0.124961495 -0.124961495 0.05680068 0.03408041 -0.19312231 -0.011360136 0.18176217 -0.1590419
0.0 0.27264327 0.011360136 -0.1590419 0.03408041 -0.3180838 -0.20448245 0.011360136
0.06816082 -0.045440543 -0.4430453 -0.03408041 0.46576557 0.3748845 0.19312231 -0.17040204
-0.022720272 -0.06816082 -0.102241226 0.4430453 0.22720271 0.26128313 0.05680068 0.36352435
-0.045440543 0.0 0.07952095 0.0 -0.13632163 -0.06816082 0.022720272 -0.21584257
-0.2840034 -0.27264327 -0.045440543 -0.05680068 0.2840034 -0.1590419 -0.17040204 -0.09088109
0.22720271 -0.022720272 0.03408041 -0.21584257 0.102241226 -0.2840034 0.19312231 -0.42032504
-0.23856285 0.05680068 -0.03408041 0.21584257 0.20448245 -0.49984598 -0.42032504 0.13632163
-0.13632163 0.045440543 0.6248075 -0.43168515 0.27264327 0.0 -0.06816082 -0.022720272
0.045440543 0.03408041 0.022720272 0.0 -0.17040204 -0.022720272 -0.22720271 0.43168515
-0.21584257 0.0 -0.21584257 0.06816082 0.13632163 0.27264327 0.03408041 0.38624462
0.39760476 0.05680068 0.43168515 -0.045440543 0.24992299 0.42032504 0.17040204 0.124961495
0.06816082 -0.17040204 0.06816082 0.3180838 -0.06816082 0.11360136 0.045440543 0.17040204
0.43168515 0.3180838 -0.09088109 -0.06816082 -0.022720272 0.27264327 0.23856285 0.20448245
0.022720272 -0.022720272 0.03408041 -0.3748845 0.11360136 0.022720272 -0.03408041 -0.26128313

recog/birnn/bidirectional_rnn/bw/rnn3/input_to_forget_w i1 [164, 164] scale=0.014872086 zero_point=0
00000000: 0218 f1fd f909 c904 19f9 240f 0c0c 03fb
00000010: fd24 001e ed14 20d6 0807 0eeb 0a08 160e
00000020: 1902 0ed8 0d0e 0f1f f40a 0614 fbeb 2ff5
00000030: 1f03 f9fd 0808 190d 040a 2422 f925 0a20
00000040: 0f0c 1400 e904 1902 05f1 fe0e 0510 ff0c
00000050: fd04 160c 13f3 fc33 f2ed fdfe fd15 1306
00000060: 070d 27fa f935 110d 060d ed0b f319 090d
00000070: 1518 fdfd fbfc 1e01 1100 0c21 f1fb e712
00000080: ef19 1606 102c 1113 f9fc 2209 161a f617
00000090: 1511 f216 13f9 0aeb fdfa 1410 fc0d 090c
000000a0: ffeb 02f4 2900 ea12 fde9 1e09 fff7 13f0
000000b0: f100 0d03 f507 f6e7 03f5 0e29 01e9 0de6
000000c0: f924 07fe 0f06 d702 e313 0bfa 1c0b fdf7
000000d0: 0df6 f5ff 0b08 f2fe 052e fd0d 0907 f5f7
000000e0: 0b02 22f8 2c0f f110 13f4 07fc 0530 1816
000000f0: 0efa 1ef2 f5f5 06fb ff0f ed06 1817 f9f2
0.029744172 0.35693008 -0.22308129 -0.04461626 -0.1041046 0.13384877 -0.81796473 0.059488345
0.37180215 -0.1041046 0.5353951 0.22308129 0.17846504 0.17846504 0.04461626 -0.07436043
-0.04461626 0.5353951 0.0 0.44616258 -0.28256965 0.29744172 0.47590676 -0.62462765
0.11897669 0.1041046 0.2082092 -0.31231382 0.14872086 0.11897669 0.3271859 0.2082092
0.37180215 0.029744172 0.2082092 -0.59488344 0.19333713 0.2082092 0.22308129 0.4610347
-0.17846504 0.14872086 0.08923252 0.29744172 -0.07436043 -0.31231382 0.6989881 -0.16359295
0.4610347 0.04461626 -0.1041046 -0.04461626 0.11897669 0.11897669 0.37180215 0.19333713
0.059488345 0.14872086 0.5353951 0.50565094 -0.1041046 0.5502672 0.14872086 0.47590676
0.22308129 0.17846504 0.29744172 0.0 -0.34205797 0.059488345 0.37180215 0.029744172
0.07436043 -0.22308129 -0.029744172 0.2082092 0.07436043 0.23795338 -0.014872086 0.17846504
-0.04461626 0.059488345 0.3271859 0.17846504 0.28256965 -0.19333713 -0.059488345 0.7584764
-0.2082092 -0.28256965 -0.04461626 -0.029744172 -0.04461626 0.31231382 0.28256965 0.08923252
0.1041046 0.19333713 0.58001137 -0.08923252 -0.1041046 0.7882206 0.25282547 0.19333713
0.08923252 0.19333713 -0.28256965 0.16359295 -0.19333713 0.37180215 0.13384877 0.19333713
0.31231382 0.35693008 -0.04461626 -0.04461626 -0.07436043 -0.059488345 0.44616258 0.014872086
0.25282547 0.0 0.17846504 0.49077883 -0.22308129 -0.07436043 -0.37180215 0.26769754
-0.25282547 0.37180215 0.3271859 0.08923252 0.23795338 0.6543718 0.25282547 0.28256965
-0.1041046 -0.059488345 0.50565094 0.13384877 0.3271859 0.38667426 -0.14872086 0.34205797
0.31231382 0.25282547 -0.2082092 0.3271859 0.28256965 -0.1041046 0.14872086 -0.31231382
-0.04461626 -0.08923252 0.29744172 0.23795338 -0.059488345 0.19333713 0.13384877 0.17846504
-0.014872086 -0.31231382 0.029744172 -0.17846504 0.6097555 0.0 -0.3271859 0.26769754
-0.04461626 -0.34205797 0.44616258 0.13384877 -0.014872086 -0.13384877 0.28256965 -0.23795338
-0.22308129 0.0 0.19333713 0.04461626 -0.16359295 0.1041046 -0.14872086 -0.37180215
0.04461626 -0.16359295 0.2082092 0.6097555 0.014872086 -0.34205797 0.19333713 -0.38667426
-0.1041046 0.5353951 0.1041046 -0.029744172 0.22308129 0.08923252 -0.6097555 0.029744172
-0.4312905 0.28256965 0.16359295 -0.08923252 0.4164184 0.16359295 -0.04461626 -0.13384877
0.19333713 -0.14872086 -0.16359295 -0.014872086 0.16359295 0.11897669 -0.2082092 -0.029744172
0.07436043 0.68411595 -0.04461626 0.19333713 0.13384877 0.1041046 -0.16359295 -0.13384877
0.16359295 0.029744172 0.50565094 -0.11897669 0.6543718 0.22308129 -0.22308129 0.23795338
0.28256965 -0.17846504 0.1041046 -0.059488345 0.07436043 0.71386015 0.35693008 0.3271859
0.2082092 -0.08923252 0.44616258 -0.2082092 -0.16359295 -0.16359295 0.08923252 -0.07436043
-0.014872086 0.22308129 -0.28256965 0.08923252 0.35693008 0.34205797 -0.1041046 -0.2082092

recog/birnn/bidirectional_rnn/bw/rnn3/input_to_input_w i1 [164, 164] scale=0.016116338 zero_point=0
00000000: f102 fb13 fef7 f8fb eef7 fefe e910 0ffe
00000010: f605 ef01 e3fd 101a ff28 04fc ecfb 18f0
00000020: 00fb df01 f2fb 02fa fef6 05fc ee13 ffe0
00000030: 1005 05ff 06dd 0cf4 fdf4 0f08 fc06 08fe
00000040: f7f5 f9fc 13f9 f4ff 0206 fbef e70a fef4
00000050: e800 ed01 ecf6 f903 ff0e f5f7 fc0e f603
00000060: ecfb eef7 fdff 0105 f7ed 09ee f90d 0608
00000070: 08f9 edf7 010b 0c01 f1fd ef00 f6fd fdf7
00000080: f4fd f6ef 0b03 0009 0201 ecfb f600 fd04
00000090: ed07 fb00 0912 f3f1 03f7 0d03 09ff fff7
000000a0: f314 f508 ec1b 00eb fa03 00ef f8fe fcf3
000000b0: 0ef5 15ff 12fb f900 02f5 0423 05ca 110e
000000c0: f702 00fc 1d11 01e9 0802 f8fa fd00 f9f9
000000d0: fc09 ebc6 0fea 13f8 070f 14fb 0108 12f9
000000e0: 0e02 05f6 0bfd faf8 f5fc f6f3 f905 ecfd
000000f0: 0403 e0fe f1e7 eb0d f602 e0f7 10ff 0807
-0.24174507 0.032232676 -0.08058169 0.30621043 -0.032232676 -0.14504704 -0.1289307 -0.08058169
-0.29009408 -0.14504704 -0.032232676 -0.032232676 -0.37067577 0.2578614 0.24174507 -0.032232676
-0.16116337 0.08058169 -0.27397776 0.016116338 -0.4673738 -0.048349015 0.2578614 0.4190248
-0.016116338 0.6446535 0.06446535 -0.06446535 -0.32232675 -0.08058169 0.38679212 -0.2578614
0.0 -0.08058169 -0.53183913 0.016116338 -0.22562873 -0.08058169 0.032232676 -0.09669803
-0.032232676 -0.16116337 0.08058169 -0.06446535 -0.29009408 0.30621043 -0.016116338 -0.5157228
0.2578614 0.08058169 0.08058169 -0.016116338 0.09669803 -0.56407183 0.19339606 -0.19339606
-0.048349015 -0.19339606 0.24174507 0.1289307 -0.06446535 0.09669803 0.1289307 -0.032232676
-0.14504704 -0.17727971 -0.11281437 -0.06446535 0.30621043 -0.11281437 -0.19339606 -0.016116338
0.032232676 0.09669803 -0.08058169 -0.27397776 -0.40290844 0.16116337 -0.032232676 -0.19339606
-0.38679212 0.0 -0.30621043 0.016116338 -0.32232675 -0.16116337 -0.11281437 0.048349015
-0.016116338 0.22562873 -0.17727971 -0.14504704 -0.06446535 0.22562873 -0.16116337 0.048349015
-0.32232675 -0.08058169 -0.29009408 -0.14504704 -0.048349015 -0.016116338 0.016116338 0.08058169
-0.14504704 -0.30621043 0.14504704 -0.29009408 -0.11281437 0.2095124 0.09669803 0.1289307
0.1289307 -0.11281437 -0.30621043 -0.14504704 0.016116338 0.17727971 0.19339606 0.016116338
-0.24174507 -0.048349015 -0.27397776 0.0 -0.16116337 -0.048349015 -0.048349015 -0.14504704
-0.19339606 -0.048349015 -0.16116337 -0.27397776 0.17727971 0.048349015 0.0 0.14504704
0.032232676 0.016116338 -0.32232675 -0.08058169 -0.16116337 0.0 -0.048349015 0.06446535
-0.30621043 0.11281437 -0.08058169 0.0 0.14504704 0.29009408 -0.2095124 -0.24174507
0.048349015 -0.14504704 0.2095124 0.048349015 0.14504704 -0.016116338 -0.016116338 -0.14504704
-0.2095124 0.32232675 -0.17727971 0.1289307 -0.32232675 0.43514112 0.0 -0.3384431
-0.09669803 0.048349015 0.0 -0.27397776 -0.1289307 -0.032232676 -0.06446535 -0.2095124
0.22562873 -0.17727971 0.3384431 -0.016116338 0.29009408 -0.08058169 -0.11281437 0.0
0.032232676 -0.17727971 0.06446535 0.56407183 0.08058169 -0.87028223 0.27397776 0.22562873
-0.14504704 0.032232676 0.0 -0.06446535 0.4673738 0.27397776 0.016116338 -0.37067577
0.1289307 0.032232676 -0.1289307 -0.09669803 -0.048349015 0.0 -0.11281437 -0.11281437
-0.06446535 0.14504704 -0.3384431 -0.9347476 0.24174507 -0.35455942 0.30621043 -0.1289307
0.11281437 0.24174507 0.32232675 -0.08058169 0.016116338 0.1289307 0.29009408 -0.11281437
0.22562873 0.032232676 0.08058169 -0.16116337 0.17727971 -0.048349015 -0.09669803 -0.1289307
-0.17727971 -0.06446535 -0.16116337 -0.2095124 -0.11281437 0.08058169 -0.32232675 -0.048349015
0.06446535 0.048349015 -0.5157228 -0.032232676 -0.24174507 -0.40290844 -0.3384431 0.2095124
-0.16116337 0.032232676 -0.5157228 -0.14504704 0.2578614 -0.016116338 0.1289307 0.11281437

recog/birnn/bidirectional_rnn/bw/rnn3/input_to_output_w i1 [164, 164] scale=0.013059921 zero_point=0
00000000: 0702 05f5 09d9 e6e6 1e07 17f6 0f0a 0df9
00000010: dbfb f60b 0518 10ea fbf1 fee5 f104 0e0d
00000020: 0b04 f6fb 26f7 00eb 01f4 fa00 06eb 0510
00000030: 1bf9 07f9 1112 f70a f200 f90e e715 ebf2
00000040: 070d 000f 1902 0a08 fc00 fbf8 f810 060b
00000050: 06e7 190a 031a 2c13 02f6 01f8 fe02 1216
00000060: 11fe ff02 1709 fd22 00f8 01f4 08f8 fced
00000070: f60c 0600 09f4 0c04 eaf9 fce1 0106 1324
00000080: f614 f819 ed02 0cdd 04fb e3fb 061a 031c
00000090: 0610 14fd ff43 fcfd 02ea 2202 f705 1315
000000a0: 1f00 05eb ff13 06e5 11ea f317 0df6 12f5
000000b0: e663 2c09 e920 f8f0 f5ea 0612 f4bf f92c
000000c0: f7e7 f102 fff0 3d04 d8fe 0d12 050c f925
000000d0: e10c fefc 1a05 33ef 1210 fd0d 1824 dafb
000000e0: 0c01 031e 17c3 3b11 0807 07dd efe9 0de6
000000f0: ddf3 f205 0e3e b61f 03ce ff0b 30f1 efef
0.09141944 0.026119841 0.0652996 -0.14365913 0.11753929 -0.5093369 -0.33955795 -0.33955795
0.39179763 0.09141944 0.30037817 -0.1305992 0.19589882 0.1305992 0.16977897 -0.09141944
-0.48321706 -0.0652996 -0.1305992 0.14365913 0.0652996 0.3134381 0.20895873 -0.28731826
-0.0652996 -0.19589882 -0.026119841 -0.35261786 -0.19589882 0.052239683 0.18283889 0.16977897
0.14365913 0.052239683 -0.1305992 -0.0652996 0.49627697 -0.11753929 0.0 -0.27425835
0.013059921 -0.15671904 -0.07835952 0.0 0.07835952 -0.27425835 0.0652996 0.20895873
0.35261786 -0.09141944 0.09141944 -0.09141944 0.22201864 0.23507857 -0.11753929 0.1305992
-0.18283889 0.0 -0.09141944 0.18283889 -0.326498 0.27425835 -0.27425835 -0.18283889
0.09141944 0.16977897 0.0 0.19589882 0.326498 0.026119841 0.1305992 0.104479365
-0.052239683 0.0 -0.0652996 -0.104479365 -0.104479365 0.20895873 0.07835952 0.14365913
0.07835952 -0.326498 0.326498 0.1305992 0.03917976 0.33955795 0.5746365 0.24813849
0.026119841 -0.1305992 0.013059921 -0.104479365 -0.026119841 0.026119841 0.23507857 0.28731826
0.22201864 -0.026119841 -0.013059921 0.026119841 0.30037817 0.11753929 -0.03917976 0.4440373
0.0 -0.104479365 0.013059921 -0.15671904 0.104479365 -0.104479365 -0.052239683 -0.24813849
-0.1305992 0.15671904 0.07835952 0.0 0.11753929 -0.15671904 0.15671904 0.052239683
-0.28731826 -0.09141944 -0.052239683 -0.40485755 0.013059921 0.07835952 0.24813849 0.47015715
-0.1305992 0.2611984 -0.104479365 0.326498 -0.24813849 0.026119841 0.15671904 -0.45709723
0.052239683 -0.0652996 -0.3787377 -0.0652996 0.07835952 0.33955795 0.03917976 0.36567777
0.07835952 0.20895873 0.2611984 -0.03917976 -0.013059921 0.87501466 -0.052239683 -0.03917976
0.026119841 -0.28731826 0.4440373 0.026119841 -0.11753929 0.0652996 0.24813849 0.27425835
0.40485755 0.0 0.0652996 -0.27425835 -0.013059921 0.24813849 0.07835952 -0.35261786
0.22201864 -0.28731826 -0.16977897 0.30037817 0.16977897 -0.1305992 0.23507857 -0.14365913
-0.33955795 1.2929322 0.5746365 0.11753929 -0.30037817 0.41791746 -0.104479365 -0.20895873
-0.14365913 -0.28731826 0.07835952 0.23507857 -0.15671904 -0.84889483 -0.09141944 0.5746365
-0.11753929 -0.326498 -0.19589882 0.026119841 -0.013059921 -0.20895873 0.7966552 0.052239683
-0.5223968 -0.026119841 0.16977897 0.23507857 0.0652996 0.15671904 -0.09141944 0.48321706
-0.40485755 0.15671904 -0.026119841 -0.052239683 0.33955795 0.0652996 0.666056 -0.22201864
0.23507857 0.20895873 -0.03917976 0.16977897 0.3134381 0.47015715 -0.49627697 -0.0652996
0.15671904 0.013059921 0.03917976 0.39179763 0.30037817 -0.7966552 0.7705353 0.22201864
0.104479365 0.09141944 0.09141944 -0.45709723 -0.22201864 -0.30037817 0.16977897 -0.33955795
-0.45709723 -0.16977897 -0.18283889 0.0652996 0.18283889 0.8097151 -0.9664341 0.40485755
0.03917976 -0.652996 -0.013059921 0.14365913 0.6268762 -0.19589882 -0.22201864 -0.22201864
